actualgame/results/=MoreMovementRun3/Agent Controller/Agent Controller-254903.pt (torch, 446397 bytes, 39 tensors)

network_body._body_endoder.seq_layers.0.weight f4 [128, 6]
000000 33 70 3d 3e cc 11 59 3e 64 37 bd 3c b5 bc 2e bf
       0.18499832 0.21198195 0.023097701 -0.68256694
000010 8e 59 49 3c ca f6 7f 3e f6 99 97 3f 1f 6b 1c 3f
       0.012289418 0.24996486 1.184386 0.61100954
000020 ff 98 bc 3e 4e 15 fa 3e b8 19 82 3e ce 83 9a 3d
       0.36835477 0.4884438 0.25410247 0.07544671
000030 d2 b2 20 be b3 34 e4 bd 13 e7 00 bf 8f 51 74 bb
       -0.15693215 -0.11142864 -0.5035259 -0.0037280058
000040 23 0d bf be 89 ef 8d 3e 99 d2 61 3e 4c 23 01 bf
       -0.3731471 0.27721813 0.22052993 -0.50444484
000050 66 4d be 3e 35 c7 3f 3c 1b de d6 3d 60 62 8e be
       0.37168425 0.0117052095 0.10491582 -0.2780943
000060 55 0a ca bc 64 7e e6 3e 6a 92 09 3d b9 80 c7 be
       -0.02466313 0.45018303 0.033586897 -0.38965395
000070 f7 d4 0b bd 84 a4 11 be 52 e3 82 bd df da 49 be
       -0.034138646 -0.14222914 -0.06391014 -0.19712399
000080 b0 1c 93 bf 66 75 d3 bd 2e f3 3b be 0f a7 6d bf
       -1.149313 -0.10325126 -0.18354484 -0.92833036
000090 b3 36 26 3f 89 ae 56 3f fc 76 06 3d c8 1c 72 3f
       0.64927214 0.8386007 0.032828316 0.94575167
0000a0 18 2e a4 be c0 7c e2 be a5 8c 26 3e 4e 93 8f 3e
       -0.32066417 -0.44235802 0.16264589 0.28042072
0000b0 e4 b2 f1 be b7 88 d9 bd ab 3d 1b be dc 5f 5f be
       -0.47206795 -0.106217794 -0.15160243 -0.21813911
0000c0 97 7a 37 3d 8d 3a 8c be 44 57 18 3f da cc 12 3f
       0.044794645 -0.2738842 0.59508157 0.5734383
0000d0 01 5f 21 be 11 7d 1d 3e 47 c5 fd 3e c5 b9 e8 3a
       -0.15758897 0.1537974 0.49564573 0.0017755559
0000e0 b3 c1 23 3e fc 45 01 be da 06 de 3e 7f 27 0d bf
       0.15991859 -0.12624353 0.43364602 -0.5513839
0000f0 93 42 e0 3e d3 c2 04 3e 8c 20 a3 3e ba 11 2b 3e
       0.43800792 0.12964945 0.3186077 0.16705981
000100 52 b3 89 3f 18 4f 35 3f 4c 74 78 be 9c 5d 84 bd
       1.0757849 0.7082381 -0.24263114 -0.06463167
000110 fe f8 a8 be 0f 95 b9 3e fa d0 5c bc a1 2c 07 be
       -0.33002466 0.36246535 -0.013477558 -0.13200618
000120 4b 6a 00 bf 0d f6 64 be 74 89 92 be 7f ea 18 3f
       -0.5016219 -0.22359486 -0.28620493 0.5973281
000130 8c a1 a7 be aa 29 0d bf ec f9 b9 3e 27 88 93 be
       -0.32740438 -0.551417 0.36323488 -0.28814813
000140 32 e7 a2 be ff 99 04 3e 2b e8 30 3f fb 0d c8 3e
       -0.31817013 0.1294937 0.6910426 0.39073166
000150 81 dd 19 bd 24 df a6 be 22 b7 43 bd b0 44 33 3e
       -0.03756476 -0.32592118 -0.04778207 0.17506671
000160 f8 2d 0f 3e 08 53 a5 be 07 a8 e0 bd 09 14 4c bf
       0.1398238 -0.3228991 -0.10969549 -0.7971807
000170 3b 79 4d be 8b 41 8e be a1 e4 2d bf 05 61 a6 3c
       -0.20065777 -0.2778438 -0.67926985 0.020309934
000180 a4 4e 8b be 2c 12 81 bf 82 ea 14 3b cb 97 18 bf
       -0.27208436 -1.0083671 0.0022722785 -0.5960662
000190 dc 01 88 3a db a9 14 3d b7 df e2 be eb 18 54 bf
       0.0010376531 0.0362948 -0.44311306 -0.8285052
0001a0 93 36 06 bf 24 d4 dc bd cb 29 00 3f bb 60 00 3d
       -0.52427024 -0.1078265 0.5006377 0.03134225
0001b0 86 fa 5a 3d bf a2 bc b9 47 e0 55 3d 1a c2 d5 3e
       0.053461574 -0.0003597941 0.05221584 0.4174965
0001c0 ed 8c 00 3f 69 2c a3 be 24 ef ba be b3 a7 70 3e
       0.50215036 -0.3186982 -0.36510575 0.23501472
0001d0 82 c7 d3 3c 13 35 1c 3e 95 aa d2 3d e8 5f 57 3f
       0.025851969 0.15254621 0.10286442 0.84130716
0001e0 b3 bd 13 3f a7 19 42 3f 2b 4a 1f bf e2 ce 4e bf
       0.57711333 0.7582039 -0.62222546 -0.8078443
0001f0 57 86 0f 3f 08 19 71 be 1f ee cb 3e b3 e4 b1 be
       0.5606436 -0.23544705 0.3983011 -0.34744796
000200 fb b8 a0 be ba e1 fc 3e cd 8f 8f 3e a6 69 c4 be
       -0.3139113 0.49390966 0.280394 -0.38361853
000210 67 61 1f bf 26 6a 72 3f 98 af 3d 3f d1 df 6d bd
       -0.62258 0.9469322 0.7409606 -0.058074776
000220 88 48 31 3f 11 31 13 3c d6 c8 ad be 41 24 59 be
       0.692513 0.008983866 -0.33942288 -0.21205236
000230 ee a3 98 3d 37 12 fc 3e 26 15 46 be b3 05 05 3f
       0.07453142 0.49232647 -0.19344005 0.5196182
000240 35 47 69 be cd 74 9a 3e 4d 11 91 3d d1 fc 25 be
       -0.2278107 0.30167237 0.07083378 -0.16209723
000250 ba 9e c4 bd f5 b3 48 3c 31 a4 03 3d 13 ac aa be
       -0.09600587 0.012249936 0.032139007 -0.33334407
000260 3f 8e 19 bb a9 1a 02 3f 14 83 d7 be 96 ed 9a 3f
       -0.0023430733 0.5082193 -0.42092192 1.2103755
000270 74 17 ce 3e 39 cd e4 be e8 70 78 3e eb 4d 87 3f
       0.40252268 -0.44687822 0.2426182 1.0570654
000280 6c f8 39 be 5e 2b ca 3e e5 d9 b0 3e f1 5f 0e 3f
       -0.18161172 0.39486212 0.3454124 0.55615145
000290 4c 35 87 bd 56 81 c4 be 61 d4 11 3f 73 6e 6c 3e
       -0.066019624 -0.38379925 0.5696469 0.23089008
0002a0 d8 63 b4 3e 29 09 53 be 15 c8 3c 3f 23 f4 8c bd
       0.35232425 -0.20608963 0.737428 -0.06882503
0002b0 6b 73 84 3e e2 ff 96 be bc 1c 04 3e 55 77 41 3f
       0.25869307 -0.29492098 0.12901586 0.7557271
0002c0 d9 be 8f 3e 05 1d ae be 80 08 e2 3e ef 79 a2 3e
       0.28075293 -0.34006515 0.4414711 0.31733653
0002d0 9b 37 9d 3d 1e 66 75 be cd 39 ca be 52 c9 a4 3e
       0.076766215 -0.23964736 -0.39497223 0.32184845
0002e0 27 a0 f6 3c c9 e3 5b 3e b1 ce ae be 40 93 5a be
       0.030105663 0.21473612 -0.34142068 -0.21345234
0002f0 c0 0e 83 be e0 42 fb be ef b3 08 3e 82 0c 31 3e
       -0.2559719 -0.4907446 0.13349889 0.17289928
000300 7d cd 40 bd 03 9b 1d 3e 40 de ea be 78 3e 71 be
       -0.04707097 0.15391164 -0.45872688 -0.23558986
000310 1d ab 10 3e ed e9 24 3e 9f c7 18 3f 64 fd 2a be
       0.14127775 0.1610486 0.596796 -0.16698223
000320 9d 34 0f be 35 ea 7b be 33 34 a6 3f 3f 6b 03 be
       -0.13984914 -0.24601062 1.298468 -0.1283388
000330 02 a1 70 bd 3a 05 00 3d 9f 54 6b be cb b6 57 3f
       -0.0587473 0.031254984 -0.22981499 0.84263295
000340 9f e9 1b bf 35 05 07 bd cf 1f 02 3f 9a 0f 8c 3e
       -0.6090335 -0.03296395 0.50829786 0.27355653
000350 1f 44 3f 3f 70 29 9b be ff 99 20 3f 2e 17 64 3e
       0.7471332 -0.30305052 0.6273498 0.22274467
000360 93 e3 bd 3e cb 87 6b be 5f 67 f6 be d6 55 53 3d
       0.37087688 -0.2300102 -0.4812574 0.05159553
000370 ea 4c 31 3e b0 b3 a3 bd f5 51 f6 3e d0 da 83 3d
       0.17314497 -0.07993257 0.48109403 0.064382195
000380 bc 5d de bd a3 e8 b0 be 50 d0 8d 3d 71 82 01 be
       -0.10857722 -0.34552488 0.06924498 -0.12647416
000390 fc b8 d0 3c 0a 56 62 3e 51 ba cb be 13 75 dc 3d
       0.025478832 0.22103134 -0.39790586 0.10764518
0003a0 eb b1 03 be 4a 20 0c 3f 53 25 11 bf 9d 2d 1c be
       -0.12860839 0.5473677 -0.5669758 -0.15251775
0003b0 eb 60 5e 3e 47 32 41 3f 3a 45 1b bf 45 0a dc 3e
       0.21716659 0.7546734 -0.60652506 0.42976585
0003c0 25 e1 99 3d 5e 93 49 be 8c 52 06 3f ab a3 6c 3c
       0.07513646 -0.19685122 0.52469707 0.014443318
0003d0 24 5f 83 3d fe 99 c8 be 19 4e fb bd 5b a7 77 bf
       0.06414631 -0.39179987 -0.12270755 -0.9673974
0003e0 10 b7 a5 be 16 30 b9 3d 67 25 3a be d7 25 6d be
       -0.32366228 0.09042375 -0.1817833 -0.23158966
0003f0 7e 49 1d 3f d5 b5 ad 3e 95 bf 59 3e 86 78 b7 bc
       0.61440265 0.3392779 0.21264489 -0.022396337

network_body._body_endoder.seq_layers.0.bias f4 [128]
000000 83 62 25 3d b9 89 53 3d f5 a1 3f 3d 62 3f 02 3d
       0.04037715 0.051645014 0.046785314 0.031798728
000010 d6 d9 32 3d 8d 76 2c 3a b8 bf fe 3c bd 8d 19 bc
       0.043664776 0.0006578945 0.031097278 -0.009372172
000020 6e 27 59 3c ec f2 39 3d 8e 2e 28 3d ac 91 b1 3c
       0.01325403 0.045397684 0.041060023 0.021675907
000030 3b c9 5a 3d 66 ff 44 bd 18 d4 0b 3d 54 1f 57 bd
       0.053414565 -0.04809513 0.034137815 -0.05252011
000040 f4 7b 1d 3a 32 82 53 3d 15 02 0f bc 41 8e 89 3c
       0.0006007545 0.051637836 -0.008728524 0.016791465
000050 ee 49 2f 3c 3b 52 ee b8 ce 49 00 3d 38 94 ef 3c
       0.010698779 -0.00011364041 0.031320386 0.02924548
000060 f1 ca 12 3d 4f a7 13 3d 97 e4 b2 3c 51 cd 32 3c
       0.03583807 0.03604823 0.021837516 0.010913209
000070 a2 ca 64 3c 9a 5e 0b 3d 0a 17 f2 3c 97 18 40 3d
       0.013964327 0.034025766 0.029552002 0.04689845
000080 83 b6 a2 3c cf 43 74 bc 26 5c e7 3c 8c fe 2a 3d
       0.019862419 -0.014908745 0.028242182 0.04174666
000090 7c cc 2f 3d 78 83 67 bc 3c 3a 88 3d f1 56 fc 3c
       0.04291962 -0.014130466 0.06651732 0.030803176
0000a0 c3 4c 6d 3d de 06 5d bd b1 96 f7 3c 23 eb f3 3b
       0.057934534 -0.053961627 0.030223222 0.007443802
0000b0 c5 53 a8 3d 38 57 65 3c 79 14 2b bc 2f 55 d5 3b
       0.08219103 0.013997845 -0.010441893 0.006510399
0000c0 74 f5 29 bd e5 28 20 3a a3 f0 18 3d f3 cb f5 3c
       -0.041493848 0.00061096094 0.037338864 0.030004477
0000d0 ec 2b ab 3d ee d3 31 3d e6 6e 96 bc da cf b5 3c
       0.08357987 0.043415003 -0.018363427 0.022193838
0000e0 56 b7 68 3c 97 55 8b 3d 99 a8 04 3d bd d7 52 3c
       0.014203867 0.06803434 0.03238735 0.012868819
0000f0 e1 a7 06 3d 2d 5d 78 bd 51 ec 26 3d 7d 7a bc 3c
       0.032874946 -0.060635734 0.040752713 0.023007626
000100 4c a2 ea bb 84 55 75 3d f4 e4 d9 bc 0f b8 9c bb
       -0.0071604606 0.059896007 -0.026598431 -0.0047826837
000110 7d 48 a8 3d 74 af 10 bc 6c 40 ec 3c d8 b7 e3 bc
       0.08216951 -0.008830894 0.028839312 -0.027797624
000120 3f 2a 60 bd 10 a2 80 3d 4e 27 ef 3c d7 9f 46 3d
       -0.05472779 0.06280911 0.029193547 0.04849228
000130 12 ac dc 3c b7 c7 68 bc 59 64 5b 3b 12 a0 3d 3a
       0.026937518 -0.014207772 0.003347656 0.000723363
000140 e1 6f ac 3c b1 4a 31 3d ba 19 6c 3c 26 e4 f1 3c
       0.021049442 0.043284122 0.014410431 0.029527735
000150 3a bc 19 bd 9d f4 5d bb 3b f6 0c 3d 90 4e 40 3d
       -0.037533022 -0.0033867725 0.03441451 0.046949923
000160 9f 18 6c bc d8 15 c2 3c 31 19 a4 3d 22 52 19 3d
       -0.014410167 0.023692057 0.080126174 0.037431844
000170 c7 26 1e 3d 67 a2 b8 3d 99 6f fd 3c d9 a0 bd bc
       0.0386112 0.09015351 0.030937003 -0.023147987
000180 f7 e2 90 3c 95 a3 0a 3d ac fc 62 3d 83 61 36 3d
       0.01768635 0.03384741 0.055416748 0.04452659
000190 d9 54 65 bb 1a e7 8b 3b 9b 0f 7b 3c 06 d5 d9 3c
       -0.00349932 0.004269493 0.015323545 0.026590835
0001a0 71 7a 81 3c 40 86 48 bd 13 b3 5d 3d b6 fe 96 3c
       0.015805455 -0.048956156 0.054125857 0.018432003
0001b0 5a c1 c1 3c 88 43 d6 bc e5 2d 02 bc e6 d8 0c 3d
       0.023651768 -0.026155248 -0.007945512 0.034386538
0001c0 ee 1a 84 3d a3 47 1c 3d ba 5f 7c 3c f6 8f 25 3d
       0.06450449 0.038154256 0.015403682 0.040420495
0001d0 cc b6 0c 3d 40 72 19 3d 2f ce 4f 3c 91 82 21 3d
       0.034354016 0.037462473 0.012683435 0.03943116
0001e0 1f 5f 5a 3c 81 18 80 3c f4 da 01 3c 9a ad db 3c
       0.013328343 0.015636684 0.007925738 0.026816178
0001f0 6f 9f 50 3c 43 21 8b 3c 88 e4 b4 3c 0f 96 38 3b
       0.012733324 0.016983634 0.022081628 0.0028165614

network_body._body_endoder.seq_layers.2.weight f4 [128, 128]
000000 ca 0c 88 3c e0 48 c2 bd f4 f9 fe 3d 90 69 13 be
       0.01660766 -0.09486556 0.124500185 -0.14395738
000010 95 68 94 3d dd 7a e5 3d 93 de 88 bd cb e1 df bc
       0.0724651 0.11205075 -0.06683078 -0.027329346
000020 28 50 57 be e5 0a 47 bd 57 88 f4 3a 17 fa 04 bc
       -0.21026671 -0.048594374 0.0018656355 -0.008116267
000030 c3 8d a3 bc 92 1a cf 3d b2 42 30 be 0f b9 cc 3d
       -0.019965058 0.1011249 -0.17212942 0.099962346
000040 4f 93 6b bd 5d de b6 bd 41 74 92 3d 23 ec 2e 3b
       -0.05751353 -0.08929131 0.0715108 0.0026691041
000050 03 3c 3e be 28 ba 05 3d ea 97 97 bc 6e 59 d8 bd
       -0.1857758 0.032648236 -0.018505055 -0.10563932
000060 94 9f 1c be 38 09 41 bd 8a 71 4f bd 40 05 f6 bc
       -0.15295249 -0.047127932 -0.05064539 -0.0300318
000070 57 65 2c bd 67 8d e2 bc e7 c3 68 bd 4b 3b 16 3d
       -0.042088833 -0.027655317 -0.056827452 0.03667764
000080 84 3d 25 3e 63 d3 9b 3c 67 24 f0 bb 5c 60 ec bd
       0.16136748 0.019021695 -0.0073285582 -0.115418166
000090 39 c1 c9 bc 88 ba ef bd 0d 6b bc bd 54 7b 17 3e
       -0.024628269 -0.117055 -0.09200106 0.1479314
0000a0 a2 08 2a bc 7b 7b c1 3c 0a e4 b2 bc 7b 82 e0 3c
       -0.010378035 0.02361845 -0.021837253 0.027405968
0000b0 be 3f 05 be 06 96 2c 3d bb 93 3d 3e 27 c2 af bd
       -0.13012597 0.04213526 0.18513386 -0.085819535
0000c0 a0 aa bf 3d 38 64 3b bd 94 e0 cc 3d a7 18 0a 3d
       0.09358716 -0.045749873 0.100037724 0.033714917
0000d0 96 ae e5 bb cd 32 cf bb 77 41 96 bd 6d 08 58 3c
       -0.0070093377 -0.0063231946 -0.07336705 0.013185603
0000e0 b7 37 d3 bd ee 7a 32 3b 06 86 fa bc d4 3f e3 3d
       -0.10313361 0.0027233916 -0.030581485 0.110961586
0000f0 77 53 af bd 32 e8 24 3d 06 2c 83 bd 7d 16 2e bd
       -0.085608415 0.0402605 -0.06404881 -0.042501915
000100 7a 8c 4c 3d 83 83 c7 bd 3f df 02 be b7 d2 de bd
       0.049938656 -0.09741881 -0.12780474 -0.108800344
000110 7b 9e e0 bd 55 33 62 3b 27 f7 82 bc d9 46 55 3d
       -0.10967728 0.003451546 -0.015986992 0.05206952
000120 da 2f 9d bd 14 a2 fa 3d 63 12 09 bd 53 07 c0 bd
       -0.076751426 0.12237945 -0.0334648 -0.09376397
000130 82 86 9a bd 77 6b 15 bd 69 1c c6 3d c2 dd e8 bc
       -0.075451866 -0.03647944 0.096733876 -0.028426055
000140 0a 6f 80 3d c0 98 05 be 6d ed 99 3c b3 9f 4a be
       0.06271179 -0.13046551 0.018789971 -0.19787483
000150 48 7d 9e bc e5 47 cf bd d4 57 91 3d b5 b1 8d 3d
       -0.019346848 -0.10121135 0.0709683 0.069186606
000160 66 58 6e bd ad 3a 3a be 61 bd 93 bc f3 14 94 3c
       -0.058189772 -0.18186446 -0.018034639 0.018076396
000170 25 44 17 3d 39 ae 17 be 75 0e ce 3c ba a8 cf bd
       0.036930222 -0.14812554 0.025153378 -0.10139604
000180 15 63 8a 3d 50 96 12 be 9b 61 d1 3d ad ba e6 bc
       0.0675718 -0.14315152 0.10223695 -0.028165186
000190 27 5e 96 bc d7 f8 2c 3d 6e 48 a6 3d 66 43 ad bd
       -0.018355442 0.0422295 0.081192836 -0.08460121
0001a0 5f ba 7e 3d cd 29 32 3c db fd 76 bd 67 e8 cd bd
       0.062189456 0.010874224 -0.06030069 -0.10054093
0001b0 ad 77 74 bd bb d0 d2 3d 14 74 11 3c da 57 82 bd
       -0.059684444 0.102937184 0.008877773 -0.063644126
0001c0 73 66 2b be a1 6d 7a 3d 34 49 29 be cd 9f f2 3d
       -0.167383 0.061139707 -0.16531831 0.11846886
0001d0 5e e5 5a be 7c bb ac 3d c5 4e 2a 3e a6 6b 43 bd
       -0.21376559 0.08434197 0.1663161 -0.047710083
0001e0 1e ff 85 3d 47 1d 94 bd 42 f3 48 bd 7c c8 f0 bc
       0.065428 -0.07232147 -0.049060114 -0.029392473
0001f0 f4 f3 b6 3c 9f 15 73 be 64 a6 45 bd 89 5c 7c 3d
       0.022333123 -0.23738717 -0.048254386 0.061611686
000200 a1 10 00 3d b1 19 e7 3d 88 31 24 bd b6 cf 31 be
       0.03126586 0.11284197 -0.0400863 -0.17364392
000210 d3 de 83 bd b4 10 5f 3e 9a cd a1 bd 7a 1f 98 3d
       -0.06438985 0.21783715 -0.079005435 0.07427879
000220 a0 25 e9 bc d6 43 51 bb d8 e3 b2 3d fd 42 a8 3c
       -0.028460324 -0.0031931303 0.08734864 0.020539755
000230 40 97 75 3e cd ab 00 be f7 5e b3 bd dd 0b a0 bd
       0.23983479 -0.12565537 -0.087583475 -0.07814763
000240 63 02 3e 3d 4f cc fc bc 9f d5 86 bd a3 c5 0a 3c
       0.046388995 -0.03085914 -0.06583714 0.008469972
000250 5c c2 a7 bd 06 a9 3d 3b 73 a5 01 3c 54 21 bd bd
       -0.08191368 0.0028939857 0.007912981 -0.092348725
000260 c2 55 a5 3c 6e 90 ae bd 23 0f 0a 3d 4a 4f c6 bd
       0.020182494 -0.085236415 0.03370584 -0.09683092
000270 55 8a 96 3d e2 3e 15 3e 72 83 77 3d a5 c6 18 3e
       0.073506035 0.14574769 0.06042809 0.14919527
000280 eb 94 ed 3c 2b e0 9c 3d bb 1b 85 bd 81 cd b0 3d
       0.029001674 0.07659944 -0.0649943 0.08632947
000290 62 6a 03 3e 7f 15 83 3d dd 97 34 3d b7 e2 b3 bd
       0.1283355 0.064005844 0.04409014 -0.08783477
0002a0 6e a7 14 be 5f ce b5 3d 06 60 83 bd 67 2d 11 3c
       -0.14516994 0.08877253 -0.064147994 0.008860922
0002b0 aa c9 a8 bd a6 3f 17 3e 27 c3 6b bd 82 7c a8 bb
       -0.08241589 0.14770374 -0.05755916 -0.0051417956
0002c0 72 b4 8f 3b 8f e9 21 be 10 5e 0d 3d fd 01 ae bc
       0.0043855244 -0.15811752 0.034513533 -0.021241182
0002d0 ad d0 6d 3d d5 77 f8 3d de be 0b 3e f6 21 66 be
       0.058060337 0.12132231 0.13647029 -0.22473893
0002e0 ab 20 74 3d e1 1f 18 3e 68 ac 0d 3e 1b d6 34 bd
       0.059601467 0.14855911 0.13835299 -0.0441495
0002f0 b0 88 2c bd 05 5c be bc 2a e0 65 3d ed ae ee 3d
       -0.042122543 -0.023237238 0.056121983 0.11654458
000300 c3 e8 45 bd 7c 8e 56 bd 54 ab 45 3d b6 31 d2 bd
       -0.048317682 -0.052381977 0.048259094 -0.10263388
000310 3f 10 3a bd 3b 1b 63 3d 0b 43 2b 3e 06 36 02 be
       -0.04542565 0.05544589 0.16724794 -0.12715921
000320 ba 09 73 be 0a c0 1b 3d 87 e2 7c 3e 79 23 d2 3c
       -0.23734179 0.03802494 0.24695788 0.02565168
000330 d6 4e 3d 3d 9b f1 6b 3e 3e 07 91 bc 77 33 b7 bd
       0.046217762 0.23041384 -0.017703649 -0.08945363
000340 4c d8 e7 3a 20 e6 b3 3c 03 07 bc bc bd 79 f9 bb
       0.0017688363 0.021960318 -0.022952562 -0.0076133893
000350 4b 12 06 bd 94 1d bb bc ff 0d af bd e1 64 4e be
       -0.03273229 -0.022841252 -0.085475914 -0.2015567
000360 11 a7 3a 3d ed ea 43 bd cc a6 10 3c 07 44 20 3d
       0.045569483 -0.047831465 0.00882883 0.039127376
000370 67 62 71 be a8 68 f0 bc 26 ff 7f 3d d4 14 4a bc
       -0.23572694 -0.029346779 0.062499188 -0.012334067
000380 68 a1 1e bd f6 a7 66 3d 70 92 be 3c cf 17 22 3d
       -0.038728148 0.056312524 0.023263186 0.039573487
000390 03 62 12 3d 9d 66 43 3d 6b 9e e9 bc bb 35 08 bc
       0.035738003 0.04770528 -0.028517922 -0.008313592
0003a0 d2 48 98 3b 6d 10 6e bd 20 8c 02 be 57 19 14 3d
       0.0046473527 -0.058121134 -0.12748766 0.03615698
0003b0 6e 0b 09 3e 48 70 07 3e b0 02 aa 3d 02 4f 0d 3e
       0.13383266 0.13226426 0.08301294 0.1379967
0003c0 f1 59 1d bd de f3 2b be e4 a6 39 3d d1 bd 10 3d
       -0.038415853 -0.16792247 0.045325175 0.035337273
0003d0 31 36 77 bd f4 4e be 3c 97 b2 3b 3a 6a 5a 19 3d
       -0.060354415 0.023231007 0.0007160096 0.03743974
0003e0 ca 1f e4 bd 06 53 e2 bd 59 74 f5 3c 66 f9 2c 3d
       -0.11138876 -0.11050992 0.029962705 0.042230032
0003f0 7f 09 19 bc e3 0f 3a 3d 75 ce 8a 3d 0c 9e 1b 3e
       -0.009340643 0.045425307 0.0677766 0.15197009

network_body._body_endoder.seq_layers.2.bias f4 [128]
000000 be fd e5 3c 70 5d e2 3c 06 e5 81 3c c5 9d f1 3c
       0.028075095 0.027632445 0.015856277 0.029494176
000010 26 bb 4a 3d 35 f4 a2 3b e7 d8 75 3c 3a a2 dc 3c
       0.049494885 0.0049729594 0.015005327 0.026932824
000020 fb 2b 5c 3d 5f cb 52 3d 20 20 89 3c 9d 54 0d 3c
       0.05375288 0.05146348 0.016738951 0.00862613
000030 89 76 60 39 74 b3 c3 3c 54 89 2f 3c 4d 2b ef 3c
       0.00021406462 0.02388928 0.010713894 0.029195452
000040 ea 80 64 3d df 21 9c 3c a7 fd c1 3c 34 e6 3f bc
       0.055787005 0.01905912 0.023680521 -0.0117126
000050 31 a6 dd 3c f7 95 16 3d 0d a4 ea 3c e4 31 c3 3c
       0.027056785 0.03676411 0.028642679 0.0238275
000060 a6 af b9 3c 3f a8 98 3b 59 9e e3 3c a2 83 2a 3d
       0.022666764 0.0046587284 0.027785467 0.04162944
000070 3c 56 d9 3a 2f 06 11 3d 62 e3 96 3b 06 9e 0d 3c
       0.0016581486 0.035406288 0.004604743 0.008643633
000080 71 2a d0 3b f6 64 56 3c e2 f5 d8 3b 96 a7 dc 3c
       0.0063527157 0.013085594 0.0066211084 0.02693538
000090 bd 7b bc 3a 27 05 85 3c 2d 4f e4 3c e1 27 aa 3c
       0.0014380139 0.016237808 0.027869785 0.020770969
0000a0 5f 65 e9 3c 93 f2 c3 ba 24 67 46 bc a9 d9 31 3a
       0.02849072 -0.0014949612 -0.012109552 0.0006784448
0000b0 97 5f 65 bb 49 d8 6f 3c d3 2c 89 3c bd f0 73 3d
       -0.0034999603 0.014638969 0.016745007 0.059555758
0000c0 cf e3 c4 3c 98 71 e7 3c a8 ec 9b 3c 66 05 23 3c
       0.024034409 0.028252408 0.019033745 0.009950018
0000d0 01 ed 20 3b c2 47 06 bc da a9 ea bb fb 91 0b 3c
       0.0024555328 -0.008195819 -0.007161361 0.008518691
0000e0 28 a4 9e 3c ea a2 d3 bc c2 59 17 3c c1 e0 0a 3d
       0.019365385 -0.02583452 0.0092377085 0.03390575
0000f0 79 84 bc bb 72 14 04 3d c6 0f 92 3d c7 15 d5 bb
       -0.0057530967 0.03224606 0.07131915 -0.00650284
000100 02 21 fd 3c 6b 7b 10 bb 72 ba 5a 3d 29 41 53 bc
       0.030899528 -0.002204622 0.053400464 -0.012893953
000110 cd e8 8b 3c 44 0b b1 3c 82 f6 0a 3d 22 4f 05 3d
       0.017078782 0.021611817 0.033926494 0.03254617
000120 90 5a 91 3b 46 7c df 3c f8 d3 7e 3c ba 29 97 3c
       0.0044358447 0.027280938 0.015553467 0.018452514
000130 39 53 ec 3c af 11 02 3c 64 22 8e 3d 1e 05 35 3c
       0.028848277 0.007938786 0.06940153 0.011048583
000140 89 ee da ba a8 9f ea bb 4b c4 08 3d 55 b0 b3 3b
       -0.0016703169 -0.007160146 0.033390325 0.005483667
000150 2c 25 93 3d ff 07 02 3c a2 4d e6 b9 d7 52 14 3d
       0.07184824 0.007936477 -0.0004392686 0.036211815
000160 b2 4d c4 3c 41 90 db 3b c8 8d 10 3c 49 ec e7 3b
       0.02396283 0.006700546 0.008822866 0.007077728
000170 d0 66 28 3c b9 a8 78 bc f2 aa e9 3c 86 1d 3e 3d
       0.010278419 -0.015176945 0.028523896 0.046414874
000180 7b 79 10 3d 5a 9a 91 bb f4 9a b6 3c 11 9e 45 3c
       0.035272103 -0.004443449 0.022290684 0.012061612
000190 e9 ff 5a 3d d1 24 84 3d 19 62 37 3d 44 48 d3 3c
       0.05346671 0.06452335 0.044771288 0.025791295
0001a0 01 fb 26 bc 1a c5 4d 3c 23 e1 e3 3c 7b c0 88 3c
       -0.01019168 0.0125592 0.027817314 0.016693344
0001b0 b1 da 9c 3c 61 d6 99 3c 57 43 11 3d 04 08 4f 3d
       0.019147249 0.018778982 0.03546461 0.050544754
0001c0 5c 8d 37 bb 2f cf 3c 3a d1 82 88 3c 20 31 80 bb
       -0.002800784 0.00072025036 0.01666394 -0.003912106
0001d0 97 0c 1a 3d 77 12 4e bb bb 3b a3 3c 82 40 d2 b9
       0.037609663 -0.0031444111 0.019925943 -0.00040102383
0001e0 69 ef 27 3d bf ef 17 3d 8b 5c 04 3d 51 3f ea 3c
       0.040999804 0.037093874 0.03231482 0.028594645
0001f0 74 32 0e 3d f3 4f 00 3c 2c c5 f5 3c 33 72 59 3d
       0.034716085 0.007831561 0.030001245 0.053087424

action_model._continuous_distribution.log_sigma f4 [1, 2]
000000 66 f9 6b bd 6c 44 6f bd
       -0.05761089 -0.05841486

action_model._continuous_distribution.mu.weight f4 [2, 128]
000000 99 c0 2c 3d 4e 87 88 bb 6a fa f4 bc 88 0f 48 bd
       0.042175863 -0.00416652 -0.029904563 -0.048842937
000010 a3 4c ac 3c ec 47 03 3d 60 e1 b0 3c c8 71 ef 3c
       0.021032637 0.032051012 0.021591842 0.02922906
000020 48 43 a8 bd da 8c f0 bc 4f cf e4 3c a6 99 ec bc
       -0.08215958 -0.029364038 0.027930884 -0.028881859
000030 30 c4 19 3c 86 8e cc 3b 8a 9d 34 3d 48 dd 27 3d
       0.009385154 0.006242576 0.044095553 0.040982515
000040 b7 14 4a bc 10 5e a8 ba 31 b4 ef 3b ad 5f a5 3c
       -0.01233404 -0.0012845416 0.0073151817 0.020187223
000050 c3 8b 94 b9 fe 13 cf 3c 7b f4 41 3d 3f 62 15 bd
       -0.0002833289 0.025278088 0.047352295 -0.036470648
000060 9d 00 22 bd 86 9a 80 bd 65 48 03 3d 05 cb 77 bb
       -0.039551366 -0.06279473 0.032051463 -0.0037810218
000070 a0 3e 2d bc bb 2d 38 bc d9 6f ef 3c 22 97 ab bc
       -0.010574013 -0.011241372 0.029228138 -0.02094609
000080 41 94 29 bd 79 38 5c bd c9 50 99 3c 0e fa 3c bd
       -0.04140115 -0.053764794 0.01871528 -0.04613691
000090 84 01 d3 3c 64 a6 5c bd a6 0e a2 3c 39 a7 11 3d
       0.025757559 -0.05386962 0.019782376 0.035559867
0000a0 9a f7 5f 3d 39 ec e6 bc 60 13 21 bc 61 d5 43 bc
       0.05467949 -0.028188812 -0.0098312795 -0.011952729
0000b0 11 5b 4d bd d3 31 af 3c ee 14 f2 3c 72 c8 72 3d
       -0.050135676 0.021386063 0.029550996 0.05927319
0000c0 87 57 55 3d 75 04 9a 3c e4 6e 7e 3c 68 a5 00 3d
       0.052085426 0.018800953 0.015529368 0.031407744
0000d0 15 89 3b 3a d4 a0 20 bc 60 db 1e bc fa ac 41 bd
       0.00071539107 -0.009803969 -0.009695858 -0.047284104
0000e0 79 d2 26 3b 89 8d e2 3a f7 8f 85 bd 46 d9 87 bd
       0.0025455041 0.0017284612 -0.065216 -0.066332385
0000f0 81 79 9e bc 65 a3 66 3d 57 48 8f bc aa 32 73 3b
       -0.019345047 0.05630817 -0.017490549 0.0037109056
000100 45 7d 64 bd 28 33 01 bc a8 45 38 3d 91 a1 83 bc
       -0.05578353 -0.007885732 0.044988304 -0.016068252
000110 a6 a7 d1 bb 9d b0 7c bd ac 2e 40 b8 90 33 3e bd
       -0.006398159 -0.06169187 -4.5819834e-05 -0.046435893
000120 96 4d 8e 3b b7 74 05 3c 4b f5 83 3c 96 53 b9 3c
       0.004342745 0.008145503 0.016108176 0.022622865
000130 b1 d5 02 3d 88 d3 c5 3c 16 4c 63 3d 4b 54 0e 3d
       0.031942073 0.024148718 0.055492483 0.034748357
000140 f4 ac 36 bd 28 9b 35 3c 88 36 03 3d 67 3c d0 bc
       -0.044598535 0.011084355 0.032034427 -0.025419427
000150 68 b1 c2 3d 7a 18 e1 3c 7e e4 ce bc 27 70 6e 3d
       0.09506494 0.027477492 -0.025255438 0.058212426
000160 1a 79 13 3c ce 03 50 3d 1b 87 b7 3c 4e 9a ac 3b
       0.009001041 0.05078488 0.02240329 0.005267418
000170 ed 6c 65 bd 63 f3 0b bd 43 ab d4 3c 0f 61 00 bd
       -0.056012083 -0.03416766 0.02596057 -0.031342562
000180 7c eb 9f 3d eb 17 92 bc 38 f6 0d 3d 72 9f 57 3c
       0.07808587 -0.01783367 0.03465864 0.013160573
000190 34 5c 0b bd 5a 56 22 3a 30 96 7f bd 97 3f d1 bc
       -0.03402348 0.0006192677 -0.06239909 -0.025543017
0001a0 ae 45 17 bc 90 23 06 bd 55 47 61 bc e9 07 e8 bc
       -0.0092329215 -0.03274876 -0.013749917 -0.028324084
0001b0 26 a5 93 3c 14 67 2a 3d 4c df ce 3c 9c d5 b3 bd
       0.018023085 0.04160221 0.02525296 -0.08780977
0001c0 27 38 89 bc 94 30 0d 3c 00 00 19 bd b1 e0 c2 bc
       -0.016750408 0.008617539 -0.037353516 -0.023788782
0001d0 92 05 54 3d fa ad 74 bc e0 4e 3b bd e9 5e fe bb
       0.051763125 -0.014934057 -0.045729518 -0.007762779
0001e0 ee af 33 3d e7 65 08 3c 98 a8 93 3d b6 bd 6b 3d
       0.04386895 0.008325077 0.07209891 0.05755397
0001f0 88 da f6 bc 06 3e f3 3c 82 86 df 3c 8c 34 69 3c
       -0.0301335 0.029692661 0.027285818 0.01423372
000200 8e 56 b1 3c 1b a2 0e 3d 72 2d 11 bd d6 b4 a4 bc
       0.021647718 0.034822565 -0.03544373 -0.02010576
000210 9b 2c a0 3d 6b 69 d8 3c b7 46 46 3d a2 78 06 bd
       0.07821008 0.026417455 0.048407283 -0.03282989
000220 71 a4 8b bd 1e 39 3a 3d f6 06 13 3d 18 cb 8e 3c
       -0.06818474 0.045464627 0.03589531 0.017430827
000230 fe e1 21 bc a9 ff 9f 3c 77 2e 3c 3c a5 40 04 bd
       -0.009880541 0.019531088 0.011485687 -0.032288212
000240 75 b3 95 bd 0a 9e 2a bd 19 44 69 3d d4 8f 62 bc
       -0.07309619 -0.041654624 0.05694971 -0.013828237
000250 74 c3 59 3d 26 81 12 3d 0f f4 83 bb 53 60 68 3d
       0.053164914 0.035767697 -0.004026897 0.056732487
000260 a3 06 c7 3c 89 0f 05 bc a1 8a e6 3b f7 8f 9a bd
       0.024295157 -0.00812138 0.007035569 -0.0754699
000270 1d 34 bc 3c 6f 78 dc 3d 02 a5 67 bb a7 d7 fe 3c
       0.022974068 0.107651584 -0.0035346155 0.03110869
000280 f1 ab af bc a5 25 64 bc 1c 2e 97 bc 9c 78 36 3c
       -0.021444293 -0.013924991 -0.018454604 0.011137154
000290 f0 68 a2 bb de 50 a4 3c 4b 72 13 3d b0 fa 1f bc
       -0.004956357 0.020058092 0.03599767 -0.009764358
0002a0 61 68 c1 bb 7d b3 d9 3b 1a b9 55 3c e0 9b 1a 3d
       -0.0059023355 0.006643711 0.01304462 0.03774631
0002b0 fb fe 82 3c ab 17 47 bc 90 2b 53 bb c5 e2 6e 3c
       0.015990725 -0.012151639 -0.003222201 0.014580433
0002c0 2e 69 83 3c 27 3b 34 bd 1d ba 97 3c 4c c3 e5 bc
       0.016041365 -0.044001725 0.018521363 -0.028047226
0002d0 96 2c 46 3d ee 9a b4 bb c7 00 49 3c 43 37 3d 3d
       0.048382364 -0.005511633 0.012268252 0.04619528
0002e0 23 6f 36 bd 65 cd 6e bb f6 5d 37 bd 82 dc 2f 3c
       -0.044539582 -0.0036438343 -0.044767343 0.0107337255
0002f0 e6 b5 7a 3c 61 63 e7 bb 8d 9a 7e bd c3 fe 86 bb
       0.015302157 -0.0070614074 -0.06215911 -0.0041197254
000300 54 45 7c 3d 6e 2c f2 3b 95 46 d5 bd d1 7e 39 ba
       0.061589554 0.0073905503 -0.10413853 -0.0007076087
000310 46 82 f6 3c 36 9a 0d 3d a4 95 26 3d cc ee 7b 3d
       0.030091416 0.034570895 0.040670052 0.06150703
000320 ef cf 5c 3c 3a 77 8b bd 42 01 87 bb 07 56 ba bc
       0.01347731 -0.0680985 -0.004120023 -0.0227461
000330 29 09 af bc 8a 46 38 3a ed 2e ce bd 21 26 98 3c
       -0.021366673 0.0007029554 -0.10067544 0.018572869
000340 f3 79 40 bc d6 0d ff 3c 73 04 17 bd dd 25 47 3b
       -0.011747825 0.031134527 -0.036869477 0.0030387559
000350 24 b1 61 3d 74 e8 aa bc 1a 92 b5 3c 4e 8e 37 3c
       0.055100575 -0.020862795 0.022164393 0.011203362
000360 bd 78 26 3d e4 2b 20 3c e9 e1 02 3d a5 37 14 bc
       0.04064249 0.009776089 0.031953726 -0.00904647
000370 d9 1a 31 39 6e 8a ba bb 91 59 a7 3b 5a b3 b3 bd
       0.00016890037 -0.0056927716 0.0051071127 -0.08774443
000380 5c 18 20 3c dc 11 0c bc 62 87 98 3c 8e e9 23 3c
       0.009771433 -0.00854918 0.018619243 0.010004414
000390 cc d9 84 bd 16 a6 81 3d 2d e0 5d bd 39 f7 62 3d
       -0.06486854 0.063305065 -0.05416887 0.05541155
0003a0 c7 39 9a 3c 60 6b be 3b 3d 43 34 3d db 6a 98 bc
       0.018826379 0.00581114 0.044009436 -0.01860564
0003b0 d5 74 96 3c 34 59 a1 3c 5d 98 1c bd 1d 10 74 bc
       0.018366257 0.019695856 -0.038231242 -0.01489642
0003c0 11 3b c0 3c a9 07 82 bc 9a a4 1d 3d 37 af cc 3b
       0.023465665 -0.015872793 0.038487054 0.006246473
0003d0 3e e6 b6 bb b6 e1 24 bd e5 97 8b 3c bd 8d f2 bc
       -0.005581646 -0.040254317 0.017040202 -0.029608602
0003e0 08 cc a2 b8 2f 1a 84 3d 4e 0c 9f bc 5e 23 7e bc
       -7.762766e-05 0.064503066 -0.019415047 -0.015511362
0003f0 91 3e 27 bd 23 05 19 3c 2a 3a b3 bc 58 22 8c 3d
       -0.040831152 0.009339604 -0.02187832 0.06842488

action_model._continuous_distribution.mu.bias f4 [2]
000000 f9 95 0f 3c 75 d6 5a bb
       0.008763784 -0.0033391987

action_model._discrete_distribution.branches.0.weight f4 [1, 128]
000000 47 28 4a bc 3c ce 1e bc 78 19 65 bc 5a 27 2f ba
       -0.012338704 -0.009692725 -0.013983123 -0.0006681584
000010 ec 54 a2 3b ce 31 98 3a ee 19 c0 3b 25 d8 7a bc
       0.004953971 0.0011611523 0.005862466 -0.015310322
000020 af f0 a3 bb 4a d8 0b 39 6a 04 2d 3b 60 e1 28 bc
       -0.005003057 0.00013336647 0.0026400336 -0.01030764
000030 e5 52 46 3c 2e 12 bc 3a ff 37 ae 39 1f af c9 3b
       0.0121047245 0.001434868 0.00033229587 0.0061549093
000040 36 52 1b 3b 45 6d 54 3a 52 12 1d bc ac 9a 2d bc
       0.0023700125 0.00081034406 -0.009586887 -0.010595959
000050 67 f9 31 3b 83 d3 0b 3b fe e1 ba 3a 03 89 e0 3b
       0.0027156712 0.0021335788 0.0014258025 0.0068522706
000060 97 c7 8b 3b 72 5e 50 3b 5b e9 25 bc 55 95 d7 3b
       0.0042657363 0.0031794575 -0.010126437 0.006579081
000070 7e 80 8e bb 73 83 31 ba 8b 12 bc bb 6b c4 25 3b
       -0.0043488136 -0.00067716016 -0.005739515 0.0025294076
000080 12 f7 ea 3b a7 8f c4 bb 3d 34 e3 ba 5c 52 97 bb
       0.0071705664 -0.00599857 -0.0017334294 -0.0046179723
000090 ad 8b fd ba 81 ca b2 3c 73 ba fc ba 2e 77 30 3c
       -0.0019343995 0.021825077 -0.001928164 0.010770602
0000a0 36 b8 90 bb f5 de d7 3a a3 8b 1a bc 05 f6 4e 3b
       -0.004416491 0.0016469645 -0.009432706 0.0031579745
0000b0 1f a3 32 3c f8 ef d2 3b ab a8 3e 3b ad eb 37 bb
       0.010903149 0.006437298 0.0029092233 -0.0028064058
0000c0 9a 7f 10 3b 02 cd 96 3a 23 b3 eb 3a cf 27 55 bc
       0.0022048713 0.0011505189 0.0017982464 -0.013009979
0000d0 43 3d 5c 3b e7 6b 3a bb ca f5 d3 3b d7 e9 a3 3b
       0.003360585 -0.0028445662 0.0064685093 0.005002241
0000e0 9d 84 7b ba ba 1a f9 3a e8 d8 2d bc 6a a8 46 3c
       -0.0009594651 0.0019005158 -0.0106107965 0.012125114
0000f0 70 77 47 3c 7d d1 0c bc 22 a1 71 bc a7 5a 11 bc
       0.012174472 -0.008594868 -0.01474789 -0.008871711
000100 20 ec 56 bc af b4 68 3b 1b 9b 7c 3c 05 cc ea 3a
       -0.01311782 0.0035508086 0.015417839 0.0017913586
000110 df 67 0a bc c8 bc fd 3b 2b e7 7e b9 e6 61 ad 3a
       -0.008447616 0.0077434517 -0.00024309444 0.0013228029
000120 5a 45 6e bc b3 58 27 3b 8e eb 0f 3c d2 3f 22 ba
       -0.014542902 0.0025535047 0.008784188 -0.00061893195
000130 30 06 9d 3b 20 c3 e7 3b d8 1b 23 bc 13 69 28 bc
       0.0047919974 0.0070728213 -0.009955369 -0.010278958
000140 6a b4 46 3c 26 61 02 3b 9a 95 d4 39 87 31 be bb
       0.012127975 0.001989433 0.00040547253 -0.005804244
000150 7b 81 26 bb c3 08 06 3c 52 76 bc bb 22 ab d2 39
       -0.0025406766 0.0081808 -0.0057514096 0.00040181825
000160 e3 7a fb bb 16 35 27 bb 13 ad 0c bc 01 1e 41 bb
       -0.0076745613 -0.002551382 -0.008586186 -0.0029467347
000170 7b 2a c8 3a 1b b5 70 bb bc 6c 87 bc e5 b8 72 3c
       0.0015271449 -0.003672904 -0.01653134 0.01481459
000180 7c 5f 1b 3c 68 1a 0d 3b 7e 99 0c 3c 63 62 4f 3c
       0.0094832145 0.0021530632 0.008581517 0.012657735
000190 0c 20 ac 3b c9 ee 08 bb d5 17 29 bc 7b 4f 9b 3a
       0.0052528437 -0.002089428 -0.010320623 0.0011849249
0001a0 e5 73 47 bb 2b e2 cc 3b cc 2e 4b 3b a2 7c c6 3a
       -0.0030434069 0.0062525473 0.0031003235 0.0015143345
0001b0 8b 3f bc 3c 07 29 fd bb 5f 67 bc 39 fc 95 31 39
       0.022979518 -0.007725838 0.00035935172 0.00016935909
0001c0 b9 32 06 3c 85 40 4a 3c b9 87 b1 3b 3a af 11 bb
       0.008190804 0.012344484 0.0054177907 -0.0022229687
0001d0 3b 9e de 3b 73 64 19 3c 7b 39 a3 bb 33 8f 32 bc
       0.006793765 0.009362328 -0.0049812174 -0.010898399
0001e0 9a 3c 5e 3c b3 a8 4c 3b cd 06 ad bb 9f e5 d2 ba
       0.013564253 0.0031228482 -0.0052803517 -0.0016090161
0001f0 cb 64 b4 3b 33 c9 a9 3c 67 e5 43 3c 0d 3b 82 39
       0.0055051795 0.020725822 0.011956549 0.00024839528

exp_avg f4 [128, 6]
000000 ac fa e6 b9 c2 ac 36 38 80 51 5e b8 25 c7 fa b9
       -0.00044055784 4.3553075e-05 -5.3004827e-05 -0.0004783209
000010 29 cf 47 38 9c 6e 5a b9 08 35 e5 36 58 5e ba b7
       4.763823e-05 -0.00020831305 6.8309055e-06 -2.221686e-05
000020 54 32 44 b8 f1 ef 81 b9 e3 8b eb b7 70 66 ea 38
       -4.6776913e-05 -0.00024783568 -2.8079323e-05 0.0001117707
000030 da 1a ca 39 b1 06 5a b8 16 49 2e 3a 70 11 44 39
       0.00038548448 -5.1981482e-05 0.0006648464 0.00018698513
000040 7a 0b 76 b8 d4 02 a0 39 58 68 b6 37 9a 07 9d b6
       -5.866166e-05 0.00030519685 2.174468e-05 -4.6798496e-06
000050 61 65 0c b7 e2 c9 87 b8 82 ed 88 b6 51 79 a8 39
       -8.368254e-06 -6.474905e-05 -4.0807654e-06 0.00032133845
000060 ce 22 39 b9 0b 0c 94 37 30 4d ac b9 c7 23 4e b9
       -0.0001765594 1.7648583e-05 -0.00032863906 -0.00019659019
000070 a6 33 91 37 8d b5 53 b9 e9 6d 58 b8 1e f3 57 b7
       1.7309398e-05 -0.00020190161 -5.1600775e-05 -1.2871604e-05
000080 c4 a8 2b b7 c8 7d a1 b7 c4 6e 6f b7 e2 24 9c b8
       -1.0231688e-05 -1.9251267e-05 -1.42713e-05 -7.4455296e-05
000090 ef 85 00 b9 4d 53 54 b7 8c 95 0a b5 43 61 a8 b8
       -0.00012256925 -1.265558e-05 -5.1626625e-07 -8.028981e-05
0000a0 08 5c 83 b7 b8 bd 67 37 e8 a1 02 39 6e 58 9a b5
       -1.5659272e-05 1.3812845e-05 0.00012458081 -1.149963e-06
0000b0 a0 ca a2 38 d8 6e 9a 38 e2 08 10 b6 6e cd 18 b7
       7.762504e-05 7.3639385e-05 -2.1462843e-06 -9.107736e-06
0000c0 8c 72 7b b9 f7 78 6c 36 65 33 82 38 6e 01 0b b9
       -0.00023979897 3.5237151e-06 6.208456e-05 -0.00013256606
0000d0 7e fc 67 36 47 cc 0f 39 f8 db 8c b9 9a f2 e5 b6
       3.4568652e-06 0.00013713642 -0.0002686677 -6.8529744e-06
0000e0 9a a1 81 b8 a3 6d 9f b9 4c 8f ec b6 30 ff 5f 39
       -6.1813e-05 -0.0003040853 -7.05003e-06 0.00021362002
0000f0 18 57 81 b7 95 d6 83 36 0a 7b 81 38 f4 ff 05 b9
       -1.5418555e-05 3.929085e-06 6.174117e-05 -0.00012779218
000100 9f b7 63 36 ec c9 66 37 bd f7 63 39 2f 7b ca b6
       3.3932517e-06 1.3756082e-05 0.00021740697 -6.0344096e-06
000110 31 a5 31 38 d9 27 8c 39 e2 26 f1 b6 08 37 f7 b8
       4.2353935e-05 0.0002673257 -7.1868863e-06 -0.00011788128
000120 4c 45 21 37 77 c8 61 b7 1e ce 26 b8 44 f3 80 b8
       9.612482e-06 -1.3457719e-05 -3.9769446e-05 -6.1488274e-05
000130 61 8f 81 b7 74 05 c2 b7 ca b4 ea 38 78 a6 01 37
       -1.5444764e-05 -2.3129141e-05 0.00011191664 7.727758e-06
000140 3b c2 02 39 d0 e8 f6 38 2e 41 13 37 34 49 1c b9
       0.00012470123 0.00011773559 8.777059e-06 -0.0001490459
000150 4f 04 70 b9 78 4c 05 b7 90 13 8e b7 df 7b 2f b9
       -0.00022889789 -7.945222e-06 -1.6936829e-05 -0.00016735446
000160 0f 5c 18 b7 ab 9b 7a 38 a1 a2 78 b8 47 c5 31 36
       -9.08134e-06 5.9749622e-05 -5.9279268e-05 2.6489886e-06
000170 74 d6 92 b8 de 9c b1 37 02 f3 4d 36 68 b0 07 b6
       -7.0017675e-05 2.1173091e-05 3.068883e-06 -2.021925e-06
000180 bf eb d0 37 1c 58 04 36 33 36 44 b8 e2 e8 95 37
       2.490531e-05 1.972082e-06 -4.678052e-05 1.7870629e-05
000190 b8 fe b8 35 a4 8b 29 b8 34 bd 9a 38 bc d3 e7 b6
       1.3783201e-06 -4.042279e-05 7.378534e-05 -6.9089856e-06
0001a0 22 f3 9d 39 dd be 9a 37 d2 1b e9 b6 e4 94 71 39
       0.00030126522 1.8447108e-05 -6.94718e-06 0.00023039017
0001b0 67 10 8a b8 ec 49 cb b6 e0 4b 59 36 4c bf 65 b7
       -6.583408e-05 -6.058477e-06 3.2379685e-06 -1.3694003e-05
0001c0 e5 56 fd b6 74 35 d8 b8 99 6c 08 b9 ec 42 6f b6
       -7.5501034e-06 -0.00010309639 -0.00013010426 -3.565273e-06
0001d0 6e 97 6a 39 a9 b7 7e b9 3c 75 8e b6 e2 cf 5e 39
       0.00022372391 -0.00024291746 -4.2455777e-06 0.00021249012
0001e0 89 1e 08 b9 aa 73 93 37 e8 94 d1 b6 08 c9 5e b9
       -0.00012981346 1.7577626e-05 -6.2460203e-06 -0.0002124646
0001f0 e4 23 95 37 de 8a ac b8 c2 dc 4c b7 5a ee fc b6
       1.7778897e-05 -8.227465e-05 -1.2210747e-05 -7.537933e-06
000200 f8 85 c5 b6 54 9d 81 37 1d 79 17 b7 e8 41 2d 36
       -5.8866535e-06 1.545126e-05 -9.0285e-06 2.5817371e-06
000210 b7 a4 42 b9 8a d4 5b b7 53 a5 0a b9 14 a7 d4 38
       -0.00018562643 -1.3102903e-05 -0.00013222294 0.000101400685
000220 89 62 94 b7 9d a2 cd b8 51 4b d2 b9 bc 10 cb b6
       -1.7688859e-05 -9.805451e-05 -0.00040110436 -6.0518196e-06
000230 62 0b f2 38 83 22 a2 b9 a2 da 0c b7 84 21 35 39
       0.000115415794 -0.0003092476 -8.395555e-06 0.0001727399
000240 c1 78 6e b9 52 a7 39 37 f6 60 be b7 dd d2 b9 b8
       -0.00022742433 1.1065817e-05 -2.2694916e-05 -8.860764e-05
000250 e8 e5 3a 37 93 b5 fe b8 6a b7 02 b9 80 ee db b7
       1.1139993e-05 -0.00012145485 -0.00012466093 -2.6217895e-05
000260 a3 6b d1 37 5e 91 29 b9 dc 0b 02 b8 9c 8e 28 b9
       2.4964864e-05 -0.0001617125 -3.100546e-05 -0.00016074855
000270 92 ff 54 b9 60 02 75 b6 38 49 0e b7 e3 bf 10 b7
       -0.00020313103 -3.6509227e-06 -8.480907e-06 -8.627746e-06
000280 8c 51 bb b6 e0 54 9a b6 e7 a3 66 b9 d9 30 05 38
       -5.5825276e-06 -4.5994384e-06 -0.00021995568 3.1755164e-05
000290 38 e0 31 39 78 22 40 b8 f0 d7 0e 38 3a f8 a9 b9
       0.00016963563 -4.580847e-05 3.4056546e-05 -0.00032419135
0002a0 1c 67 5a 38 a7 2c cb b7 7f 45 1f b9 0c db 0a 39
       5.207128e-05 -2.4220279e-05 -0.00015189311 0.00013242307
0002b0 b9 54 d8 b7 ca 87 14 39 d4 f7 6f 38 fe 2b a9 37
       -2.5788659e-05 0.00014164965 5.721285e-05 2.0166855e-05
0002c0 e8 96 6b 38 ca 68 87 b9 97 8b aa 37 f6 8c 52 b9
       5.616891e-05 -0.0002582728 2.033058e-05 -0.00020079673
0002d0 6c c8 9b 39 13 30 97 b7 44 63 1d 39 36 a5 8e 39
       0.0002971323 -1.8022989e-05 0.00015009666 0.00027207442
0002e0 76 18 c1 b7 d0 eb 2b b9 88 69 ee 37 b6 4e 57 36
       -2.3018783e-05 -0.00016395678 2.8420953e-05 3.2083312e-06
0002f0 42 72 bb 38 b6 55 15 b9 60 a6 73 36 78 48 43 b7
       8.938137e-05 -0.00014241677 3.6306665e-06 -1.1639779e-05
000300 80 4a 03 38 90 aa 8d 35 48 26 ad 39 f3 f3 3e b9
       3.1302217e-05 1.0554959e-06 0.00033025653 -0.0001821069
000310 80 49 f2 34 50 82 54 38 69 05 b1 b8 4a 52 78 37
       4.512949e-07 5.06661e-05 -8.4410254e-05 1.4801111e-05
000320 f0 95 5f 38 52 17 df b7 18 25 84 37 b8 ab 0e 38
       5.3306983e-05 -2.6594531e-05 1.57529e-05 3.4015364e-05
000330 8c b1 6a b8 c6 50 ef b5 58 c5 d4 b8 1e 67 19 b9
       -5.59553e-05 -1.7830396e-06 -0.00010145706 -0.00014629631
000340 69 e9 05 b6 c4 3b 20 b8 67 39 83 39 97 ba 32 b7
       -1.9954407e-06 -3.8202634e-05 0.00025029035 -1.0653071e-05
000350 ee ad d6 b8 93 35 79 39 34 9a 60 b7 7d 86 2c b9
       -0.00010236712 0.00023766448 -1.3387344e-05 -0.00016453299
000360 33 f2 b2 38 d3 5d 8e b6 30 ad 66 b7 1b 1c 11 b9
       8.5328145e-05 -4.2428524e-06 -1.3749392e-05 -0.00013838748
000370 d3 28 d1 b6 73 56 66 38 d5 9e 90 b8 6d 8d 4b 37
       -6.233438e-06 5.4916785e-05 -6.89604e-05 1.2132671e-05
000380 e0 80 d0 35 51 09 09 39 c2 21 50 37 e8 1f b7 b7
       1.5534715e-06 0.00013068809 1.2405626e-05 -2.1830157e-05
000390 b5 4f bb 38 58 0b 0d b8 a8 3a 89 39 fa e1 4f b8
       8.9317014e-05 -3.3627584e-05 0.0002617438 -4.9563103e-05
0003a0 28 a7 25 b8 39 29 61 b8 07 85 89 b8 da 7c 0b b7
       -3.9494742e-05 -5.3682572e-05 -6.557447e-05 -8.314115e-06
0003b0 e4 ba ab 38 6e 5b 0b b9 bc 38 36 b7 e5 9a 17 39
       8.1887265e-05 -0.00013290133 -1.0861255e-05 0.00014458185
0003c0 d4 6c 8d 38 7e d6 50 b8 e3 bb 93 b9 da 91 25 39
       6.743675e-05 -4.9790826e-05 -0.0002817801 0.0001578996
0003d0 c8 74 73 b8 3c 6a 85 39 ea ef 22 38 b8 1c d9 b4
       -5.8044476e-05 0.00025446888 3.8847247e-05 -4.0440295e-07
0003e0 60 1f 0e b7 da e1 1e 38 a0 0d 91 b4 20 df e0 b4
       -8.471165e-06 3.7880476e-05 -2.7018268e-07 -4.1885596e-07
0003f0 95 7c 5e 39 6b 3a 64 37 cf ee 09 39 e0 24 8f b8
       0.0002121798 1.36034605e-05 0.00013154301 -6.82564e-05

exp_avg_sq f4 [128, 6]
000000 91 24 d5 35 9f 5a 6c 32 8c 99 a0 35 e8 97 0c 36
       1.5880379e-06 1.3757613e-08 1.1965617e-06 2.0950047e-06
000010 48 fb a8 32 07 f6 ba 35 0a 33 7e 33 ce 60 83 30
       1.9672044e-08 1.3929683e-06 5.9185403e-08 9.559018e-10
000020 a1 11 3b 33 9d b5 c2 33 0c 88 b9 30 77 aa 93 33
       4.3555364e-08 9.066864e-08 1.3499188e-09 6.876228e-08
000030 87 86 ba 35 83 27 8b 32 2a 91 b9 35 0f d2 f8 35
       1.3897233e-06 1.6199698e-08 1.3825822e-06 1.8538575e-06
000040 9e 09 c6 32 ac 2c d5 35 38 01 9f 35 69 ba 2b 32
       2.3054607e-08 1.5882738e-06 1.1846778e-06 9.995895e-09
000050 03 0b 6e 35 99 d1 a6 35 90 49 73 32 8e 27 96 35
       8.8677933e-07 1.2428965e-06 1.4161188e-08 1.1187383e-06
000060 bf f9 86 35 69 c5 2c 32 29 72 38 35 27 b9 c4 35
       1.0056464e-06 1.00566035e-08 6.8711466e-07 1.4657024e-06
000070 d1 31 76 32 33 49 6a 35 92 90 3e 34 2b 70 1f 31
       1.43304115e-08 8.727831e-07 1.7747723e-07 2.3201305e-09
000080 00 e4 5f 34 12 26 6f 34 2e 08 62 31 8c 15 79 34
       2.085144e-07 2.227246e-07 3.2891978e-09 2.3197771e-07
000090 e8 86 f9 33 84 37 fb 30 a8 7e 4b 34 3e 93 38 34
       1.16195054e-07 1.8278432e-09 1.8951926e-07 1.7189902e-07
0000a0 30 53 33 31 cd e4 72 34 26 67 0c 34 a2 f4 e6 30
       2.6095215e-09 2.2621244e-07 1.3076041e-07 1.6804231e-09
0000b0 8f 30 41 34 11 f0 1e 34 3e 59 24 31 50 6b 67 34
       1.7992191e-07 1.4802232e-07 2.391587e-09 2.1552592e-07
0000c0 9e 19 f5 34 e9 cf 62 31 b5 bb a9 34 65 71 e7 34
       4.5653445e-07 3.3005512e-09 3.1615278e-07 4.3109608e-07
0000d0 79 a6 a1 31 0a 5f ea 34 b3 31 08 35 78 f5 c7 31
       4.7046425e-09 4.3655047e-07 5.073627e-07 5.819569e-09
0000e0 f9 41 cd 34 ae 3c 1e 35 0e 87 0d 32 b2 e3 11 35
       3.8232227e-07 5.894789e-07 8.237988e-09 5.434805e-07
0000f0 18 07 02 35 d3 7c 7f 31 8d 4a a9 34 2e 1b 01 35
       4.8439097e-07 3.7178338e-09 3.1532946e-07 4.8095797e-07
000100 ed 05 b6 31 70 65 05 35 62 8b 97 34 31 42 2f 31
       5.297571e-09 4.969397e-07 2.8227356e-07 2.5503477e-09
000110 f7 e9 7a 34 d3 d7 b3 34 54 3f 79 31 ad ec aa 34
       2.336818e-07 3.349838e-07 3.6270267e-09 3.1837172e-07
000120 15 2c a8 34 66 34 35 31 9f 78 6c 34 5b c4 a8 34
       3.1324512e-07 2.6368752e-09 2.2023094e-07 3.1435306e-07
000130 b9 b2 81 31 bb 50 91 34 2d 57 d0 34 eb 46 3a 31
       3.7747125e-09 2.7067094e-07 3.8806448e-07 2.7106875e-09
000140 b3 b2 41 34 59 8a cc 34 4b 91 84 31 7c 93 95 34
       1.8039536e-07 3.8098622e-07 3.8582235e-09 2.7860722e-07
000150 41 b4 03 34 49 7f 03 31 c3 e6 27 34 fb ab 39 34
       1.2265902e-07 1.9135362e-09 1.5637038e-07 1.7292034e-07
000160 d7 20 3b 31 f4 3e 55 34 ac 0f 4c 33 e1 98 30 30
       2.7230749e-09 1.9860073e-07 4.7511705e-08 6.424568e-10
000170 24 f3 14 33 4c 81 b2 33 c8 5c 7b 30 8a 6e 44 33
       3.468007e-08 8.31229e-08 9.144512e-10 4.573534e-08
000180 d4 82 9c 33 c1 77 5e 30 92 eb 87 33 09 58 08 34
       7.2881136e-08 8.093331e-10 6.3292774e-08 1.2698014e-07
000190 84 6b 9e 30 2e fe b1 33 e5 c3 94 34 75 20 4e 31
       1.1526571e-09 8.28844e-08 2.770968e-07 2.9995395e-09
0001a0 99 0c 52 34 a6 a1 c9 34 e9 71 92 31 20 57 83 34
       1.9562357e-07 3.7556782e-07 4.2621093e-09 2.4464043e-07
0001b0 78 f4 67 34 82 d2 03 31 7f 64 29 34 98 b7 4d 34
       2.1602489e-07 1.9182669e-09 1.5775912e-07 1.9158904e-07
0001c0 0d 30 3b 31 7b 79 56 34 53 d1 d7 34 21 a3 81 31
       2.7239395e-09 1.9974497e-07 4.0199174e-07 3.7729397e-09
0001d0 94 9b ee 34 3c b0 00 35 0d 8e b9 31 c1 0c 04 35
       4.4444153e-07 4.794017e-07 5.400358e-09 4.919239e-07
0001e0 c1 9a 88 34 c2 9a 41 31 6c 56 56 34 81 ec b7 34
       2.5444572e-07 2.8173166e-09 1.9961743e-07 3.4258485e-07
0001f0 19 2e 89 31 e2 a5 96 34 28 3d b8 33 6e 6b 61 30
       3.9924655e-09 2.8060373e-07 8.579292e-08 8.200719e-10
000200 0f c4 93 33 90 2d b9 33 6d 86 a0 30 5b bb cb 33
       6.880884e-08 8.6230216e-08 1.1679738e-09 9.487004e-08
000210 99 58 10 35 86 08 bb 31 e0 7c 06 35 b4 3e 35 35
       5.3773107e-07 5.4433853e-09 5.0100607e-07 6.7519e-07
000220 61 1d 05 32 63 30 0d 35 fd 7b d7 35 b4 0d 50 32
       7.748299e-09 5.2597005e-07 1.6054834e-06 1.2110309e-08
000230 94 95 ba 35 2f 58 ed 35 46 e4 94 32 ea 65 e9 35
       1.3901613e-06 1.7683541e-06 1.7333274e-08 1.7389514e-06
000240 fc 65 80 34 e6 18 37 31 05 a1 3c 34 e4 ab c8 34
       2.391606e-07 2.6644158e-09 1.7567443e-07 3.737797e-07
000250 e9 4c 82 31 0a 90 5e 34 95 75 55 35 ab 71 ea 31
       3.7922416e-09 2.0727762e-07 7.951979e-07 6.823219e-09
000260 cb 47 3c 35 71 0b 77 35 c6 e7 27 32 2b 24 85 35
       7.013993e-07 9.203132e-07 9.7733786e-09 9.919798e-07
000270 c7 e3 b6 34 b9 0f 56 31 d1 72 3f 34 53 40 cc 34
       3.4065872e-07 3.1150036e-09 1.7830031e-07 3.8044763e-07
000280 46 da 97 31 c6 a9 94 34 67 d3 22 36 62 17 8b 32
       4.419493e-09 2.7690675e-07 2.4262933e-06 1.6192363e-08
000290 79 24 ac 35 df 16 24 36 26 31 c6 32 52 7e 05 36
       1.2825614e-06 2.4451217e-06 2.3072584e-08 1.9892072e-06
0002a0 5f 3d b1 35 3f 39 37 32 79 ab 9f 35 5b 80 ba 35
       1.3205389e-06 1.0665018e-08 1.1896328e-06 1.3895436e-06
0002b0 84 5f 82 32 3c 4a c3 35 0a 77 e1 35 5a ef 80 32
       1.5177427e-08 1.4550237e-06 1.6798451e-06 1.5010006e-08
0002c0 d4 a3 a7 35 e3 2c 05 36 08 ba b7 32 46 0f ea 35
       1.249015e-06 1.9844672e-06 2.1388601e-08 1.7438804e-06
0002d0 a5 65 c4 35 5d db 7c 32 17 b6 91 35 1f 60 ed 35
       1.463272e-06 1.4718208e-08 1.0856337e-06 1.7685851e-06
0002e0 51 89 b3 32 24 4d cc 35 db 42 18 34 37 c0 ee 30
       2.0900787e-08 1.5221635e-06 1.4180425e-07 1.737141e-09
0002f0 03 8c f3 33 e5 6a 5e 34 fb 1d 2a 31 5d ab 27 34
       1.1341037e-07 2.0714249e-07 2.4755298e-09 1.5615429e-07
000300 cd df 66 35 85 4c 3b 32 30 d6 86 35 bc 80 98 35
       8.600735e-07 1.0902231e-08 1.0046115e-06 1.1362349e-06
000310 bf c6 84 32 e9 dd ab 35 ce 29 7c 35 c6 f3 cb 31
       1.5457202e-08 1.2805077e-06 9.393815e-07 5.9357914e-09
000320 48 df cc 34 74 12 74 35 80 c5 10 32 9e 4d 37 35
       3.816042e-07 9.0923936e-07 8.4268095e-09 6.828576e-07
000330 b2 79 18 35 00 d5 a1 31 a8 9b a9 34 b7 35 29 35
       5.68015e-07 4.709932e-09 3.1591958e-07 6.303557e-07
000340 17 95 e6 31 a4 fb f9 34 63 0b aa 34 06 08 4c 31
       6.7108306e-09 4.6562957e-07 3.1673252e-07 2.9690468e-09
000350 4c 45 a0 34 db ac d6 34 72 69 91 31 a8 bb be 34
       2.9852743e-07 3.9986375e-07 4.232043e-09 3.5526796e-07
000360 ad cf 92 33 4a 71 7b 30 9b 8e 8b 33 03 a2 c3 33
       6.836431e-08 9.147426e-10 6.498632e-08 9.109865e-08
000370 27 9c b0 30 01 06 9b 33 bb 97 ab 34 10 32 35 31
       1.2850067e-09 7.218842e-08 3.196163e-07 2.6367424e-09
000380 d8 06 8b 34 89 ee ae 34 f2 28 81 31 50 02 bc 34
       2.5895747e-07 3.2583583e-07 3.759049e-09 3.501941e-07
000390 70 9b 7f 35 87 31 1c 32 4d 55 4d 35 54 20 88 35
       9.5221094e-07 9.091656e-09 7.649258e-07 1.0142198e-06
0003a0 8c 43 5f 32 76 07 97 35 a7 09 67 35 5a e8 d4 31
       1.2995667e-08 1.1252548e-06 8.606825e-07 6.1964274e-09
0003b0 c2 3b 3f 35 fb 0c 62 35 97 13 18 32 07 24 78 35
       7.1240004e-07 8.421045e-07 8.852019e-09 9.2439626e-07
0003c0 18 b5 01 36 05 a2 95 32 59 72 e5 35 79 19 07 36
       1.9327908e-06 1.7419561e-08 1.7095109e-06 2.0131395e-06
0003d0 29 22 d5 32 15 0b 04 36 be 3c b2 32 60 6a 01 30
       2.4811998e-08 1.9675983e-06 2.074955e-08 4.7081095e-10
0003e0 bd 9a 3f 33 86 92 fc 32 c9 30 37 30 45 e6 6f 33
       4.4611387e-08 2.9403292e-08 6.664434e-10 5.5855953e-08
0003f0 b2 43 9f 35 65 51 02 32 d4 d9 dc 34 af f1 8c 35
       1.1866125e-06 7.585503e-09 4.1136684e-07 1.0501152e-06
