actualgame/results/NewLocomotionRun1/Agent Controller/Agent Controller-85033.pt (torch, 446326 bytes, 39 tensors)

network_body._body_endoder.seq_layers.0.weight f4 [128, 6]
00000000: 490e 75be 8c01 bdbe 965b eebe bf8a d2be
00000010: c411 3ebd 5684 f5bd 5fe6 e9be b61d a73e
00000020: 94f9 773e 547c bd3d c8a8 04be 96a5 8f3f
00000030: 279f bebe 99ed f1bc 9ebc 89be ebae 40bd
00000040: 7c62 22bf 83dd 31be fed6 1b3f 31bc aa3e
00000050: 8b28 e3bd 7b81 0abe e84e 07be 9019 3f3f
00000060: 773d 9ebd 5cac 163f 71d4 1abf 005d 74be
00000070: 0bdb e7be 4982 b1bb 142a c93c 4a92 69bf
00000080: 768a 30bf 220d 8dbd 7c08 843e 07e6 eabe
00000090: 0280 45bd faa6 b03e fecb c33e e1a8 b5bc
000000a0: f9cb 23be 6bfd 653e b63b 3bbd 43d2 20bf
000000b0: 4349 603f 3cb3 71be 48c3 26be 494b 78be
000000c0: 553f 5bbf 4b0c ee3d be1a 093f deae d03e
000000d0: 45a9 03bf 1775 123f d888 df3e bd23 133e
000000e0: c701 75be 71dc ac3e e509 c5be 1035 1f3d
000000f0: d887 37be b19a 8fbe 8cf4 063e 7a29 cdbe
00000100: 05b4 79bf 3699 49be ff42 933e 1538 a8bd
00000110: 9898 dabe 2dad 1c3e 8fc4 02bf 70d2 afbe
00000120: 2c73 3abf a2e4 983e 6a1a 8f3e 44de 6e3e
00000130: 84aa 143f 8317 a93e cf4c be3d e9f5 d73e
00000140: 5583 bc3e 3c08 8dbe edeb 843b 9f4a 40be
00000150: 4470 f73e 8a6f c3bd 7ca1 26be 0530 ee3d
00000160: eb3d 8dbc 90d8 543e 31c2 ad3e e3b1 d93d
00000170: 79a9 06bf fe89 cc3e 4228 6b3d 8e8d 0cbf
00000180: 87d3 cb3d 71bb c53e e44b 02bd 2b8f b23e
00000190: ec8c a23e 3897 463e 09ff 9cbd b7f0 4a3e
000001a0: 6f49 0dbe 14df 04be 4130 32bf 3b0d 55be
000001b0: f4ca 25bf 310e 1d3e 91c9 fb3d 784a 68bd
000001c0: d42a 4fbd 68ef 17be 7aca fe3e f37e d33e
000001d0: 017f 513f 8e2b 80bb b8e4 5bbe cf38 6e3e
000001e0: 2e13 4e3e e6d2 f3be 9912 183f 57bb 75bd
000001f0: 7ae4 d3be 98fb 7d3e 26f2 9dbe c6f4 44bf
00000200: 44ec 49be cd48 26be 7063 1dbe 074b 0d3f
00000210: eaba 3f3e 4371 0d3f 7a82 e7be 5822 8bbc
00000220: e04f fa3e 3f1d 293f 0cb6 f33e 5378 8e3e
00000230: 8fa5 713e e398 0e3f db9b 423d 33f3 1f3e
00000240: de2f 003e c438 cd3d efb2 153f db4a 963d
00000250: 8b63 aabd 0108 f7bd 0d93 05bf 4f47 353f
00000260: 7789 77be 6521 23bf 4227 77bf 09c4 a5be
00000270: e89e 41bf b922 813d 0346 6dbd 5f6f 523e
00000280: 3657 1e3f ec92 16be 0b2e 79bd c1ba 9f3e
00000290: 5f46 8f3e e393 223e d0f5 08be 334c 1abe
000002a0: 563a b33c c8cb 6bbd 1704 dabe d0ef 05be
000002b0: 1bcd 1d3e 6e73 0abf 9680 f7be 9103 e03e
000002c0: d3ac 613e e3e9 55be 486f 2bbf 7e8d b33e
000002d0: 9828 5dbd 2d2b 2d3c 8cc0 e8bd 864f 29be
000002e0: 867f 25bf 655f 38bf baf0 dc3e 958a 2ebe
000002f0: 121b 8f3c d83e cc3c e673 433e f23d 23bf
00000300: 74ba dfbd d181 93bd 05b2 d1be 6d0f 93be
00000310: 3e2a 15be 46bb 533c c5e8 ddbe 1464 9e3e
00000320: 47a2 063f 1e5f f83d e665 c0be f175 4bbe
00000330: d5dc 71bf fc70 963e 73d8 b53e 6b5c 49be
00000340: f2a5 4cbe 5bd0 67bf a3c9 aa3d 41a1 be3d
00000350: 24a5 71bd ee86 23bf c62b 3bbf 3d37 013d
00000360: 78a8 9fbe bb99 c8be ff28 d53d 2dad a0be
00000370: eaed 9abe 6f2d 0abf 2aca fd3a 1be0 ec3e
00000380: 1d3b 283e b2eb adbd 16da dabe ee70 003d
00000390: 5f0e d4bd 3b69 09be 2253 223f 4bdc f63d
000003a0: ae34 133e 192b 13be 465c 023d bcd5 16bf
000003b0: 9071 b6be 6168 26be 1d3b 523e d98f 3cbd
000003c0: 6350 13bf 531e 8abe da91 03bf 68a8 32bd
000003d0: 4e3e d8bd f7a7 98be ce52 f93d 6265 323f
000003e0: 1647 67bd b8f1 e03e 8c86 8a3e 7137 973e
000003f0: 7424 adbe c6f6 503e 7b42 de3e 3499 a73e
-0.2393123 -0.36915243 -0.4655425 -0.4112148 -0.04640366 -0.11988132 -0.45683572 0.32639855
0.242163 0.09252229 -0.1295501 1.1222408 -0.372308 -0.02953224 -0.26901716 -0.047041815
-0.63431525 -0.17369656 0.6087493 0.33346704 -0.11091717 -0.13525955 -0.13213694 0.7464838
-0.07726567 0.5885675 -0.6048041 -0.23863602 -0.45284304 -0.0054171425 0.024556197 -0.91238844
-0.68961275 -0.068872705 0.25787723 -0.45878622 -0.04821778 0.34502393 0.3824157 -0.022175254
-0.15995778 0.22459953 -0.04571124 -0.62820834 0.8761179 -0.23603529 -0.16285431 -0.24247469
-0.8564351 0.116234384 0.5355643 0.40758413 -0.5143016 0.57209915 0.4365909 0.14369102
-0.23926459 0.33761933 -0.3848411 0.038868964 -0.17922914 -0.28047708 0.13179225 -0.40070707
-0.97540313 -0.19687352 0.2876205 -0.08213822 -0.42694545 0.15300436 -0.51081175 -0.3434024
-0.7283199 0.29861933 0.2794984 0.23326975 0.58072686 0.3302575 0.09291994 0.42179802
0.36818948 -0.27545345 0.004056445 -0.18778466 0.4832784 -0.09542759 -0.16272539 0.11630253
-0.017241439 0.20785737 0.3393722 0.10629632 -0.52602345 0.3994903 0.05741144 -0.54903495
0.09952455 0.3861957 -0.031810656 0.34874853 0.3174814 0.19393623 -0.076658316 0.19818388
-0.13797544 -0.12975723 -0.6960488 -0.20805828 -0.64762807 0.15337445 0.12294305 -0.056711644
-0.050577953 -0.1483742 0.49763852 0.41307792 0.8183442 -0.003911442 -0.21473968 0.23263858
0.20124504 -0.4762184 0.5940338 -0.059993114 -0.4138525 0.24803007 -0.30848807 -0.76935995
-0.19719034 -0.16238709 -0.15369964 0.5519261 0.18723646 0.5525095 -0.45216733 -0.01698415
0.48889065 0.6606025 0.47599828 0.27826175 0.23598312 0.55702037 0.047511917 0.15620117
0.1251826 0.10020593 0.58476156 0.07338496 -0.083197676 -0.120620735 -0.52177507 0.70811933
-0.24173532 -0.6372283 -0.9654428 -0.32376125 -0.75633097 0.06305451 -0.057928097 0.20550297
0.61851823 -0.14704484 -0.060834926 0.3119717 0.27983376 0.15876727 -0.1337502 -0.1506813
0.021878403 -0.057567388 -0.42581245 -0.13079762 0.15410273 -0.5408238 -0.4834029 0.4375272
0.22038583 -0.20890002 -0.66966677 0.35068887 -0.05399379 0.010569376 -0.113648504 -0.16534242
-0.6464771 -0.7202056 0.4315241 -0.17045052 0.017468963 0.02493231 0.1908718 -0.63766396
-0.10924235 -0.07202495 -0.4095613 -0.28722706 -0.14566895 0.012923067 -0.43341652 0.3093573
0.52591366 0.12127517 -0.37577742 -0.1986921 -0.9447759 0.29383075 0.355167 -0.19664161
-0.19985178 -0.905523 0.083392404 0.093081005 -0.05899538 -0.6387776 -0.7311367 0.03154682
-0.3118322 -0.39179787 0.1040821 -0.31382123 -0.3025964 -0.53975576 0.0019362618 0.4626473
0.164288 -0.08492221 -0.4274451 0.0313577 -0.103543036 -0.13419048 0.634081 0.12053736
0.14375564 -0.14371909 0.03182628 -0.5891988 -0.35633516 -0.16250755 0.20530362 -0.04603562
-0.57544535 -0.2697626 -0.51394427 -0.043617636 -0.10558759 -0.29815647 0.12173997 0.6968595
-0.056464277 0.43934417 0.27055776 0.29534486 -0.33816874 0.20406637 0.43410096 0.32734072

network_body._body_endoder.seq_layers.0.bias f4 [128]
00000000: f0fa 7abc b4db c63a 130b 7b3b 8cdd 03bc
00000010: 3f55 ecbb d7da 01bc 9662 8dba b2cd de3b
00000020: 3fff 36bc 0a94 5b3b 19f1 0a3c a3c9 68bc
00000030: c260 a6bb e30f 86bb cd02 64bb 4246 07bb
00000040: 7f4e febb 03e2 223c de2f 973b e5d4 8b3b
00000050: 4c96 3dbc 3b62 90bc b55f 683b f78c 0b3c
00000060: 6fc3 16bc e39d b439 0299 7ebc 81b5 7c3a
00000070: 5183 02bb 12bb 1cbc b98a d53b 56b7 92ba
00000080: c5be 54bc 4d81 75bb acd4 4abb d144 c4bb
00000090: b664 51bc 5a6a 5abc ceaf a93b 5724 bd3b
000000a0: 3264 00bc 7562 d03b 3eb6 f43b 6875 a9bb
000000b0: 5e45 353c d28d c0bb 784d df3b 38fa 18bb
000000c0: 51e9 52bc 7f93 86bc bfe6 4ebc 25ac ba3b
000000d0: 0f74 1f3c a87b 6a3c bf3e bd3b 96e9 4a3c
000000e0: 8688 23bc 3f20 c4bb 89b0 4a3c cd1e 253c
000000f0: 7df1 dbbb d1cd 1dbc c15c fa3a 53e9 fd3b
00000100: 1d77 f6bb 5b95 27bc c556 683c 4ec9 f93b
00000110: d519 7abc 2412 82bc da33 9c3b 3642 34bc
00000120: 1590 803c 5494 55bc 8ff9 be3b e0c7 243c
00000130: 282d a53a ff93 b53b af00 8abb be9a 593c
00000140: 4af1 283c 6515 a13b 73de 30bc 8d99 78bc
00000150: e5f9 d3bb 48ff 9dbb b3cf bd3b 6a4c 343c
00000160: 9584 17bc 3408 b8bb d5f3 843b b098 f33a
00000170: 16c0 19bc 9081 79bc df0c cfbb a5ba 053a
00000180: 1ce6 edba aa05 c1bb 1634 c53b f3a8 b0bb
00000190: e133 5c3c c929 34bb 1ecf 4ebc ebc4 3cbc
000001a0: 6ce6 efbb a9a6 d6bb 2743 37bc 77ea 74bc
000001b0: 37d4 2cbc 5059 49bc 74e1 eb3b 55d8 26bc
000001c0: 265d a33b 6668 0bbc e95e 74bc 066f 1dbc
000001d0: 6163 6cbc 785c 25bc 3be3 013b a590 7cba
000001e0: 6f59 b2bb 0f8c debb af71 1abc 7822 1abc
000001f0: 75b8 48bc 4b4f 34bb ece9 b4ba ebdd c93a
-0.015318617 0.0015171678 0.0038306161 -0.008048426 -0.0072123106 -0.007925711 -0.0010786827 0.006799423
-0.011169254 0.0033504986 0.008480334 -0.01420823 -0.0050774524 -0.0040912493 -0.0034791708 -0.0020641242
-0.0077608223 0.009941581 0.0046138605 0.0042673224 -0.011571478 -0.017624965 0.0035457436 0.008517495
-0.009201868 0.0003444991 -0.01553941 0.00096400833 -0.0019914696 -0.009566085 0.006516781 -0.0011193554
-0.012984936 -0.0037461102 -0.0030949516 -0.005989649 -0.012780359 -0.01333102 0.0051784283 0.0057721543
-0.007836388 0.0063593932 0.007468014 -0.0051714666 0.011063902 -0.0058762813 0.006814655 -0.0023342501
-0.01287301 -0.016427753 -0.012628256 0.0056967908 0.00973226 0.0143117085 0.005775302 0.012384793
-0.00998128 -0.0059852893 0.012371191 0.010078144 -0.0067121373 -0.00963159 0.0019101129 0.0077487617
-0.0075215236 -0.01022848 0.014180844 0.0076228743 -0.015264948 -0.01587779 0.0047669234 -0.011002114
0.015693704 -0.013035852 0.0058280895 0.01005742 0.0012601959 0.005541324 -0.0042115073 0.013281522
0.010311434 0.0049158805 -0.0107952235 -0.015173328 -0.0064689987 -0.0048216917 0.005792582 0.011004547
-0.009247919 -0.0056162123 0.0040573874 0.0018584933 -0.009384176 -0.015228644 -0.006318673 0.00051013596
-0.0018150243 -0.005890568 0.006018172 -0.005391234 0.013440103 -0.0027490726 -0.012622623 -0.011521558
-0.0073211696 -0.006550629 -0.011185444 -0.014948479 -0.010548643 -0.01228936 0.007198507 -0.0101834135
0.0049854694 -0.008508777 -0.0149152065 -0.00960899 -0.014427991 -0.010092847 0.0019819278 -0.0009634591
-0.00544279 -0.0067915986 -0.009426518 -0.009407632 -0.012251009 -0.0027513083 -0.0013802624 0.001540122

network_body._body_endoder.seq_layers.2.weight f4 [128, 128]
00000000: 4161 98bc a23f 30bd 5df1 e43d 6053 833d
00000010: 4806 1c3d c6ee 043d 15c5 f93a 9b0a 8e3c
00000020: 4442 46bd fe0f fb3c 8736 a0bd 0cb8 d13d
00000030: 7bd0 003e a8d2 44be 0a6a e63d 1247 f83c
00000040: 2da3 b03d f7a3 ad3c 8710 c83d bd19 d5bc
00000050: c541 a7bc a569 dd3c df32 28bd e771 a9bc
00000060: dcd3 2c3d 0a43 3e3e cb3a 793b 6444 a63d
00000070: f933 3e3d 3a1c 893c ec8c 1a3e 9658 89bd
00000080: ff40 9b3c f6df ffbc 46f2 813c d8e5 0abe
00000090: 45fb d0bd 1d12 80bd a2d9 203e 3bd0 2b3c
000000a0: 7497 193e 3248 2abe aa4b 103d ef59 113c
000000b0: a7b2 41bd 6423 0a3c d9bb b33c a6f2 e53b
000000c0: 807f 673d ac79 f63c 342b f03d 9ff4 35be
000000d0: 66ee f03d 942e 01be f550 6a3e b2c7 d43c
000000e0: 5b76 a33d b285 8bbd a0f4 c13d 078b ebbc
000000f0: 8269 80bc fe65 4d3e d42a ddbd 122a f93d
00000100: d965 223d 04e2 9d3d 708d f6bc afe6 e3bd
00000110: ef8f bc3b 3f43 cc3d 944c a0bd 1cc9 df3c
00000120: d363 63be cbcc 833d 542e 4dbd 56cc 853d
00000130: 4dc0 2fbd 6b77 25be 5717 18be b0e5 103d
00000140: 5d5a 683d 8518 c93b 16e6 c5bd c725 8f3a
00000150: bf6c d43d 32d6 5f3e 91f6 6abd 8e46 81bd
00000160: f19f d3bd 402a 913d 292f 8fbc a474 04bd
00000170: 335d 83bd f8f6 b03b 7b14 853d 7747 e9bb
00000180: b951 0cbe c18c c7bc 11b3 80bd bf2d 0eb8
00000190: a1ed 943b 3a51 f13b 8a46 fabc a855 1d3e
000001a0: 6a49 cf3d 8c08 43bd 4cba e0bd c6ab 233e
000001b0: a200 b43d c765 9ebd 6415 58bc bc56 ca3d
000001c0: d741 133b 49f5 fdbd 339b 113e cfea c43d
000001d0: 8771 34bd c98d ab3d a9f8 ebbd 58a3 41ba
000001e0: c640 4dbe 39c0 b93d 0779 97bb e2ed 1d3e
000001f0: 8177 863d be4c 593d cdb2 8bbd 133f 52bd
00000200: 6613 0a3a a8eb 083a 1337 453d e34b e63d
00000210: 18b0 5dbc beff 9e3d 2fd2 05be 6953 bcbd
00000220: d27a 79bd 5e37 2cbe 53c5 583d d664 043c
00000230: 3212 74bd c552 6abd 44ce 8cbd 250c 48bd
00000240: 359b 50bd dd00 023b 93ec 54bc 2b3d 0c3e
00000250: f47c a63b 1b18 9fbd dfa4 39bd 4f39 fbbd
00000260: c5a2 2f3d 230a b8bd 97e2 e13d cb69 933c
00000270: 7758 673d 6f78 9abd 5248 a23d e12e 4dbd
00000280: 80ad 1e3e 4390 a53d 72c3 61bd d9ab 04be
00000290: 4fd6 61bc 9bdd dbbc 9edb 5a3d 7242 1e3b
000002a0: 18a1 133c 1b91 09bc 0c87 c93d 7c01 19bc
000002b0: 79bf 85bd 8f57 543c 0a3f 403b 92b6 2c3e
000002c0: d099 423b 97f7 81bd 9515 ddbd 4a4f 15bb
000002d0: 1986 973c cba7 04be f25e c3bd c05b 8abd
000002e0: ac27 b03c f70a 35bd 9e04 123e 94f8 9f3d
000002f0: 54f0 8ebd 7c52 723d f294 0b3e 19b3 10be
00000300: 5c00 f5bb 6a94 af3d 07bc 4abc 4c8b a33c
00000310: 93b5 b83d 62e5 673d 168c fe3d 4735 a03c
00000320: 7a09 13bc 9d9b 993d 4d7f ccbd da4a a8bd
00000330: a43f 3dbd f949 03bd 5fac 0cbd e9e0 dfbd
00000340: bb2b 15bc b8fa cebb cf5b b3bd 84ff 09bc
00000350: db0c b7bd f417 403d 4883 5bbe 34f1 463d
00000360: 293d 25be 9fa8 593d 968c 9f3c 781f 2cbe
00000370: 8bd0 d13d 6f1a 1fbd 518a 72bd 09fb cb3c
00000380: e178 88bd 6fd4 2c3d 6917 a83c 5599 f4bc
00000390: 4c36 603d 2890 abbc cc51 953e 1ce3 cd3d
000003a0: 80b5 33b9 9b42 e5bd 92a9 c5bc 976d 9a3d
000003b0: 041e a9bc fa76 12be f95b 1cbd 349a 68bd
000003c0: 188a 573e a8ce 1bbd 4cc1 30bd 36a6 75be
000003d0: 43dc 2fbd d2ea e53d afc5 ac3d 1af7 dd3d
000003e0: 722b 143d 92b0 a5bb 96ae 56be 4b44 16bd
000003f0: 6f12 24bd ecea eb3c 33d7 22be 13d1 e1bc
-0.018601062 -0.043029435 0.11178849 0.06412387 0.038091928 0.032454275 0.0019055927 0.017339041
-0.04840304 0.030647274 -0.078229 0.10240182 0.12579529 -0.19220984 0.11250694 0.030307326
0.08624873 0.021196349 0.09768777 -0.02601325 -0.020417104 0.027027914 -0.04106414 -0.020684196
0.042194232 0.18580261 0.0038029428 0.08118513 0.046436284 0.016737092 0.1509282 -0.067063496
0.018951891 -0.031234723 0.015862595 -0.13564241 -0.10204176 -0.06253455 0.1570802 0.010486658
0.14999181 -0.16629103 0.03522841 0.0088715395 -0.047289517 0.008431289 0.021940159 0.0070174513
0.056518078 0.030087315 0.1172699 -0.17769097 0.11764221 -0.12615424 0.22882445 0.025974128
0.07981559 -0.0681261 0.09470487 -0.028752817 -0.01567531 0.20058438 -0.107991844 0.121662274
0.03964791 0.07709125 -0.03009674 -0.11127984 0.005754463 0.09973764 -0.07827106 0.027317576
-0.22206049 0.064355455 -0.05009301 0.065331146 -0.042908 -0.16158836 -0.14852653 0.035375297
0.056726802 0.006136956 -0.09663026 0.0010921293 0.10372304 0.21859053 -0.05736405 -0.06312285
-0.10333241 0.07088137 -0.017478542 -0.0323378 -0.06414261 0.0054005347 0.06498047 -0.007119115
-0.1370305 -0.024359109 -0.06284154 -3.3898043e-05 0.004544929 0.0073644193 -0.030551214 0.15364707
0.101214245 -0.047615573 -0.10973033 0.15983495 0.08789183 -0.07734256 -0.013188694 0.098798245
0.0022469664 -0.124003 0.1421936 0.09615099 -0.04405358 0.08376653 -0.115220375 -0.0007386706
-0.2004424 0.09069867 -0.004622582 0.15422776 0.06565762 0.053051703 -0.06821213 -0.051329684
0.0005267173 0.0005223104 0.048148226 0.11244943 -0.013530754 0.07763623 -0.1306846 -0.09195597
-0.060908146 -0.16817996 0.052922558 0.008080682 -0.059587665 -0.05720784 -0.068752795 -0.048839707
-0.050929267 0.001983694 -0.012995857 0.13695209 0.0050808135 -0.0776827 -0.04532325 -0.1226679
0.04287984 -0.089863084 0.11029547 0.017994782 0.05648085 -0.07542502 0.0792395 -0.050093535
0.15495872 0.08084156 -0.05511803 -0.1295618 -0.013784005 -0.026839068 0.0534321 0.0024148491
0.009010576 -0.008396412 0.09840211 -0.009338733 -0.06530661 0.012960329 0.002933445 0.1686652
0.002969373 -0.06346052 -0.10795132 -0.0022782856 0.01849656 -0.12954633 -0.09539594 -0.06755781
0.021503292 -0.04419991 0.14259574 0.078110844 -0.06979433 0.059160694 0.13631037 -0.1413082
-0.0074768495 0.085732296 -0.012373931 0.019963883 0.090190075 0.05661524 0.12429063 0.019556655
-0.008974427 0.07500384 -0.09985218 -0.08217402 -0.04620327 -0.032052968 -0.034344073 -0.1093157
-0.009104664 -0.006316509 -0.087577455 -0.008422736 -0.08937999 0.046897843 -0.21436799 0.048569873
-0.16136612 0.053139325 0.019476216 -0.1680888 0.102448545 -0.03884357 -0.05921394 0.024899976
-0.06663681 0.04219478 0.020518975 -0.02985827 0.05473928 -0.020942762 0.2916397 0.10053083
-0.00017138384 -0.111943446 -0.024128709 0.07540434 -0.020644195 -0.14303198 -0.03817365 -0.056787685
0.21048772 -0.03803888 -0.043153092 -0.23989186 -0.042934667 0.11226429 0.08436143 0.108381465
0.036174245 -0.005056449 -0.20965037 -0.036686223 -0.040056642 0.028798543 -0.15902404 -0.027565515

network_body._body_endoder.seq_layers.2.bias f4 [128]
00000000: 5a5f 8bbc 9ee8 48bc ddcc 313c 8e05 75bc
00000010: b66b 41bc d09d 393c 4b44 113c 43a1 49bc
00000020: 1164 21bc a4eb c7bb 4774 82bc e2cd 633c
00000030: 8fc7 3d3b ae46 1abc 20ca 583b 0d68 27bc
00000040: 59b8 3dbc 22c4 2fb8 446a 68bc dfc7 23bc
00000050: bb4f 7ebc fa55 5c3c 47f3 6cbc 50d4 2e3c
00000060: a614 493c dc5b 573a a7b8 1bba c880 5d3c
00000070: 7bfa 1abc 7e82 4dbc b31a 55bc ce3a 4e3c
00000080: be1a 8abc 20c6 c33a f38f 2e3c a94d ee3b
00000090: 603d 853b 0d84 cc3b 3264 453c fd4f a6bc
000000a0: b099 313a 09a0 65ba d6b5 29bc a34a 80bc
000000b0: 1373 613a 6ca6 f6bb 217b 08bc 97cd 3cbc
000000c0: 331d 573c c49c 67bc 555e 2aba cda9 463c
000000d0: 689e 3cbc 2433 2a3c 9c01 32bc e951 08bc
000000e0: 9880 43bc bef1 f5bb 477b 933a 3885 5fbc
000000f0: 241a f33b 58a7 babb 5fca acbb 0866 2a3c
00000100: 73aa 2cbb fd8c a2bb a326 80bc 71ef 45bc
00000110: 002c 13bb f8db a73b eb59 b83b 3fd2 39bc
00000120: 7cdd 5637 0400 a4bb c69e 79bc 483c 3939
00000130: cb3c 82bb d92d b03b ffe2 11bc 4140 57bc
00000140: 35f4 0d3c d8e0 bcb9 a15b 613c 91b1 753c
00000150: fb80 72bc a616 00bb 331f 66bc 874b 183c
00000160: 5ae2 a13b 4fbb bcbb 306b 2abc 5996 2eb9
00000170: ba97 d8bb b238 483c 9666 3fbc 2c16 15bc
00000180: 68e5 b53b 72ae 4f3b d868 a6bb 52d9 183c
00000190: 44d7 1cbc 3abd 41bc 197e 43bc 8350 233b
000001a0: ca42 48bc daca d73a 0e11 5abc ce33 e4bb
000001b0: fdf6 57bc 8747 76bc 0ccb 313c 66a2 2abc
000001c0: b8a7 89bc bcf6 2b3c 7e91 30bc 4dcf 8c3b
000001d0: 1beb 963b 1d6f 243c febf a13b d591 483c
000001e0: a787 103c 9312 4bbc 481a 19bc ddb9 323c
000001f0: 42fc 11bb b475 4cbc 2600 243c 8f76 31bc
-0.01701324 -0.0122624915 0.010852066 -0.014954938 -0.011805465 0.011329129 0.00886638 -0.012306514
-0.009850518 -0.0061010886 -0.015924586 0.013904067 0.0028958058 -0.009416265 0.003307946 -0.010217679
-0.011579596 -4.1905914e-05 -0.014185492 -0.009996383 -0.015521939 0.013448233 -0.014462299 0.010670736
0.012272989 0.0008215287 -0.0005940296 0.013519473 -0.009459133 -0.012543319 -0.013006854 0.012587262
-0.016858455 0.0014936365 0.010654437 0.0072724414 0.0040661544 0.0062413276 0.012047814 -0.020301813
0.00067749154 -0.0008759504 -0.0103582945 -0.01566059 0.0008600216 -0.0075271633 -0.0083301375 -0.011523626
0.01312952 -0.014136497 -0.0006499042 0.012125445 -0.011512376 0.010388169 -0.0108646415 -0.00832031
-0.011932515 -0.0075056246 0.001125195 -0.013642602 0.0074188877 -0.0056962185 -0.005273148 0.010400303
-0.0026346713 -0.004960655 -0.015643423 -0.012081013 -0.0022456646 0.005122658 0.0056259534 -0.0113416305
1.2806962e-05 -0.0050048847 -0.015235608 0.00017665431 -0.0039745322 0.005376559 -0.008904218 -0.013137878
0.0086641805 -0.00036025676 0.013754756 0.014995948 -0.014801259 -0.001954475 -0.014045524 0.009295351
0.0049403133 -0.0057596336 -0.010401532 -0.00016649942 -0.006609884 0.0122205485 -0.011682173 -0.0090995245
0.005551029 0.003168967 -0.0050784163 0.009329157 -0.009572808 -0.0118249 -0.0119319195 0.0024919815
-0.012222955 0.0016463653 -0.01330973 -0.0069641834 -0.013181445 -0.015031702 0.010851633 -0.010414695
-0.016803607 0.010495838 -0.010776876 0.004297173 0.0046056635 0.010036257 0.0049362173 0.0122418
0.008821405 -0.012394565 -0.009344645 0.010908571 -0.0022275602 -0.0124792345 0.010009801 -0.010831489

action_model._continuous_distribution.log_sigma f4 [1, 2]
00000000: ae08 3f3c 9f6f 983a
0.011659784 0.0011629945

action_model._continuous_distribution.mu.weight f4 [2, 128]
00000000: 9f71 9ebc ba1d 9abb f50d b13b c5ab 33bd
00000010: 0706 883b e44b 54bc 464c 64bc a104 8ebc
00000020: 507f a43b 4904 903c c8a0 07bd 954c 9b3b
00000030: 1faa 33bb f665 03bd 1c35 013b 6d1d a7bc
00000040: 2723 5bbc 019e d7bb 58df 2cbd f1e7 a0bc
00000050: 9c9c a1bc 4483 cf3b 8603 6fbd 85a4 a33c
00000060: 5ac8 d4bb 1e6d 593b b72a 0d3a 9ba2 473c
00000070: 1010 6cbb ee9a c7bc 2412 a2bc 3078 af3c
00000080: 7523 ccbc f9e9 023d 1543 b93a 00db a93c
00000090: dc4f 2e3b cc31 f23c 1fe3 623c 3adf 3fbc
000000a0: eda5 de3b 05ea 11bc 09ee 49bd ea00 2abd
000000b0: 1bf4 d3bb 9e3e 8c39 3a06 02bd d2d4 45bc
000000c0: a591 a13b dd73 7bb8 6907 6d3b 2a64 673c
000000d0: d61a e3bc 5de6 e8bb 6a6e 08bd 9214 dbbc
000000e0: 4cd9 22bc ff87 36bd 9ebb 9cbc e676 fbbc
000000f0: c83a a9bb 9dfb c6bb 6571 2bbb c7e1 303c
00000100: 20c7 a0ba c7f9 37bc 731f 07bd 6248 28bc
00000110: af50 c239 40c0 873c 1c78 9c3c ae28 e5bc
00000120: ca2f 3a3c 05c4 77bc ec3d b3bc 245c 54bb
00000130: 0df9 7ebc a73a 9d3c cb3d 89bc 8452 31bd
00000140: 993a a93c f48b 7bbc f8b3 933c 9d94 573c
00000150: 327c 9abc 0dc4 a1bb 3e32 b7bc 4851 d03b
00000160: cbf9 73bc 2a60 503b cff7 31bc 7767 e938
00000170: 3d2a 1bbc 6f3d 0f3d 2f0b 89bb e5a4 9cbc
00000180: ccf3 60bc 19d2 673c 2f70 763b f2bd 9fbc
00000190: 545e febc f82b 35bc 23dd 6b3b 7972 f6bb
000001a0: f6f8 18bc d5f4 063c f210 2bbc 15c5 6bbc
000001b0: 1370 15bd dcbe 03bd 6cfb 023d d56d 523c
000001c0: 34ce 9ebc e72e c0bb 5c1b 2abd e84f d6bb
000001d0: b3a5 073c 0ecf ff3b 0995 213c 6cf6 783a
000001e0: 631e 923b 3b85 24bd 04c9 2bbb 7f54 483c
000001f0: 63ae 84bb 8a11 daba 6115 1c3d f921 f9bb
00000200: 1e47 413b d402 183b f9e4 a1bc c9b5 b13c
00000210: 80e3 853c 8fb2 e8bc 7653 22bd 62c5 ce3c
00000220: ade8 143d 1be4 4e3d 5f8a 023a 2bb9 a7bb
00000230: 47bd 1b3d 194b 16bc db0f a03c aa5f 20bc
00000240: 370b bfbb 3809 0b3b 6639 e9bb 89e6 87bc
00000250: 971e cb3a 7be5 bdbc 580c e939 bb2f 9d3b
00000260: 5c91 b1bc b0f5 5ebc ee40 b8bc cae5 dcbc
00000270: 030e 8f3b 9b5c 8ebb 68c0 223d fc8d 923c
00000280: fb0a 033c 3264 f7ba 4e74 caba 1710 7c3c
00000290: e67d 103c 8797 3f3c 16bb 39bb 8dd7 54bb
000002a0: 5700 1f3d c901 813c deda 693c 3283 ca3b
000002b0: c72e 18bd 178c 073c 7ef3 ccbb bcdc 683c
000002c0: e3b8 4abc 8652 edba d55a 0a3d d609 8a3b
000002d0: 495b 04bb 26ad 92bc 0409 6cbc 6c41 47bc
000002e0: 8b3f be3c 2028 cebc 2f6f 9abc 57b7 bc3c
000002f0: 33b9 9ebb 2fbe 353c 6f3c c03b 0de5 ccbc
00000300: 0228 11bd 1158 9c3c 21cc 833b 94df c63c
00000310: 560a 3a3c cffb 623c 24f6 213d 558a 493c
00000320: 96fa 453c 9af4 453d ec39 603c e0ed 11bd
00000330: e80e 10bc 0030 40bc 6b7d db3c ee1e e03c
00000340: 7ec5 b63b 3017 36bc 6e72 9e39 5b4f b9bc
00000350: 5229 cb3b 4bea 893c 4673 ca3b f165 19bb
00000360: 9326 87bc 5dba d0ba 29f8 113c 64ad 4dbb
00000370: e495 d93c e4f4 22bd fc7e 2c3c 2656 97bc
00000380: 5746 84bc aaef 99bc 8826 643c 1c2b eebc
00000390: 1eec 033a 49da a43c 709a 463d 8c1a 403d
000003a0: 9e44 393d 3c8b d13c a422 8f3c d38c 4b3b
000003b0: 6a22 eebb fed6 533c 2616 5dbc 6591 e73c
000003c0: 52a8 913a ca85 4dbc fba4 3bbc 2515 57bb
000003d0: 2ca8 c2bb 948b efb8 ed7c b43b adb1 afbc
000003e0: 3188 c5bb f09f b73b 288b 133c b7ca 89bc
000003f0: 8821 dabc db49 033a 3d63 643c 5895 9c3c
-0.019341288 -0.0047032507 0.005403275 -0.043864984 0.004151109 -0.012957547 -0.013934201 -0.017336192
0.0050200596 0.017580168 -0.033112317 0.004739354 -0.0027414632 -0.03207966 0.0019715494 -0.020399773
-0.01337508 -0.006580115 -0.042205185 -0.019641848 -0.019727997 0.0063327868 -0.05835297 0.01997591
-0.0064936103 0.0033176611 0.0005385088 0.012184764 -0.0036020316 -0.024365868 -0.01978404 0.021419615
-0.024919251 0.031961415 0.0014134372 0.02073431 0.0026597893 0.02956476 0.013848095 -0.011710936
0.0067946822 -0.008905892 -0.049299274 -0.041504778 -0.0064683086 0.00026749534 -0.03174422 -0.012074666
0.0049306923 -5.995097e-05 0.0036167747 0.014123002 -0.027722757 -0.0071075396 -0.033308424 -0.026743207
-0.009939503 -0.04456329 -0.019132432 -0.030696344 -0.005164478 -0.006072475 -0.0026160118 0.010796017
-0.0012266375 -0.011228985 -0.032988977 -0.010271164 0.00037062677 0.016571164 0.019100241 -0.0279735
0.011363933 -0.015122418 -0.021880113 -0.0032403553 -0.015562308 0.019193007 -0.016753098 -0.043291584
0.020657824 -0.015353192 0.018030152 0.013157991 -0.018858049 -0.004936701 -0.022362825 0.0063573457
-0.014891098 0.00317956 -0.010862305 0.000111295776 -0.00947052 0.034970697 -0.0041822414 -0.019121597
-0.013730001 0.014149212 0.0037603488 -0.019499753 -0.031050839 -0.011057846 0.0035989962 -0.0075209704
-0.009336701 0.008237083 -0.010441052 -0.01439025 -0.036483835 -0.03216444 0.031978056 0.012843569
-0.019385435 -0.005864966 -0.04153 -0.0065402873 0.008279252 0.0078066653 0.009862193 0.0009497169
0.004459189 -0.04016612 -0.0026212344 0.012227177 -0.004049109 -0.0016637307 0.038106326 -0.007602927
0.0029491852 0.0023195045 -0.019762503 0.021693127 0.016343832 -0.028405456 -0.039630376 0.025240604
0.03635471 0.050510507 0.00049797253 -0.0051185093 0.038022306 -0.009173178 0.01953881 -0.009788433
-0.0058301943 0.0021215212 -0.007117438 -0.01658942 0.0015496787 -0.023180714 0.0004445042 0.0047969497
-0.021675758 -0.013608381 -0.022491898 -0.02696504 0.004365684 -0.0043445355 0.039734274 0.017889969
0.007998223 -0.0018874465 -0.0015446038 0.0153846955 0.008819079 0.011693842 -0.0028340272 -0.003247711
0.038818683 0.015747922 0.014273373 0.0061801905 -0.037153985 0.008273146 -0.0062546125 0.014212783
-0.012373182 -0.0018106259 0.03377803 0.0042125983 -0.0020196012 -0.01790483 -0.014406446 -0.012161594
0.023223659 -0.025165617 -0.018851845 0.023036642 -0.004843855 0.011092707 0.0058665792 -0.025011564
-0.035438545 0.019084962 0.004022137 0.024276532 0.011355003 0.013853981 0.03954138 0.012301047
0.01208367 0.048328973 0.013685685 -0.035627246 -0.008792616 -0.011730194 0.026793202 0.027358498
0.005577742 -0.011113927 0.00030221365 -0.022620847 0.006199994 0.016835352 0.0061782924 -0.002340671
-0.016497886 -0.0015924681 0.008909264 -0.0031383866 0.026560731 -0.039784327 0.010528322 -0.018473696
-0.016146822 -0.018791039 0.013925202 -0.02907329 0.00050324376 0.020123618 0.048487127 0.046900317
0.045231454 0.025579087 0.017472573 0.003105928 -0.007267286 0.012929676 -0.01349405 0.028267572
0.0011112785 -0.012544105 -0.011452909 -0.0032819 -0.005940458 -0.000114224065 0.0055080564 -0.021447027
-0.006028198 0.005603783 0.009005345 -0.016820295 -0.026627317 0.0005008259 0.013939676 0.019114181

action_model._continuous_distribution.mu.bias f4 [2]
00000000: 0519 733c 3d80 2ebc
0.014837508 -0.010650692

action_model._discrete_distribution.branches.0.weight f4 [1, 128]
00000000: 76e7 9cbb 66d3 223c 56de 42bc 6ade da3a
00000010: 3a80 4dbc 5217 9d3b 88d5 523c 5b0c cd3c
00000020: cfef bcba 2f8e 85bc 0e01 1dbc 404a fcbb
00000030: d25b d93b 9786 943b dff1 34ba 0b82 99ba
00000040: 7769 ffbc 873e 6fbb d1f8 0bbc 8ee1 453a
00000050: 6f8a 34bc d28a fcba 42a5 5bbb 6a7e 8439
00000060: e5d0 5e3c 9d3b dcbb 7164 85bb 13fa a9ba
00000070: 8c7c ca3a 79f2 a93b 922d 30bc c05a 073c
00000080: 5fa7 23ba 0ad3 73bb d888 38bb e2ba 75ba
00000090: 2298 09bb 2de9 703a 98ae e83b f9e9 3abb
000000a0: 9bca 003c 975d 72ba 1d68 b93b df2a 92ba
000000b0: 88f6 86bc e8c5 99bc 71f7 913b afff 54bb
000000c0: cb1b a83b aada 68bc 06f4 01bc ef43 2b3c
000000d0: 5aca b73b 23d5 ab3b 5387 85bc e592 74bb
000000e0: 3e0e 93bb 2c17 1d3a b433 06bc b265 31ba
000000f0: dfe5 36bc 8b94 4abb 1445 22bc e365 8939
00000100: 3365 293b 9dcd fdbb f022 a63a 8ad3 cdbb
00000110: c787 233c 6854 f33b 64b3 16bc b70a 48ba
00000120: 95e1 6b39 90e9 643c 1cb4 19bc 47c8 8d3c
00000130: 4bc5 b53b c79a 843b a05f 74bb 1a7c 46ba
00000140: c692 42bb aeef 9bbc 0f66 0d3b e8ab df3b
00000150: 231a da3a 084c 3b3b aa69 a53c 2ac1 8dbb
00000160: a346 24bc 33b7 42bc 288d 843b 92c1 2b3c
00000170: 4f3a 393b 23de 7bbb e51a 383c 130f d23b
00000180: 42cc 2f3c 780f d53b df54 5a3b 3b9a 35b7
00000190: 72c6 b63c 77cc 203c d330 85bb 9df9 243c
000001a0: ea04 f1b8 5f73 a33b 8fec fa3b 0571 55bb
000001b0: 0869 a43b b7a8 ef3b 0bea 1dbc 9480 8fba
000001c0: c8f1 39bc 1b9d ceba 5ae8 0cbc c3f3 063b
000001d0: 7b67 a73b f509 a7bc 587c 6d3c 7a74 b83b
000001e0: 9055 d7bb fe08 28bc c530 8a3c e787 b8bb
000001f0: aa16 ba3c a479 99bb 5e7a 84bb 6b0a c8bc
-0.0047883345 0.009938097 -0.011893829 0.0016698365 -0.012542779 0.0047940398 0.012868293 0.025030306
-0.001441473 -0.01630315 -0.009582771 -0.007699281 0.0066332603 0.004532646 -0.00069024967 -0.001171173
-0.03117822 -0.0036505775 -0.008543209 0.0007548564 -0.011019333 -0.0019267446 -0.003351525 0.00025271188
0.013599609 -0.0067209736 -0.0040708114 -0.0012968205 0.0015448495 0.0051863757 -0.010753052 0.008261383
-0.0006242897 -0.0037204647 -0.0028157737 -0.0009373856 -0.002099522 0.00091900193 0.0071008913 -0.0028520806
0.007860805 -0.00092455134 0.005658163 -0.0011151693 -0.016474977 -0.018771127 0.004454546 -0.0032501032
0.0051302663 -0.01421229 -0.007931715 0.010453208 0.005608839 0.0052439137 -0.01629988 -0.0037319001
-0.004487782 0.00059925276 -0.008191038 -0.0006767168 -0.011163204 -0.0030911292 -0.009904165 0.00026206588
0.0025847673 -0.0077454583 0.0012675207 -0.006281321 0.009981102 0.0074258335 -0.0091980435 -0.0007630991
0.00022495382 0.013971701 -0.00938132 0.017307414 0.005547201 0.004046771 -0.0037288442 -0.0007571593
-0.0029689535 -0.019035187 0.0021575724 0.0068259127 0.001663987 0.0028579254 0.020191986 -0.0043260055
-0.010026607 -0.011884498 0.0040451474 0.0104831625 0.0028263514 -0.0038431964 0.011236881 0.0064104884
0.010729851 0.006502088 0.0033314747 -1.082435e-05 0.022311423 0.009814373 -0.004064658 0.010069278
-0.00011492691 0.0049881185 0.0076575945 -0.0032568586 0.0050174035 0.0073138135 -0.00963832 -0.0010948353
-0.011349149 -0.0015763374 -0.008600319 0.002059207 0.0051087714 -0.02039049 0.014494978 0.0056291195
-0.006571479 -0.01025605 0.016868958 -0.005631435 0.022715885 -0.00468369 -0.0040429076 -0.02441903

exp_avg f4 [128, 6]
00000000: c3b2 5c38 1452 833f 57cc 5338 9bd0 1bb8
00000010: ca91 7b36 53af a238 ac96 2437 fc93 8eb6
00000020: b4e3 7eb7 e032 f6b6 98c5 abb6 e099 f4b7
00000030: c691 b837 5227 ab3e a0aa 6c37 a05e 3636
00000040: 2e21 14b5 f564 8e37 0b5f 4737 bee5 f736
00000050: 7d5c 9c37 1cb3 7a37 d922 1537 5891 0338
00000060: a582 a836 db7f 42b6 7e0a 5835 1814 d337
00000070: b51a 64b6 f8a9 80b7 129d 2638 6618 ca3f
00000080: 3229 18b7 26ce d537 c11d f5b5 fb33 4037
00000090: 8989 85b7 77e6 c536 ea5d 1e38 9830 d9b7
000000a0: 6b7b ec36 7134 3238 4474 0eb8 a3b3 c13e
000000b0: 42ee b438 0651 f6b7 5642 3037 3a6d 8538
000000c0: ed08 ebb7 0050 f936 4045 7938 860a ae37
000000d0: 5fbc 1337 7306 3938 0049 7036 3980 73b5
000000e0: 1028 3ab6 8d4f e2b7 b34e 9eb5 bef2 6837
000000f0: ea6c b9b7 8bac 013f 94a5 ef36 2282 35b8
00000100: 358e d836 cdf5 d637 6f19 4b38 3954 ce3f
00000110: 8439 1eb7 c1ce b7b7 8e6b c6b6 8004 2838
00000120: 51ae 15b7 5d7d cc36 92a1 6238 83ad a8b7
00000130: 92b3 f236 6e6b 5838 10a5 dd35 762b 27b6
00000140: 50fd d634 9438 3e38 4078 42b6 36a2 cfb7
00000150: bbf5 4d36 6621 fb3d a175 67b7 5063 60b8
00000160: 5df4 ef35 b25e f337 d978 4837 529c 0eb7
00000170: 72a3 ec37 b900 a0b8 3172 2eb7 70f5 1738
00000180: 16c1 acb7 9276 1c36 d3c7 2538 a4f8 f5b7
00000190: c2e4 2f36 285d 4138 48fb 04b8 0282 d7b5
000001a0: df0b f7b7 5e7c e136 1eea e6b5 c49f 21b8
000001b0: f038 98b6 5080 30b5 2083 51b7 f841 91b6
000001c0: 105c 42b5 5204 5fb7 deda b737 a054 15b7
000001d0: 353d 75b8 8995 7638 4738 33b7 1ea4 80b8
000001e0: b22e 18b8 5f51 293f 3ec1 ca38 bc04 d2b7
000001f0: edf0 5d37 1164 8e38 f52c d437 afcb 6d3f
00000200: 2af4 1d38 da5d 3cb8 c45f 1d37 d0d6 a338
00000210: a890 e936 1e77 24b7 42ad 6cb7 72bc 95b8
00000220: e246 47b7 8c6d 1ab7 61ad a937 7802 05b6
00000230: 2a7c 19b8 3793 fbb7 c6a3 29b6 47d8 b136
00000240: 0cb2 46b6 b251 c636 d2c8 2238 9ab9 9137
00000250: 7aef ee36 159b f537 86e7 f0b7 4c1f 2f36
00000260: 964b 6336 a4fa aab7 fa75 5536 7bbf c736
00000270: e091 58b5 d838 2e35 c12f 3138 521e 9337
00000280: a8aa 0e35 b232 b737 fc0d 96b6 c657 9736
00000290: 9bbb 2d38 b1fb 1038 60be b436 d04b b037
000002a0: 6939 c237 03da ed3e d1d1 0338 63f6 05b8
000002b0: ef2b a9b6 fc2b ff37 010e c0b7 f730 2a37
000002c0: c861 a938 70df d4b6 6eaa 4a37 e3f2 8f38
000002d0: 5029 dbb7 de6c 9236 18da 33b8 f583 3a36
000002e0: b5e1 ac36 423a d5b7 d8c6 aeb7 f325 133e
000002f0: 5e75 0838 bc15 63b8 6289 b7b6 0dc4 aa37
00000300: 92e4 e637 2b66 1a3f db6d 4837 600c cbb7
00000310: d0e1 7d36 c474 3b38 28e6 07b8 233d e036
00000320: 2820 2f38 94d4 a6b6 5bc0 0437 65a1 0438
00000330: 2e4f 27b7 9d3b b234 49cf c5b7 0a64 51b7
00000340: 8517 9134 4b5a 32b7 eedd 7537 36eb 3933
00000350: fe8f c2b7 9fb9 1537 4c50 fa33 7844 e4b6
00000360: aa79 6d38 e8d7 823f 2c5d 9938 b627 8937
00000370: a1e2 2bb6 ce13 5a38 ec51 32b7 8aee e836
00000380: d2cc 7e38 83dd 56b7 b0f0 0a37 aade 5938
00000390: 3373 1fb7 f2fe 1b3f bbf9 1e38 500b 92b7
000003a0: b2cd db36 b516 2938 8782 5fb8 910d 463e
000003b0: b13e edb7 c2bb aab7 c34d 9c36 8c4f c0b7
000003c0: 2c88 a6b6 fd99 a73e 3f4c ccb6 e483 a436
000003d0: 85d8 be35 8ced 1cb6 c638 de36 6a87 f8b5
000003e0: ea52 0bb7 a0b3 9534 d63a 16b6 427f 31b7
000003f0: 9625 8737 fea7 11b6 6eb3 30b8 58f5 a1b7
5.2618572e-05 1.0259423 5.0496626e-05 -3.714916e-05 3.7486775e-06 7.757419e-05 9.810243e-06 -4.2491574e-06
-1.5192596e-05 -7.337294e-06 -5.1192e-06 -2.915872e-05 2.200239e-05 0.33428437 1.4106423e-05 2.7175192e-06
-5.518258e-07 1.697473e-05 1.1883453e-05 7.387919e-06 1.8639717e-05 1.4942863e-05 8.889206e-06 3.1368196e-05
5.021999e-06 -2.8982674e-06 8.048154e-07 2.5162517e-05 -3.3990193e-06 -1.5337937e-05 3.9723767e-05 1.5788696
-9.0694975e-06 2.5487574e-05 -1.8262582e-06 1.1456194e-05 -1.591888e-05 5.897887e-06 3.77576e-05 -2.5891044e-05
7.047716e-06 4.2487347e-05 -3.396372e-05 0.37832364 8.627448e-05 -2.9363215e-05 1.05058625e-05 6.362279e-05
-2.801834e-05 7.4300915e-06 5.943072e-05 2.0747317e-05 8.805741e-06 4.4113443e-05 3.5805278e-06 -9.071114e-07
-2.773948e-06 -2.6978343e-05 -1.1794822e-06 1.3884795e-05 -2.2104436e-05 0.50653905 7.142031e-06 -4.327496e-05
6.4538567e-06 2.5625248e-05 4.842266e-05 1.6119453 -9.430925e-06 -2.1911577e-05 -5.913381e-06 4.0058512e-05
-8.921678e-06 6.094268e-06 5.4033073e-05 -2.0107958e-05 7.2330668e-06 5.1598465e-05 1.6513823e-06 -2.4910237e-06
4.0044915e-07 4.5352223e-05 -2.8978247e-06 -2.4751858e-05 3.0690414e-06 0.122622296 -1.3796061e-05 -5.3498254e-05
1.7878007e-06 2.9011953e-05 1.1949066e-05 -8.500256e-06 2.8209502e-05 -7.629529e-05 -1.0397795e-05 3.6229787e-05
-2.059391e-05 2.3314828e-06 3.9525166e-05 -2.9322058e-05 2.6210187e-06 4.6101544e-05 -3.1705276e-05 -1.6056586e-06
-2.9450222e-05 6.720001e-06 -1.7204472e-06 -3.8534185e-05 -4.5365814e-06 -6.575183e-07 -1.2487901e-05 -4.3290165e-06
-7.24046e-07 -1.3292842e-05 2.1917218e-05 -8.900795e-06 -5.8469555e-05 5.8790236e-05 -1.06823345e-05 -6.134085e-05
-3.6283112e-05 0.6613979 9.668105e-05 -2.5036155e-05 1.3228721e-05 6.7897265e-05 2.5293304e-05 0.9288892
3.7659112e-05 -4.49101e-05 9.380226e-06 7.8124576e-05 6.9607813e-06 -9.802896e-06 -1.4107036e-05 -7.139974e-05
-1.1877828e-05 -9.204621e-06 2.0227106e-05 -1.9819981e-06 -3.659368e-05 -2.9990084e-05 -2.527829e-06 5.300189e-06
-2.9607936e-06 5.9103704e-06 3.881084e-05 1.7371774e-05 7.1208315e-06 2.9278492e-05 -2.8718041e-05 2.609525e-06
3.3869633e-06 -2.0382293e-05 3.1808145e-06 5.9529534e-06 -8.0678547e-07 6.490277e-07 4.2244563e-05 1.7537885e-05
5.314746e-07 2.1838907e-05 -4.4719764e-06 4.510369e-06 4.1421135e-05 3.456668e-05 5.3865806e-06 2.1016138e-05
2.3153336e-05 0.46455392 3.142824e-05 -3.1939137e-05 -5.041707e-06 3.041885e-05 -2.2894705e-05 1.014419e-05
8.076761e-05 -6.344104e-06 1.20798195e-05 6.8640125e-05 -2.6126072e-05 4.363813e-06 -4.288004e-05 2.779297e-06
5.152275e-06 -2.5418707e-05 -2.083501e-05 0.14369945 3.2534233e-05 -5.414126e-05 -5.4698185e-06 2.0356872e-05
2.7524573e-05 0.60312146 1.1946507e-05 -2.4205248e-05 3.7831378e-06 4.469302e-05 -3.2400858e-05 6.6828375e-06
4.17532e-05 -4.971933e-06 7.912599e-06 3.1621563e-05 -9.972411e-06 3.3198458e-07 -2.3580755e-05 -1.2480663e-05
2.7025467e-07 -1.063065e-05 1.465481e-05 4.3287592e-08 -2.3193654e-05 8.92431e-06 1.1656138e-07 -6.8029003e-06
5.661851e-05 1.0222139 7.312963e-05 1.6350165e-05 -2.56129e-06 5.1993695e-05 -1.0628701e-05 6.9419084e-06
6.0749073e-05 -1.2806969e-05 8.28148e-06 5.1944204e-05 -9.50396e-06 0.6093589 3.7902715e-05 -1.7409824e-05
6.5506547e-06 4.0313887e-05 -5.3288906e-05 0.19341113 -2.8281795e-05 -2.035301e-05 4.658215e-06 -2.2925225e-05
-4.963038e-06 0.3273467 -6.08855e-06 4.902935e-06 1.4219119e-06 -2.3384082e-06 6.622725e-06 -1.851685e-06
-8.304351e-06 2.7884107e-07 -2.2385989e-06 -1.0579652e-05 1.6110756e-05 -2.1704468e-06 -4.2128777e-05 -1.9306943e-05

exp_avg_sq f4 [128, 6]
00000000: a798 bf31 c812 3f42 12f5 b431 c7a8 da31
00000010: 4682 d12e 2fc2 a931 8f89 5230 2bf9 362f
00000020: 8afa f230 5b8a 5c31 48b5 142e 7feb 2930
00000030: c87b 9730 254f ae40 348c 7530 e872 1e30
00000040: f290 412d 4420 a330 56c0 f831 de20 d32e
00000050: ed25 7931 018b 0732 688f 072f 8642 8631
00000060: dd61 8930 c983 ae2d d063 0431 7b8e 0431
00000070: b1e3 ec2d e091 9930 6c47 3032 54ee f942
00000080: dea3 3332 f21e 2032 5e16 1f2f 3bf8 6d32
00000090: 8a53 4a30 9c5c f82d a80b 2331 a811 d630
000000a0: 7250 d22d c4bb a430 bf0f 6731 7eda f341
000000b0: 3078 be31 4e34 d431 cb48 a92e f666 8531
000000c0: e24e bd30 0d66 c131 06bc 1d31 9af4 6531
000000d0: 2085 472e 54d2 4330 238a 0931 7f17 262e
000000e0: 71d2 0f31 a622 a231 378d 282e 23a0 8931
000000f0: 50e6 5232 bd3a d741 a697 2a32 0dee 6f32
00000100: b386 3f2f d118 1232 c29b 3d32 5b47 1143
00000110: 72a9 6732 8ddb c932 f578 942f 6065 a632
00000120: a9d7 9c30 6032 102e 48ad 2c31 3ad5 1131
00000130: 1fde f82d c790 b130 ff25 c331 39f3 df2e
00000140: fa2d f831 9a67 1a32 ae84 0f2f 6255 e131
00000150: 1984 2731 3dfd ea3f 7c09 f930 4cc3 8a31
00000160: 51d7 772e 621b 6531 a786 0732 1210 2d2f
00000170: 2073 2232 c98e c232 0093 472f 10ef 7532
00000180: 8071 a431 80e2 da2e 8088 c931 ce28 9d32
00000190: 5f5d 1b2f d759 5b32 048c 9231 7fd4 a12e
000001a0: 906a 5c31 2aaa 8b31 7fb1 892e a5b6 6a31
000001b0: 4c9a e630 5585 e92e 6bbb 7931 8b24 8531
000001c0: 30f3 2b2e d351 b330 e3f2 4c31 8ce9 ec2e
000001d0: 9225 8f31 7b7c dc31 a744 9c2e 997c 7d31
000001e0: 0298 9e31 938e aa41 7615 3032 52bd 1332
000001f0: dbd3 062f c9f4 b531 1de7 3631 9bc2 2742
00000200: b640 2031 a7d2 4e31 ee00 a82e 1431 4d31
00000210: 2e32 a931 14b3 a92e 1aa3 a631 3f7d 2232
00000220: fdc9 eb2e 4750 8331 988f c930 d72d d02d
00000230: 31a5 c730 ecff 3a31 4604 e22d 0501 e430
00000240: 94a4 8231 62cb c12f 6ef5 6031 103d 0532
00000250: 3f6c aa2e 8d04 0432 e154 a431 9ae5 b22e
00000260: ae6e d831 1af9 1d32 08a7 f12e 7a4e 9f31
00000270: 1f5b 5531 7887 8631 e610 6d31 ad30 c431
00000280: 9dbc 972e 8769 3e31 452a ac30 eccb a42d
00000290: 415e e230 525a 1131 e0dd bb2d f9a2 d330
000002a0: 6e1b 1232 d7b8 2c41 4d2f 1032 a0ad 8132
000002b0: 99ab 1c2f 81dd 3432 0873 8d31 04c6 7d2e
000002c0: 8604 d031 93b0 a931 afd8 ae2e 9d48 5231
000002d0: f269 2432 3da9 1833 7a66 1632 1784 bb32
000002e0: 0982 5f2f 7bf9 a632 eb6d 0832 cf7d f93f
000002f0: df0d 0f32 b380 8c32 b713 262f b8e5 6232
00000300: 75b1 3631 1ef8 8741 3fda 4531 2eba 6031
00000310: 56f4 372e c33e 0831 7447 c130 f052 f82d
00000320: 2dff 3331 3a9c 2031 ed7d 082e 58ae f930
00000330: d496 2831 3e22 722e dee0 9631 c6fe 8d31
00000340: 17bc 762e d1bc 6c31 edb7 0731 91a2 072f
00000350: 5413 fb30 8b1d 4831 bf8b 3d2e a8b1 0c31
00000360: 6fa7 0f32 efc0 5f42 5816 f631 9095 9431
00000370: c491 b62e 17b8 ce31 18af 7231 7557 822e
00000380: 54a9 9e31 94ca be31 c0d3 b22e ff43 6831
00000390: ad44 9c30 2022 8f41 e6fb 4431 a57b 1531
000003a0: 0070 c72d 445d af30 faf3 f031 4703 a040
000003b0: be3b 0532 7993 1632 b132 f62e e07e 9531
000003c0: 839d 8d30 e5c9 e340 a711 b330 59b2 b130
000003d0: 01ef b62d 9514 a630 2522 2930 ccdf 532d
000003e0: eb8d af30 df50 0e31 168d 902d 283e 9f30
000003f0: 855b 1431 211f dc2e 2467 ad31 71c3 aa31
5.576186e-09 47.76834 5.2665508e-09 6.363823e-09 9.527361e-11 4.9406235e-09 7.659304e-10 1.6641326e-10
1.7679025e-09 3.209286e-09 3.3812314e-11 6.18165e-10 1.1021877e-09 5.447161 8.932972e-10 5.7643357e-10
1.1002964e-11 1.1868981e-09 7.239616e-09 9.6010075e-11 3.6255827e-09 7.88964e-09 1.2329127e-10 3.907476e-09
9.995876e-10 1.9840034e-11 1.9265265e-09 1.9289519e-09 2.6931209e-11 1.1173675e-09 1.0260788e-08 124.965485
1.045643e-08 9.320262e-09 1.4468912e-10 1.3851657e-08 7.360589e-10 2.8235463e-11 2.3726248e-09 1.5575568e-09
2.390996e-11 1.1985937e-09 3.3623875e-09 30.481686 5.5433915e-09 6.1759584e-09 7.698161e-11 3.8825148e-09
1.377398e-09 5.628641e-09 2.2953386e-09 3.3462926e-09 4.53656e-11 7.123948e-10 2.0014645e-09 3.77649e-11
2.092886e-09 4.7187596e-09 3.83242e-11 4.00543e-09 1.2275976e-08 26.90368 9.929783e-09 1.3965757e-08
1.7419204e-10 8.503961e-09 1.1036663e-08 145.27873 1.3484497e-08 2.349932e-08 2.7006988e-10 1.9371043e-08
1.1411788e-09 3.278655e-11 2.5127793e-09 2.1221482e-09 2.8292977e-11 1.2919593e-09 5.6795666e-09 1.0184071e-10
7.222977e-09 8.987536e-09 1.3052912e-10 6.5580688e-09 2.4376787e-09 1.8358532 1.811983e-09 4.0385313e-09
5.6352537e-11 3.3339451e-09 7.888651e-09 1.5739968e-10 9.4558175e-09 2.2649504e-08 1.815117e-10 1.4315233e-08
4.7859317e-09 9.953727e-11 5.865388e-09 1.8295761e-08 1.413034e-10 1.2767905e-08 4.265077e-09 7.359179e-11
3.2074787e-09 4.064778e-09 6.2615683e-11 3.4155303e-09 1.6778556e-09 1.0619298e-10 3.6340804e-09 3.874964e-09
3.9096892e-11 1.304722e-09 2.9823972e-09 1.0773524e-10 4.166119e-09 6.4169945e-09 7.106254e-11 3.688717e-09
4.6156865e-09 21.319616 1.0249428e-08 8.599573e-09 1.2262495e-10 5.295622e-09 2.6615858e-09 41.940044
2.3319848e-09 3.0096687e-09 7.6399206e-11 2.9859324e-09 4.924252e-09 7.717041e-11 4.8497784e-09 9.458119e-09
1.0722443e-10 3.8217283e-09 1.4665487e-09 2.366722e-11 1.4526106e-09 2.7212037e-09 2.5695123e-11 1.6589473e-09
3.8022083e-09 3.5251008e-10 3.27358e-09 7.755503e-09 7.749933e-11 7.684446e-09 4.782678e-09 8.135288e-11
6.29901e-09 9.195242e-09 1.0989082e-10 4.636431e-09 3.1047376e-09 3.9153143e-09 3.4497645e-09 5.7098846e-09
6.9001894e-11 2.7708624e-09 1.2526661e-09 1.8735201e-11 1.6470453e-09 2.1151618e-09 2.1357971e-11 1.539859e-09
8.504555e-09 10.795127 8.392658e-09 1.5096532e-08 1.4249081e-10 1.0527743e-08 4.1167176e-09 5.7701413e-11
6.054111e-09 4.9386215e-09 7.9510946e-11 3.0600298e-09 9.570146e-09 3.554418e-08 8.75445e-09 2.1829733e-08
2.032793e-10 1.9438394e-08 7.941234e-09 1.9491519 8.326849e-09 1.635667e-08 1.5104616e-10 1.3207163e-08
2.6585358e-09 16.996151 2.8791332e-09 3.270212e-09 4.1826397e-11 1.982628e-09 1.4062906e-09 2.8231167e-11
2.619298e-09 2.3371869e-09 3.1034664e-11 1.8166686e-09 2.4532953e-09 5.5054843e-11 4.391139e-09 4.1326045e-09
5.610098e-11 3.444985e-09 1.9749635e-09 1.2335934e-10 1.8268147e-09 2.9120624e-09 4.3097744e-11 2.0473667e-09
8.3617655e-09 55.93841 7.1620825e-09 4.32437e-09 8.302295e-11 6.0163177e-09 3.5315164e-09 5.927251e-11
4.6176556e-09 5.5527583e-09 8.132117e-11 3.3799095e-09 1.1370013e-09 17.891663 2.8664942e-09 2.1752637e-09
2.2673419e-11 1.2759434e-09 7.0126562e-09 5.0004 7.755203e-09 8.7646805e-09 1.11957894e-10 4.3508948e-09
1.0303868e-09 7.1183953 1.3028981e-09 1.2929134e-09 2.0797144e-11 1.2083939e-09 6.1530364e-10 1.2043654e-11
1.2773261e-09 2.070969e-09 1.643356e-11 1.1586438e-09 2.1588857e-09 1.0009971e-10 5.0466884e-09 4.9698703e-09

exp_avg f4 [128]
00000000: 28a4 5137 a824 8fb7 fce1 f6b5 6a8f f837
00000010: 4216 3eb7 7b43 ccb6 8511 c537 f1e1 1238
00000020: f739 f637 41ec 83b6 8076 b437 a059 a5b7
00000030: 5040 ca37 e00e 22b7 4bf6 c736 285f 11b8
00000040: fa93 1237 c46d c0b6 58f7 21b6 9059 15b8
00000050: 70f3 3838 2225 0338 6410 26b8 d25d 0db7
00000060: e61c c737 4ee2 3137 10c7 ed35 a59e 9637
00000070: f0f9 8cb7 59e3 2838 6c11 9037 7bf2 98b7
00000080: 8391 5337 9440 dd37 f8d1 7135 6a98 d034
00000090: db3c 0fb7 2991 e737 6b2b b737 cd40 8237
000000a0: c609 9f36 0d62 fab6 84e7 09b7 4569 83b7
000000b0: 55c5 1cb8 fd22 2e37 0b01 e0b7 71ad 8db6
000000c0: 00dc 8d36 27d5 3438 006a d3b3 4d00 a037
000000d0: b41c 2bb7 d974 4ab7 fb0d 98b6 9408 3737
000000e0: da2d 9637 32f3 07b7 cd32 1a37 e4a1 47b7
000000f0: 9b62 d236 27f1 4338 faff 85b7 32a4 72b6
00000100: 987a 4fb7 b61e 5737 0a2c 9eb7 a82f 3ab8
00000110: 73ce 2338 d21c 0a38 28bc e235 d3b4 3db6
00000120: d803 86b7 a07c f736 2f76 5e37 e281 0fb8
00000130: 16b0 98b7 ef34 7c37 15a6 9637 4a30 53b7
00000140: a215 bcb6 62ef 30b6 4ee8 3c38 ed7e 0eb6
00000150: a442 fcb6 fe09 85b5 6cb6 9e35 e2a6 f8b4
00000160: 06e2 7a37 9ccd 96b6 1e03 0f37 3836 98b7
00000170: 00be 4437 a0a6 e637 6516 fb36 b96b 8637
00000180: ec84 bd36 6dc9 5db6 b04e 74b7 44d6 a7b6
00000190: fc4f b0b5 928a 6036 5dd3 1e36 eff8 fc37
000001a0: c812 1a37 f435 0c37 4ca5 6c37 6055 f436
000001b0: 1e00 1f36 58cf 6937 6b92 4937 bb63 7936
000001c0: 8804 2538 9405 9337 62e1 9537 39bd 9037
000001d0: 0c91 5f35 8aac cb37 5284 a9b6 dc0e 8e36
000001e0: 85db 7f36 e470 c9b6 84a5 2d37 5ac5 f134
000001f0: a20c 0938 cb07 4538 64f7 c3b6 f444 92b5
1.2495591e-05 -1.7063998e-05 -1.8394198e-06 2.9630686e-05 -1.1330065e-05 -6.0875295e-06 2.3492388e-05 3.5019537e-05
2.9352477e-05 -3.931608e-06 2.1512853e-05 -1.9711268e-05 2.4110224e-05 -9.659416e-06 5.9593344e-06 -3.4659315e-05
8.736732e-06 -5.7348243e-06 -2.4134843e-06 -3.560778e-05 4.4095737e-05 3.1267416e-05 -3.959275e-05 -8.426099e-06
2.3736106e-05 1.0602713e-05 1.7715811e-06 1.7955268e-05 -1.6805687e-05 4.0266055e-05 1.717425e-05 -1.8232726e-05
1.261046e-05 2.6375325e-05 9.008504e-07 3.8853915e-07 -8.537633e-06 2.7604941e-05 2.1835518e-05 1.5527383e-05
4.739707e-06 -7.461995e-06 -8.21974e-06 -1.5665437e-05 -3.7377078e-05 1.03793545e-05 -2.6703367e-05 -4.2223187e-06
4.227739e-06 4.3113858e-05 -9.8447344e-08 1.9073626e-05 -1.0199077e-05 -1.2067344e-05 -4.5315805e-06 1.0909647e-05
1.7902745e-05 -8.10325e-06 9.190943e-06 -1.1899017e-05 6.269967e-06 4.6716214e-05 -1.5974034e-05 -3.6156384e-06
-1.2366705e-05 1.2822149e-05 -1.8855575e-05 -4.439024e-05 3.90545e-05 3.2928605e-05 1.6893073e-06 -2.8268448e-06
-1.5975835e-05 7.375682e-06 1.3259748e-05 -3.421482e-05 -1.8201808e-05 1.5032695e-05 1.7958731e-05 -1.2587823e-05
-5.605355e-06 -2.6365383e-06 4.5039043e-05 -2.123353e-06 -7.5179432e-06 -9.91218e-07 1.1825009e-06 -4.6315023e-07
1.4953786e-05 -4.4942844e-06 8.52419e-06 -1.814506e-05 1.1726748e-05 2.7495727e-05 7.48299e-06 1.6024207e-05
5.648113e-06 -3.3048811e-06 -1.4561854e-05 -5.0019316e-06 -1.31363e-06 3.345926e-06 2.3666864e-06 3.015666e-05
9.183488e-06 8.357212e-06 1.4105182e-05 7.2817056e-06 2.3692915e-06 1.3936158e-05 1.2014624e-05 3.7161942e-06
3.9343286e-05 1.7526363e-05 1.7867136e-05 1.7254251e-05 8.3285045e-07 2.427983e-05 -5.0519966e-06 4.2336596e-06
3.8125738e-06 -6.003409e-06 1.0350141e-05 4.503334e-07 3.267511e-05 4.6975718e-05 -5.840253e-06 -1.0897916e-06

exp_avg_sq f4 [128]
00000000: 047e 9130 fe89 ce2f c46b 062f 2847 bc30
00000010: a581 a42f 62f4 dc30 2e0d 922f 001e 6b30
00000020: 398e 0a30 7419 ea2f 1801 0531 3736 4e31
00000030: 24d3 ac2f b854 c730 a01c 2c30 de97 0a31
00000040: bdc8 d730 9a3d 3f30 c3d1 ee2f fc09 5930
00000050: b242 bb30 9356 6930 09be a330 b7f4 9c2f
00000060: c9b2 6c30 6fd0 a730 debe 5230 8376 822f
00000070: fd98 d930 9bd7 7230 bb36 1b31 9fa9 e630
00000080: 017e ff2f 7d92 bd2f ef57 2b30 0fa1 0330
00000090: 9191 7d30 fd5e 7830 8d7f 8a2f 87f8 aa30
000000a0: 1913 7e2f f1c3 482f dbb7 2c30 2c83 a42f
000000b0: 9ba1 1131 33cc fa2f fd89 8c31 35dd d62f
000000c0: 01d6 cf2f 3085 8231 9d63 c130 3209 4130
000000d0: 5702 3730 9c0f 9d30 c3dd 3530 ebdb 672f
000000e0: d0ed f82f eb1d 3330 cbec dc2f 5572 3a30
000000f0: 0403 c82f 0c9d d830 b1d4 6830 53e8 cb2e
00000100: ccd4 902f 4092 6f2f 34cf 5f2f e767 b830
00000110: ff89 5330 636c f12f 925b 0d30 4d0c a530
00000120: 4711 0c30 0a50 1930 b267 a030 3c4b 5230
00000130: 72b2 c52e 5fda a330 c692 962f 9e30 f830
00000140: dc11 9130 fe7f e32f cf59 6731 44a2 6c30
00000150: 42d1 b82f a8cf 1930 719c 352f b0e2 2f30
00000160: 5a57 9630 0ffc 8630 0356 612f e6fb f32f
00000170: 4ab8 be30 e9d3 8a31 5be6 1a30 a821 8e2f
00000180: 1b4d f82f 371a 8930 bf45 a130 435b 2230
00000190: dec9 7430 bb59 f62f a45a 5e30 533a 4c31
000001a0: ee16 1a2f 4ecf dc2f eefe 7230 2461 8130
000001b0: f91f ca30 35da a230 5058 6c31 b53b c82f
000001c0: 4e62 4031 cb2d e330 0377 8c30 7215 c130
000001d0: b9f7 6930 8c6c ea30 e855 0130 7001 fa2f
000001e0: ebf3 832f 6f8e ed2f 5030 9f30 e2f1 5f30
000001f0: c070 6030 8c96 5731 4ff9 e02f 86d1 8b2e
1.0585954e-09 3.756923e-10 1.2225515e-10 1.3699024e-09 2.9923544e-10 1.6076565e-09 2.656661e-10 8.5535135e-10
5.040622e-10 4.2582438e-10 1.935467e-09 3.0007763e-09 3.1436642e-10 1.4503234e-09 6.2613914e-10 2.016797e-09
1.5700362e-09 6.9572936e-10 4.3440992e-10 7.895833e-10 1.3624997e-09 8.4887936e-10 1.1913822e-09 2.8550115e-10
8.611037e-10 1.221009e-09 7.6668794e-10 2.373107e-10 1.583231e-09 8.834548e-10 2.258658e-09 1.6782912e-09
4.647376e-10 3.4482986e-10 6.23344e-10 4.78864e-10 9.2247726e-10 9.035686e-10 2.5192684e-10 1.2439764e-09
2.310795e-10 1.8259506e-10 6.283451e-10 2.992463e-10 2.119214e-09 4.5619827e-10 4.0902237e-09 3.908355e-10
3.780514e-10 3.7986396e-09 1.407091e-09 7.022606e-10 6.657834e-10 1.142769e-09 6.616256e-10 2.1087458e-10
4.5279913e-10 6.5162337e-10 4.0186018e-10 6.782888e-10 3.638193e-10 1.5760704e-09 8.470336e-10 9.27264e-11
2.634465e-10 2.1788882e-10 2.0355345e-10 1.3417293e-09 7.6957457e-10 4.3914658e-10 5.142563e-10 1.2008826e-09
5.0956256e-10 5.577482e-10 1.1671004e-09 7.650447e-10 8.990221e-11 1.1921876e-09 2.738913e-10 1.8058193e-09
1.0555214e-09 4.1382003e-10 3.3665974e-09 8.6086893e-10 3.3618092e-10 5.5956173e-10 1.6517433e-10 6.398677e-10
1.0938763e-09 9.821423e-10 2.0494188e-10 4.4380427e-10 1.3876698e-09 4.04042e-09 5.635223e-10 2.5853564e-10
4.5165724e-10 9.975513e-10 1.1734115e-09 5.906495e-10 8.9053553e-10 4.4810897e-10 8.089194e-10 2.971906e-09
1.4014365e-10 4.0165066e-10 8.8401364e-10 9.413594e-10 1.4706522e-09 1.184907e-09 3.439272e-09 3.6422212e-10
2.7995557e-09 1.6529439e-09 1.0220166e-09 1.4048693e-09 8.511694e-10 1.7056592e-09 4.7052007e-10 4.5475756e-10
2.4002075e-10 4.3211254e-10 1.1582504e-09 8.1470664e-10 8.165095e-10 3.1372194e-09 4.0922507e-10 6.358207e-11
