actualgame/results/MoreMovementRun2/Agent Controller/Agent Controller-5120.pt (torch, 150592 bytes, 11 tensors)

network_body._body_endoder.seq_layers.0.weight f4 [128, 6]
000000 5e af 0c 3f ac 5e d7 be 3e 2c f4 bd f2 51 9c be
       0.5495509 -0.42064416 -0.11922501 -0.3053127
000010 de b6 2d 3f 77 9e 2c bd b3 d9 27 bf 21 57 6f be
       0.6785716 -0.04214331 -0.6556656 -0.23373081
000020 60 89 27 3e 2e 4c e0 be c9 f6 4a 3e 85 72 08 bf
       0.16360998 -0.4380812 0.19820704 -0.5329974
000030 8c 13 6a 3d 92 0b a1 be eb 0d 05 be e6 17 4c bd
       0.057147548 -0.3145414 -0.1299359 -0.04982748
000040 c9 8e ae bd 4e da eb bc d5 85 9b be 78 7d 71 3d
       -0.08523328 -0.02879062 -0.30375543 0.058957547
000050 2e d5 fe 3e 02 1a af 3d 93 b6 86 3e 81 22 80 be
       0.49772018 0.085498825 0.26311168 -0.25026324
000060 70 14 56 be b5 88 32 3f 23 e0 a0 bd e5 8e 2b be
       -0.20906234 0.6973985 -0.07855251 -0.16753729
000070 b9 c1 1a 3f 0b c4 06 bb 1d bb 2a bf 7e 06 f7 bd
       0.6045185 -0.0020563628 -0.6669176 -0.12061785
000080 6b 02 0c bd af b4 dd be 20 8d 1c bf 29 90 63 3e
       -0.034181993 -0.43301913 -0.6115284 0.22222961
000090 f5 f3 75 3f eb 51 06 bf 18 7d 4c 3e f5 d2 f1 bd
       0.96075374 -0.52468747 0.19969594 -0.11807815
0000a0 78 9c 2f 3f f9 42 c9 be 47 23 84 be b4 31 94 be
       0.6859813 -0.3930891 -0.25808164 -0.2894417
0000b0 a0 ad 27 bf e0 09 89 3e 3b 38 8d be d2 ff 5d 3f
       -0.65499306 0.26765347 -0.27581963 0.86718476
0000c0 48 39 24 bd 17 78 e6 be eb 5c 8d bd 66 d5 4e bf
       -0.04009369 -0.45013496 -0.06902488 -0.8079437
0000d0 57 22 cb 3e 13 61 87 be 76 21 f0 3e db 98 de 3d
       0.39674637 -0.2644125 0.4690053 0.108689986
0000e0 57 05 ea bd 59 a6 83 be f2 c6 5d bf cc 1d 87 be
       -0.114268 -0.2571285 -0.8663169 -0.2638992
0000f0 bf 13 dc be a3 92 26 3f ca cd 26 bc 85 77 91 be
       -0.42983815 0.650675 -0.0101809 -0.284115
000100 72 62 36 3f 46 d0 df be 77 2e 5a bd 13 de 60 3e
       0.71243966 -0.43713588 -0.05326697 0.21959715
000110 b2 c4 99 be 3d c3 62 3f bc 4c e7 bd 1f ee f7 3e
       -0.3003288 0.8857916 -0.11293933 0.4842386
000120 a2 1d 7c 3e 41 4e 59 bf 5b 33 33 3e ef ac f8 3c
       0.24620679 -0.8488503 0.1750006 0.030355899
000130 76 c4 0a 3f fe 98 3c be ad 35 c5 bc 93 9e 0a 3f
       0.54206026 -0.18417737 -0.024073446 0.54148215
000140 95 20 c4 3d 12 a2 0e bf 79 da 9b 3e a3 a9 1a 3b
       0.09576527 -0.5571605 0.3044012 0.0023599647
000150 33 34 d4 3d 56 7f 83 be 5e 75 03 be 54 be 05 3d
       0.10361519 -0.25683087 -0.12837741 0.032652214
000160 b6 d1 fe bd a0 ff f7 be a9 7c e9 3e 44 97 96 3d
       -0.12442343 -0.48437214 0.4560292 0.073530704
000170 e8 08 f6 3e 5e 6b a4 bd 6f d4 32 3f 35 08 73 be
       0.4805367 -0.08028291 0.698554 -0.237336
000180 e3 92 d6 3e 7b a7 41 be 03 d0 3c 3e 0f e1 04 be
       0.4190894 -0.18911545 0.18438725 -0.12976478
000190 dc 81 55 3e 66 a7 46 bd 4d be 23 3f 78 dc a3 3b
       0.20850319 -0.048499487 0.6396225 0.005000647
0001a0 c1 15 fd be 4c 9c ba be 8c 66 ef be ff 74 92 be
       -0.4943066 -0.3644737 -0.46757925 -0.28604886
0001b0 55 f6 9e be 7b 12 89 be 14 f1 56 be 0b 3a 73 3e
       -0.3104731 -0.26771912 -0.20990402 0.2375261
0001c0 70 e9 1c be b1 26 b5 3e 37 d6 c1 bd 95 0c ce bd
       -0.15323424 0.35381082 -0.09464686 -0.100609936
0001d0 92 0a 83 3e c1 96 43 bd a4 61 25 be f1 e9 d6 3e
       0.25594002 -0.047751192 -0.16150528 0.41975358
0001e0 03 25 43 bd 2a 0f 05 3d 1b cc 21 3e c0 01 27 bf
       -0.04764272 0.032485165 0.15800516 -0.65237045
0001f0 5a b3 ec 3d 72 32 9e be 1b 28 cb be b6 51 11 3f
       0.11557646 -0.30897862 -0.39679036 0.56765306
000200 06 57 ce bb 8c c4 2b 3f 3a 6e a9 3e bf 64 e7 3e
       -0.006296995 0.6709678 0.3309191 0.4519405
000210 19 c2 bc be c4 ce 31 be 17 f4 d1 be 12 20 08 be
       -0.36866835 -0.17364031 -0.41006538 -0.13293484
000220 25 5d 30 3e 2f b7 1a 3d 5d f9 76 be 9a 41 eb bd
       0.17223032 0.037772354 -0.24118562 -0.11487122
000230 3d a2 30 3e 37 f2 39 3f 7c e4 94 be 76 22 a6 3e
       0.17249389 0.72635216 -0.2908057 0.32448167
000240 be 1c 34 3e 8a 5e 99 bd fb 03 27 3e d2 19 f9 be
       0.1758909 -0.07488735 0.16310112 -0.48652512
000250 13 4b 1f bf c2 eb a8 be 91 89 f7 bd 46 56 0a bf
       -0.6222393 -0.3299237 -0.120867856 -0.5403789
000260 13 e9 dc 3d b3 f0 0f bf bd 18 0b be 9f 67 22 bb
       0.10786643 -0.5622665 -0.13583656 -0.0024781001
000270 ac f8 e9 be f3 ac ca be cb 21 19 bf d7 2c 2d be
       -0.45697534 -0.39585075 -0.5981719 -0.16911636
000280 58 0f ee be 9b b7 83 3d 1b 82 0a be fa 34 87 bf
       -0.4649608 0.06431504 -0.13526194 -1.0563042
000290 5c 62 40 3e 26 6d 2e bf 57 ea 27 bd f6 fc 86 be
       0.18787521 -0.681353 -0.04099497 -0.2636487
0002a0 1c 71 6e 3e 12 c7 1b bf ee d6 8b be ce c0 38 bf
       0.23285335 -0.6085063 -0.27312416 -0.72169197
0002b0 d7 da 2d 3f 5d b5 0e be af c7 dd 3e ed 9f 7d bd
       0.6791205 -0.13936372 0.4331641 -0.061920095
0002c0 72 ae 22 3c fa a5 19 bf 17 ca 02 bf 8e 0c f3 3d
       0.009929286 -0.60018885 -0.51089615 0.11867629
0002d0 20 15 80 be 61 68 90 3f e9 c7 f8 be d9 9a 8b bd
       -0.25016117 1.1281854 -0.4859002 -0.06816644
0002e0 09 06 0b 3f 43 1d 11 3e f2 4f f5 bc c7 72 1a be
       0.54306084 0.14171319 -0.029945347 -0.15082847
0002f0 30 0d 1e bc e9 65 71 bc dd 41 06 be 7e d6 22 bf
       -0.009646699 -0.01473377 -0.13111062 -0.6360854
000300 37 8d 0e be 20 80 db 3e 57 91 ac be 1e a2 eb bc
       -0.13921057 0.4287119 -0.33704636 -0.028763827
000310 ba ef 80 3d ee 1b e8 3e d2 d0 1b bf 7c 85 34 bf
       0.06295724 0.4533381 -0.6086551 -0.7051618
000320 a4 cc 03 bf b8 48 dd 3d fa 1c 28 bf 71 66 45 bf
       -0.5148413 0.108048856 -0.65669215 -0.7710944
000330 06 ff b5 be b6 f6 30 3d b7 e2 a1 be 6e 33 c5 3e
       -0.3554613 0.043204032 -0.31618282 0.385158
000340 0f 53 8c 3e 27 c9 01 bd fa 06 1d bf 45 1d e3 3d
       0.2740712 -0.031685974 -0.6133877 0.11089567
000350 ab 38 1d 3f 10 f0 9b be 72 04 05 bd d4 4e 31 bf
       0.61414593 -0.3045659 -0.032474943 -0.6926091
000360 29 0e 8b be e8 c7 3e be 96 c3 38 bc f9 ed b1 be
       -0.2715924 -0.18630946 -0.0112771 -0.3475187
000370 c7 f3 fc 3e 65 11 2a 3e 0d 39 eb be 7e e1 97 3c
       0.49404737 0.16608198 -0.45941964 0.01854014
000380 09 49 47 be cb 67 78 be 25 d0 ff 3e 2f b1 9f 3e
       -0.19461454 -0.24258344 0.4996349 0.31189868
000390 77 5e b0 be 91 26 d2 3e 50 dc cd bd 8f fa f8 bc
       -0.3444707 0.4104505 -0.10051787 -0.030392913
0003a0 98 40 ed 3e a9 d6 3a 3e 83 48 be be ba 0f be 3e
       0.46338344 0.18245949 -0.37164697 0.37121373
0003b0 1f 4d 64 3f 26 55 de bd 8e 95 ac 3e 0d 12 6e 3e
       0.8918018 -0.108560845 0.3370785 0.23249073
0003c0 b6 2a ae bd f8 07 14 be 73 c5 22 3e 03 d9 29 bf
       -0.0850424 -0.14456165 0.15895633 -0.6634676
0003d0 a6 93 83 3e 35 8a 1a 3f 2f 7e a0 be 00 d0 73 bf
       0.25698584 0.6036714 -0.3134627 -0.9523926
0003e0 1a 72 e6 3d 01 a0 a4 be b9 ee 2b 3f cc ff 46 3e
       0.11252232 -0.32153323 0.67161137 0.19433516
0003f0 2c d9 bd 3d 57 bc a5 be a7 7b d0 be a3 15 20 bf
       0.09269938 -0.32370254 -0.4071934 -0.62533015

network_body._body_endoder.seq_layers.0.bias f4 [128]
000000 00 00 00 00 00 00 00 00 00 00 00 00 00 00 00 00
       0.0 0.0 0.0 0.0
000010 00 00 00 00 00 00 00 00 00 00 00 00 00 00 00 00
       0.0 0.0 0.0 0.0
000020 00 00 00 00 00 00 00 00 00 00 00 00 00 00 00 00
       0.0 0.0 0.0 0.0
000030 00 00 00 00 00 00 00 00 00 00 00 00 00 00 00 00
       0.0 0.0 0.0 0.0
000040 00 00 00 00 00 00 00 00 00 00 00 00 00 00 00 00
       0.0 0.0 0.0 0.0
000050 00 00 00 00 00 00 00 00 00 00 00 00 00 00 00 00
       0.0 0.0 0.0 0.0
000060 00 00 00 00 00 00 00 00 00 00 00 00 00 00 00 00
       0.0 0.0 0.0 0.0
000070 00 00 00 00 00 00 00 00 00 00 00 00 00 00 00 00
       0.0 0.0 0.0 0.0
000080 00 00 00 00 00 00 00 00 00 00 00 00 00 00 00 00
       0.0 0.0 0.0 0.0
000090 00 00 00 00 00 00 00 00 00 00 00 00 00 00 00 00
       0.0 0.0 0.0 0.0
0000a0 00 00 00 00 00 00 00 00 00 00 00 00 00 00 00 00
       0.0 0.0 0.0 0.0
0000b0 00 00 00 00 00 00 00 00 00 00 00 00 00 00 00 00
       0.0 0.0 0.0 0.0
0000c0 00 00 00 00 00 00 00 00 00 00 00 00 00 00 00 00
       0.0 0.0 0.0 0.0
0000d0 00 00 00 00 00 00 00 00 00 00 00 00 00 00 00 00
       0.0 0.0 0.0 0.0
0000e0 00 00 00 00 00 00 00 00 00 00 00 00 00 00 00 00
       0.0 0.0 0.0 0.0
0000f0 00 00 00 00 00 00 00 00 00 00 00 00 00 00 00 00
       0.0 0.0 0.0 0.0
000100 00 00 00 00 00 00 00 00 00 00 00 00 00 00 00 00
       0.0 0.0 0.0 0.0
000110 00 00 00 00 00 00 00 00 00 00 00 00 00 00 00 00
       0.0 0.0 0.0 0.0
000120 00 00 00 00 00 00 00 00 00 00 00 00 00 00 00 00
       0.0 0.0 0.0 0.0
000130 00 00 00 00 00 00 00 00 00 00 00 00 00 00 00 00
       0.0 0.0 0.0 0.0
000140 00 00 00 00 00 00 00 00 00 00 00 00 00 00 00 00
       0.0 0.0 0.0 0.0
000150 00 00 00 00 00 00 00 00 00 00 00 00 00 00 00 00
       0.0 0.0 0.0 0.0
000160 00 00 00 00 00 00 00 00 00 00 00 00 00 00 00 00
       0.0 0.0 0.0 0.0
000170 00 00 00 00 00 00 00 00 00 00 00 00 00 00 00 00
       0.0 0.0 0.0 0.0
000180 00 00 00 00 00 00 00 00 00 00 00 00 00 00 00 00
       0.0 0.0 0.0 0.0
000190 00 00 00 00 00 00 00 00 00 00 00 00 00 00 00 00
       0.0 0.0 0.0 0.0
0001a0 00 00 00 00 00 00 00 00 00 00 00 00 00 00 00 00
       0.0 0.0 0.0 0.0
0001b0 00 00 00 00 00 00 00 00 00 00 00 00 00 00 00 00
       0.0 0.0 0.0 0.0
0001c0 00 00 00 00 00 00 00 00 00 00 00 00 00 00 00 00
       0.0 0.0 0.0 0.0
0001d0 00 00 00 00 00 00 00 00 00 00 00 00 00 00 00 00
       0.0 0.0 0.0 0.0
0001e0 00 00 00 00 00 00 00 00 00 00 00 00 00 00 00 00
       0.0 0.0 0.0 0.0
0001f0 00 00 00 00 00 00 00 00 00 00 00 00 00 00 00 00
       0.0 0.0 0.0 0.0

network_body._body_endoder.seq_layers.2.weight f4 [128, 128]
000000 b5 21 42 3d 25 41 09 3e 35 54 0c bd 18 ff 5e 3d
       0.047395427 0.13403757 -0.034259994 0.054442495
000010 d6 97 c3 bb 5a bf a2 3d e4 a0 a0 bd 0e 38 cd 3d
       -0.005969028 0.07946654 -0.078431875 0.10020457
000020 69 1c 39 bc 64 76 11 bc 07 78 cd 3c 08 90 10 bd
       -0.011298277 -0.008878324 0.025081648 -0.03529361
000030 52 e1 59 3d bf ab 2a 3e 9f a8 c4 bd 44 fa ed 3c
       0.053193398 0.16667078 -0.096024744 0.02905
000040 b3 92 e4 3d e2 a6 ee bd 50 b0 14 bd 35 d7 e7 3a
       0.11160793 -0.11652924 -0.036300957 0.0017688038
000050 91 d6 6a 3d d6 4d 91 3d bc 25 02 3b 3a d4 2a 3e
       0.057333533 0.07094924 0.0019858917 0.1668252
000060 ca fd 4b bc e8 b2 b3 3c 7f 18 ae bd 0f 0f 36 bd
       -0.012450645 0.021935895 -0.08500766 -0.044447955
000070 b1 7f 23 3b 63 00 5c bd a9 b1 0b 3d 39 c3 81 bd
       0.0024947936 -0.053711306 0.034104977 -0.06336064
000080 04 56 fb 3c da 66 98 bd db 2c e7 3b 84 86 5c 3e
       0.030680664 -0.074414924 0.0070549077 0.21535689
000090 ba c3 e0 bd 9a 20 b4 bb 9c 32 a2 bd ed cb c3 3d
       -0.10974832 -0.0054970505 -0.07919809 0.0956038
0000a0 69 c8 e1 3b c5 0d 59 be db db a3 3d a9 4e bc bd
       0.006890346 -0.21196659 0.080009185 -0.09194691
0000b0 87 29 64 bc d3 1c ff 3c 5e 04 f8 3c 6c 65 ab bd
       -0.0139259165 0.031141674 0.03027552 -0.08368954
0000c0 ac 71 a3 bd 81 72 f6 ba cc b0 a7 bd 65 a4 7d bd
       -0.079806656 -0.0018802435 -0.08188018 -0.061924357
0000d0 56 56 d9 3d d4 e6 24 3e 94 f0 ea 3d bc 7a e5 3c
       0.106121704 0.16103679 0.11471668 0.028012626
0000e0 03 a1 37 3d 20 18 dd 3d ac ba 89 bd 77 be dd bd
       0.044831287 0.10795617 -0.06725058 -0.10827344
0000f0 ad cf f4 3d fd 5d ee 3c e0 90 ad 3d fe 89 8d 3d
       0.119536735 0.029097551 0.08474898 0.069110855
000100 46 30 1a be d0 41 62 be 5d 3e bb 3d c5 3c 16 3e
       -0.15057477 -0.22095418 0.09142754 0.14671619
000110 cb 1f b9 3d 90 2b 2c bd 60 e0 88 bd 9c 28 f1 bd
       0.09039267 -0.042033732 -0.06683421 -0.11775324
000120 a3 5d 34 3e b1 79 3f be a3 6d c1 bb 14 38 98 3d
       0.17613845 -0.18698765 -0.0059029623 0.07432571
000130 a4 1b 69 bd e7 a2 d4 bd e1 9f 6a bc 21 ed d8 3d
       -0.056911126 -0.10382634 -0.014320345 0.10592104
000140 37 03 f1 bd 16 08 f3 3d d9 f1 4b 3d 2e 8e 2b 3b
       -0.11768191 0.11866777 0.04979119 0.0026177275
000150 97 00 b6 3d 96 9a 1d be 41 6a 36 bd 58 8f a9 3d
       0.08886831 -0.15391001 -0.044534925 0.08279294
000160 bb d6 68 bd 03 6c de 3c 0f 3b f5 3b ae 64 db 3c
       -0.056845408 0.027151113 0.007483847 0.026781406
000170 60 80 7e 3d 76 e9 75 be b6 f1 04 be 08 8b 8f 3d
       0.062134147 -0.2401484 -0.1298283 0.0700894
000180 b5 bc 36 bd a1 ea 66 3d f4 45 c6 3d 5a 46 f4 bd
       -0.04461356 0.056376103 0.09681311 -0.11927481
000190 fa cb 42 3e b6 ad 1f 3e 2e 48 4d bb 57 f5 76 3e
       0.19023123 0.15593609 -0.003132354 0.24117027
0001a0 90 10 9f 3d 43 b9 dd bb 6a d4 05 3e ca e9 9b bc
       0.07766831 -0.0067664697 0.13069311 -0.019032378
0001b0 47 a1 98 bd 37 4b ff bc f5 1b e0 bd b7 12 41 3e
       -0.07452636 -0.031163795 -0.109428324 0.18854795
0001c0 00 68 a5 3c 59 42 c2 bd eb f7 47 3c fa 74 6e be
       0.020191193 -0.09485311 0.012205104 -0.2328681
0001d0 1b 56 ee bd c1 b6 51 bc 87 40 27 3e ad 7d 72 bd
       -0.11637517 -0.01279992 0.16333209 -0.059201885
0001e0 45 a2 1a 3e 7a 30 38 3e 83 6e 91 bd 18 92 d7 3d
       0.15100963 0.17987242 -0.071011566 0.10525912
0001f0 c1 b7 81 bc e0 88 70 bc 1f 8c 9b bd d2 50 c7 bd
       -0.015834691 -0.014681071 -0.07595085 -0.09732212
000200 13 7d 02 be 96 67 62 3d 5e 0a 05 bc 00 72 96 3c
       -0.12743025 0.05527457 -0.0081201475 0.018364906
000210 bf 6e bb 3d 03 7d e8 bd 67 54 0d be 34 d0 c0 ba
       0.091519825 -0.11351969 -0.13801728 -0.0014710487
000220 24 7d b1 3c b7 28 83 bd bb 5c 31 be 3e 38 28 be
       0.021666117 -0.0640425 -0.1732053 -0.16427705
000230 c9 19 fc 3d 17 a5 7c bc e7 26 38 bc 65 f2 ba 3d
       0.12309606 -0.01542022 -0.011239744 0.09128264
000240 59 c1 dc bd 72 2e e4 3c 2f eb 86 bd 1e 44 08 3e
       -0.10779066 0.027854178 -0.065878265 0.13307235
000250 d7 54 c3 3d 07 1a 3b 3e e5 9e 0a 3b cd a6 c0 3d
       0.09537666 0.18271647 0.0021151837 0.09406815
000260 d9 ba 2e be 61 21 39 bd fa e6 8f 3d c5 14 81 3d
       -0.17063464 -0.04519785 0.07026477 0.063027896
000270 77 e6 1d 3c 40 81 5b bd 19 34 16 be ef ec bf 3d
       0.009637467 -0.05359006 -0.14668311 0.09371363
000280 3f bb 63 bd 2f e3 9c 3d b3 31 2e 3d cd 4e 1d 3d
       -0.055598494 0.07660519 0.042527866 0.03840523
000290 6e 8a e7 3c 67 55 3d bd 0d 9a cc 3d 9b bb 97 bc
       0.02826425 -0.046224024 0.0999032 -0.018522074
0002a0 4c d2 b9 bc 42 6d 24 3e 55 bb 5b bd c1 ca 97 3d
       -0.022683285 0.16057304 -0.05364545 0.07411719
0002b0 b3 f5 2d 3e 7e 28 84 3c f0 38 ab bc 25 c0 43 3b
       0.16988258 0.01613259 -0.020901173 0.0029869166
0002c0 0c 62 e1 3d e7 f7 b0 bd bf 42 bb bd 44 50 68 3c
       0.11005029 -0.086410336 -0.0914359 0.014179293
0002d0 a0 93 9d bd 27 09 8b bd 4b 70 fc 3d 87 a8 48 bc
       -0.07694173 -0.06788855 0.12326106 -0.012247211
0002e0 93 19 9d 3d 5e 3e c3 3d 7f ae 40 3d 3a c3 22 3d
       0.076708935 0.0953338 0.047041412 0.039736964
0002f0 1e 0f 88 bc 9e df 74 bc d2 4c fa bb ea 73 ac 3d
       -0.016608771 -0.014945893 -0.007638552 0.08420546
000300 7c a0 2d bd 25 ec d3 bc 26 ff 4a bd a7 f7 06 3d
       -0.042389378 -0.025869438 -0.049559735 0.032951023
000310 4f 93 19 bb 40 5c 00 bd 67 e9 32 3e ce 50 8d bb
       -0.002343375 -0.031337976 0.17471848 -0.004312611
000320 b2 c5 2b bd 47 e5 3e bd d4 c7 9e bd 24 4b 43 3c
       -0.041936584 -0.046605375 -0.07752958 0.01191977
000330 fe 16 b3 3d 34 cc d6 bb cd 35 38 3d ee 5b 96 3b
       0.0874462 -0.0065551046 0.044973183 0.0045885956
000340 77 fd 5f 3d 43 52 df bd c9 83 66 3d 99 97 8b 3d
       0.054685082 -0.10904362 0.056278024 0.06816024
000350 b2 11 e4 3d 0e 0d a7 3d 8e 9d e5 bc fa 53 f9 bd
       0.111361876 0.08156787 -0.02802923 -0.121742204
000360 43 46 3f 3c e3 e9 00 3d 4c 43 4e 3b 3e fb 4a 3d
       0.011674467 0.03147305 0.0031473218 0.04955601
000370 35 09 28 be ff 98 68 bd 0d 01 75 bd 45 88 fc 3c
       -0.16409762 -0.056786533 -0.059815455 0.030826697
000380 0f c1 a5 3d 46 be 73 bd 09 43 c1 bd 95 54 45 3d
       0.08093464 -0.05950763 -0.09436614 0.048176367
000390 61 2f 1b 3d 9d 7e a5 3d 19 4d 86 bd dd 0d 23 be
       0.03788698 0.0808079 -0.06557674 -0.15923257
0003a0 eb 5d a5 bd 96 ca 78 3a 4b a5 2d 3e 0b ad f6 3d
       -0.08074554 0.0009490637 0.16957586 0.12044724
0003b0 3b 7e cd bc 2e 5b 8b bd 5e 31 90 bb c6 46 3c bd
       -0.025084605 -0.068045005 -0.0044004163 -0.045965932
0003c0 18 96 cf ba 9a 0f 04 be d9 82 6c 3d 43 74 00 be
       -0.0015837578 -0.12896577 0.057741974 -0.1254435
0003d0 ae dc 43 3d 0e f9 11 3e 7d 10 96 3d 2a c2 05 3e
       0.04781788 0.14255163 0.07327364 0.13062349
0003e0 e9 5f f2 3d bf f8 0b 3c c9 2d cf 3c 0b 71 f9 bd
       0.118347 0.008543192 0.025290387 -0.12179764
0003f0 2d a0 14 3d c8 bc a9 bd 88 9b bc 3d 2e f1 4c be
       0.036285568 -0.0828796 0.09209353 -0.20013878

network_body._body_endoder.seq_layers.2.bias f4 [128]
000000 00 00 00 00 00 00 00 00 00 00 00 00 00 00 00 00
       0.0 0.0 0.0 0.0
000010 00 00 00 00 00 00 00 00 00 00 00 00 00 00 00 00
       0.0 0.0 0.0 0.0
000020 00 00 00 00 00 00 00 00 00 00 00 00 00 00 00 00
       0.0 0.0 0.0 0.0
000030 00 00 00 00 00 00 00 00 00 00 00 00 00 00 00 00
       0.0 0.0 0.0 0.0
000040 00 00 00 00 00 00 00 00 00 00 00 00 00 00 00 00
       0.0 0.0 0.0 0.0
000050 00 00 00 00 00 00 00 00 00 00 00 00 00 00 00 00
       0.0 0.0 0.0 0.0
000060 00 00 00 00 00 00 00 00 00 00 00 00 00 00 00 00
       0.0 0.0 0.0 0.0
000070 00 00 00 00 00 00 00 00 00 00 00 00 00 00 00 00
       0.0 0.0 0.0 0.0
000080 00 00 00 00 00 00 00 00 00 00 00 00 00 00 00 00
       0.0 0.0 0.0 0.0
000090 00 00 00 00 00 00 00 00 00 00 00 00 00 00 00 00
       0.0 0.0 0.0 0.0
0000a0 00 00 00 00 00 00 00 00 00 00 00 00 00 00 00 00
       0.0 0.0 0.0 0.0
0000b0 00 00 00 00 00 00 00 00 00 00 00 00 00 00 00 00
       0.0 0.0 0.0 0.0
0000c0 00 00 00 00 00 00 00 00 00 00 00 00 00 00 00 00
       0.0 0.0 0.0 0.0
0000d0 00 00 00 00 00 00 00 00 00 00 00 00 00 00 00 00
       0.0 0.0 0.0 0.0
0000e0 00 00 00 00 00 00 00 00 00 00 00 00 00 00 00 00
       0.0 0.0 0.0 0.0
0000f0 00 00 00 00 00 00 00 00 00 00 00 00 00 00 00 00
       0.0 0.0 0.0 0.0
000100 00 00 00 00 00 00 00 00 00 00 00 00 00 00 00 00
       0.0 0.0 0.0 0.0
000110 00 00 00 00 00 00 00 00 00 00 00 00 00 00 00 00
       0.0 0.0 0.0 0.0
000120 00 00 00 00 00 00 00 00 00 00 00 00 00 00 00 00
       0.0 0.0 0.0 0.0
000130 00 00 00 00 00 00 00 00 00 00 00 00 00 00 00 00
       0.0 0.0 0.0 0.0
000140 00 00 00 00 00 00 00 00 00 00 00 00 00 00 00 00
       0.0 0.0 0.0 0.0
000150 00 00 00 00 00 00 00 00 00 00 00 00 00 00 00 00
       0.0 0.0 0.0 0.0
000160 00 00 00 00 00 00 00 00 00 00 00 00 00 00 00 00
       0.0 0.0 0.0 0.0
000170 00 00 00 00 00 00 00 00 00 00 00 00 00 00 00 00
       0.0 0.0 0.0 0.0
000180 00 00 00 00 00 00 00 00 00 00 00 00 00 00 00 00
       0.0 0.0 0.0 0.0
000190 00 00 00 00 00 00 00 00 00 00 00 00 00 00 00 00
       0.0 0.0 0.0 0.0
0001a0 00 00 00 00 00 00 00 00 00 00 00 00 00 00 00 00
       0.0 0.0 0.0 0.0
0001b0 00 00 00 00 00 00 00 00 00 00 00 00 00 00 00 00
       0.0 0.0 0.0 0.0
0001c0 00 00 00 00 00 00 00 00 00 00 00 00 00 00 00 00
       0.0 0.0 0.0 0.0
0001d0 00 00 00 00 00 00 00 00 00 00 00 00 00 00 00 00
       0.0 0.0 0.0 0.0
0001e0 00 00 00 00 00 00 00 00 00 00 00 00 00 00 00 00
       0.0 0.0 0.0 0.0
0001f0 00 00 00 00 00 00 00 00 00 00 00 00 00 00 00 00
       0.0 0.0 0.0 0.0

action_model._continuous_distribution.mu.weight f4 [1, 128]
000000 47 87 75 3d 7c 10 43 bc 00 08 71 bc 80 fa e8 bc
       0.059943464 -0.011905786 -0.01471138 -0.02843976
000010 4a 9e 5a bd e3 38 e6 bc 0e 22 09 3d 32 53 74 bd
       -0.053373612 -0.028103298 0.033479743 -0.059649654
000020 95 aa 34 bc 7c 7f 91 3c 77 a6 99 bc 1c 88 35 bc
       -0.011026998 0.017760985 -0.018756134 -0.011079814
000030 c4 19 a9 3b a8 23 a3 bb 2a b2 16 bb 44 c1 aa 3a
       0.005160542 -0.004978616 -0.0022994378 0.0013027568
000040 f3 af 13 bc 94 6c 23 3c 3f 4d 8f ba 6c eb 05 3d
       -0.0090141175 0.0099746175 -0.0010933055 0.03269522
000050 95 64 8f 3b 92 d5 e5 3c 10 bd dd 3c 28 5d aa ba
       0.004376004 0.02805594 0.027067691 -0.0012997733
000060 83 a7 8f bb bb 67 8e 3c db fa 41 bc c0 b7 06 3b
       -0.0043839826 0.017383447 -0.011839594 0.00205563
000070 6b d7 10 3c 6d cd da bc bc bf c1 bc 30 46 d8 bc
       0.008840422 -0.026709283 -0.023650996 -0.026400656
000080 98 c5 8c bc 6f 97 c9 bc 42 dd a6 3b 6b be f6 3c
       -0.017184064 -0.024608342 0.005092294 0.030120095
000090 2f 2e b7 bb 91 41 a7 bc 13 aa 17 bd 0b 67 39 3c
       -0.0055902223 -0.020417007 -0.03702743 0.011316071
0000a0 79 4d c6 bb d8 43 c4 3c f3 5c 4a bc 95 dc ec bb
       -0.006051716 0.023958132 -0.012351262 -0.007228444
0000b0 f3 a0 f1 3b 88 f6 a2 3c 4f b3 77 bc 5d 93 a2 3b
       0.007373923 0.019892946 -0.015118434 0.0049614147
0000c0 4a 35 13 bc 9f 66 b6 3c dd e8 15 3c 3d aa d5 bc
       -0.008984873 0.02226573 0.009149757 -0.026082153
0000d0 9b 23 34 3b e7 52 a6 3c 23 2b 72 bb b0 3f 50 3b
       0.0027487043 0.020303203 -0.003695198 0.0031776242
0000e0 f7 68 a4 bc 6d f8 9a bb 40 5d bd 3a 7b df 7a 3b
       -0.020069582 -0.0047293217 0.0014447346 0.0038280177
0000f0 2e a7 c5 3c 5f 58 b6 bb 5f 2a 9b bc b3 5c 36 bc
       0.024127569 -0.005564734 -0.018941103 -0.0111305
000100 f1 e8 3e 3c 9f f4 18 3d 3c 1c 08 3d 28 6d 75 3c
       0.011652217 0.037342664 0.03323005 0.014979638
000110 43 f5 74 bc c1 d7 81 bc 73 18 17 bb 53 3b 82 3c
       -0.014951053 -0.01584995 -0.0023055344 0.015897429
000120 98 de 4c bc 10 9d 39 3c 3d 42 89 bc 27 f7 02 3d
       -0.012504242 0.0113289505 -0.016755218 0.031973984
000130 8d 53 75 3c 93 41 44 bc b0 fa 58 bb 49 2f b8 bc
       0.014973533 -0.011978525 -0.0033108406 -0.022483485
000140 d8 5b 82 bc ed 68 87 bb e7 2f c7 bc 17 2c 91 bc
       -0.015912935 -0.004132381 -0.024314834 -0.017721219
000150 77 1c 2e bc e8 12 67 bc 03 72 a3 3a c0 00 3b bc
       -0.010626904 -0.014103629 0.0012469891 -0.011413753
000160 bb cd 8e 3c 4c 53 a4 bc ff 97 91 bc c1 bd 99 3b
       0.017432084 -0.02005925 -0.017772673 0.00469181
000170 8c 0a b6 bc c5 70 ed 3c fd b6 8f ba 82 1a 64 3c
       -0.022221826 0.028984437 -0.0010964569 0.013922336
000180 b5 cd c6 bc c3 74 02 bd 83 d1 15 bb a9 82 a7 3b
       -0.02426801 -0.031849634 -0.0022860474 0.0051120115
000190 9b 4a 83 bb 4b 8b 9d 3c 2d c5 71 bc 4b 01 b0 bc
       -0.0040066964 0.01923146 -0.014756483 -0.021484992
0001a0 5c 43 aa 3c bc bc b2 bb 8b e1 2a 3c 4b cc e9 3c
       0.020784073 -0.005454628 0.01042975 0.028539797
0001b0 df 52 40 3c 92 77 19 bc ee 21 ca 3c 7f 86 d5 bb
       0.011738508 -0.009366887 0.024674382 -0.0065162773
0001c0 60 60 18 bd 57 26 1c 3c 57 67 d5 3c ec c3 ca 3c
       -0.037201285 0.009530625 0.026050253 0.024751626
0001d0 2d 1e 82 3a 0b 05 09 bd 6b 7e 3c bb dc 5b 87 bc
       0.0009927206 -0.033452075 -0.0028761874 -0.016523294
0001e0 7a d1 b7 3b 88 ce 6e bc db b8 c7 3a 92 cb da 3b
       0.0056096883 -0.014575608 0.0015237586 0.0066770995
0001f0 a0 9f 53 3c 8d c1 3c ba 53 1e 77 3c 5c ec 45 bb
       0.012916476 -0.0007200472 0.015082913 -0.0030200696

action_model._discrete_distribution.branches.0.weight f4 [1, 128]
000000 47 bc ac bb 5b f1 3b bc 7d c1 d3 3b 43 84 0e bc
       -0.005271468 -0.011471118 0.0064622746 -0.008698526
000010 c7 61 16 3c 1b f2 b2 bb 75 fa 97 3c 95 7d 5e bc
       0.009178585 -0.00546099 0.018552044 -0.013579746
000020 43 3e 7c ba cb cb 5f 3b 39 81 b6 bb 98 ec 8b 3b
       -0.0009622315 0.003414857 -0.0055696038 0.0042701475
000030 24 a8 3e 3c d1 e4 a9 3a 28 44 77 3c 3b 34 5c 3b
       0.011636768 0.0012961869 0.015091933 0.0033600468
000040 19 2f 45 3b 75 ee da 3a 2d fd 8b bb 40 f1 27 3b
       0.0030087887 0.0016703146 -0.0042721243 0.0025625974
000050 86 1d ab bc 77 04 73 3c 39 86 b3 bb 48 0f 66 bc
       -0.020888101 0.0148326075 -0.005478647 -0.014041729
000060 89 a7 1a ba 12 c0 ff bb 1f a7 32 bc ff 64 68 bc
       -0.00058995985 -0.007804879 -0.010904103 -0.014184236
000070 08 fc 00 3c 54 ad 41 bb 45 f6 38 3b 75 ca 50 bc
       0.007872589 -0.0029552775 0.002822296 -0.012743582
000080 6d c6 a9 bb 7b b5 59 bb 10 e7 4f 3c 8f c3 bb 3b
       -0.005181125 -0.0033219743 0.012689367 0.0057300995
000090 ef f7 ff 38 bf e7 1b bb 1d 53 dd bb 2f d1 09 3c
       0.00012205529 -0.0023789254 -0.0067542926 0.00841169
0000a0 62 3e fb 3b 1f ab 81 37 f1 16 4b bb 74 31 a3 bb
       0.0076673487 1.5457683e-05 -0.0030989016 -0.0049802605
0000b0 93 d2 45 bc d3 99 e5 ba f5 ba 8c 3b 3e dc 87 3b
       -0.012074131 -0.0017517157 0.004294748 0.004146128
0000c0 a1 3d 9b 3b 44 e3 9e 3c 12 2c 8d bb eb 5b 01 ba
       0.0047375713 0.019395478 -0.004308232 -0.00049346563
0000d0 95 cd c6 3c 79 aa a7 3c 4b 67 91 3b 23 5a 05 3b
       0.024267951 0.02046703 0.0044373623 0.0020347915
0000e0 2a 0d ce bb 00 16 e3 3b 6f 8e 39 3c d0 6c f1 3b
       -0.0062881904 0.006930113 0.011325463 0.007367708
0000f0 50 04 d2 3a 6f 0c 44 3c 82 03 33 3c 00 4f cd b9
       0.0016023014 0.011965855 0.010926129 -0.00039159507
000100 d7 da 6b 3b 0d c4 51 3c c6 32 a1 3b aa f2 d3 3a
       0.0035988593 0.01280309 0.0049193827 0.0016170342
000110 bb 4d d4 bb 10 43 57 ba 90 69 e3 bb 0b d7 5b 3c
       -0.0064789928 -0.0008211592 -0.0069400743 0.013417969
000120 43 05 40 bb 6c 47 35 3c e8 38 db bb 57 83 c0 3b
       -0.0029300011 0.011064392 -0.0066901334 0.005875032
000130 90 c1 a2 bb 3b 5e 6d bb f7 37 4c 3c f5 93 92 3b
       -0.004966922 -0.0036219496 0.012464515 0.0044732043
000140 02 cd 1b bb cc cb 05 bb ab bf 5f 3c 9f 4a c5 bb
       -0.0023773317 -0.0020415662 0.013656537 -0.0060208584
000150 cc 07 08 bc 60 a0 b7 3b 1b f4 e0 3b 2d af 1c bb
       -0.00830264 0.005603835 0.006865037 -0.0023908124
000160 4b ae 6c 3a 42 b8 bb bb b5 76 5c bb 1b 77 41 3b
       0.0009028657 -0.0057287524 -0.003364009 0.0029520455
000170 97 93 c3 bb 5a 06 0d 3c be 89 05 3a 93 1d 86 3b
       -0.005968522 0.008607471 0.00050940725 0.004092881
000180 65 f2 2e bc be 77 af 3b b9 44 b1 bb 58 4c 46 3b
       -0.010677909 0.0053548506 -0.0054098037 0.0030257907
000190 d4 32 90 3b 62 5f 52 3c b2 d1 98 3b 1b 0a 73 bc
       0.0044005904 0.012840124 0.0046636695 -0.014833952
0001a0 6d 5a 94 bc b5 c5 f1 3b 1e d0 88 bc a8 e2 c1 3a
       -0.018109525 0.007378305 -0.0167008 0.001479228
0001b0 a0 89 6a 3b 4a a3 b2 bb 93 10 17 bc 0f 09 4f 3c
       0.0035787597 -0.0054515945 -0.00922026 0.012636437
0001c0 1c 7a 90 3b cb ba a1 3a ea 70 62 b9 c5 ae e8 3a
       0.004409088 0.0012338994 -0.00021595103 0.0017752281
0001d0 f8 42 f0 3b 3b ac f7 3b 94 6c 48 3b bf e3 a8 3c
       0.007332202 0.0075583733 0.0030582296 0.02061641
0001e0 92 c2 5d bb 9b 61 b3 bb 90 61 89 3b 1f 56 5f bb
       -0.0033837897 -0.005474282 0.0041925386 -0.0034078432
0001f0 e7 8f 97 bc 4d 96 48 bc 9b 38 fb bb 8f c0 f4 3b
       -0.018501235 -0.012242866 -0.00766666 0.007469244

network_body._body_endoder.seq_layers.0.weight f4 [128, 6]
000000 db ce eb 3c 0d f3 97 be a9 52 61 bf 9c df 42 3d
       0.02878516 -0.2967762 -0.88016754 0.04757653
000010 91 4f 8c 3e 9b 18 84 3e 2d 1d 17 bf d9 60 8c bf
       0.27404454 0.25800022 -0.59028894 -1.0967056
000020 37 0e f1 bd 55 76 ab 3c c9 da 58 bf d3 d5 c7 3e
       -0.117702894 0.020930449 -0.8470884 0.39030322
000030 c8 e1 aa be ff 67 0a 3e bb 5f 3c 3e 0d 28 03 3f
       -0.33375382 0.13516234 0.18395893 0.5123299
000040 a5 0c aa be 42 7d 24 bf e5 15 d1 3e 27 7f 26 bc
       -0.33212772 -0.6425363 0.40837017 -0.010162151
000050 26 ef c2 be 37 89 00 bf 61 0f d9 bc a6 50 08 bf
       -0.3807308 -0.50209373 -0.026496591 -0.5324806
000060 8f 19 52 be d3 94 8a 3d c1 c9 0b be cd 11 0c 3d
       -0.20517562 0.06766667 -0.13651182 0.034196664
000070 5d 72 29 3f e8 0c c1 3d a1 ec f2 bd f1 f9 de 3c
       0.6619013 0.0942629 -0.1186154 0.02721879
000080 22 81 f7 be a3 ac 9c 3e 74 66 ca 3d 30 3a f4 3d
       -0.48340708 0.3060046 0.09882823 0.11925161
000090 89 d4 7a 3d d6 4a ac be 00 2a ba bd 41 95 4b bf
       0.061237846 -0.33650845 -0.09090042 -0.7952462
0000a0 3f 93 0e bf 70 58 be be a5 b9 2c 3e 50 85 17 be
       -0.5569343 -0.37176847 0.16867693 -0.14796948
0000b0 5a 6e 53 3d e7 d2 00 bf d2 e0 ee 3e 1e 79 2a bf
       0.05161891 -0.5032181 0.466559 -0.6659106
0000c0 fc be 31 be 83 25 43 3f 6c 4b db bc 8e 66 d3 bd
       -0.17358011 0.76229113 -0.026769362 -0.10322295
0000d0 02 2b 9c 3d 8a 5e 99 3e 8f d7 fa be 4a a7 2f 3e
       0.076253906 0.2995494 -0.48992583 0.1715366
0000e0 fc db e6 be 40 0a fd be 61 7e 51 be b2 49 95 3e
       -0.4508971 -0.49421883 -0.20458366 0.29157788
0000f0 b0 d8 37 bd 1f 04 08 bf db 55 7c be 42 8f 7b 3e
       -0.044884384 -0.5313129 -0.24642126 0.24566367
000100 40 62 ad bd 58 bc a6 3e 0d 27 d0 be 4a d9 40 3e
       -0.08466005 0.3256557 -0.40654793 0.18832889
000110 0a 57 04 3f 60 e4 b8 3d dd 0f c6 be 50 31 04 3f
       0.5169531 0.09027934 -0.38683978 0.51637745
000120 18 a7 82 bc 14 52 3c 3f 6c b5 f6 3d b2 ca ad 3e
       -0.015948817 0.7356274 0.12046322 0.33943707
000130 1e 8a 5f bd bb dc 4b 3e 2c 98 b9 bc 8e c7 8c 3f
       -0.05457508 0.1990842 -0.022655569 1.0998399
000140 88 e8 8c 3d 6c 93 be 3e ef d1 9a bc 9f 52 8b 3c
       0.06880289 0.3722185 -0.018898932 0.01700717
000150 dc 35 da bd 93 3a 0f be 4a 11 12 bd c9 77 ef bd
       -0.10654804 -0.13987188 -0.03566102 -0.11692769
000160 69 1e d3 3e 09 ad 8a bd 19 cd 5a 3d 7b b9 3d 3f
       0.4123414 -0.06771285 0.053418253 0.74111146
000170 d6 d9 e3 be 39 54 04 3f ae a6 17 bf 4f 97 0d 3e
       -0.44502133 0.51691014 -0.5923871 0.13827251
000180 8b 13 52 3e 9a f1 6f bf df 20 c5 be 64 90 fe be
       0.20515268 -0.9372803 -0.3850164 -0.49719536
000190 c6 7c 2e 3e 4e dc 24 3d db 65 62 bf 7f 4e 79 3e
       0.17039785 0.04024916 -0.8843667 0.2434635
0001a0 9b 36 04 3f 43 3c f4 be b7 51 81 3e f7 ea 3c 3f
       0.5164582 -0.47702226 0.25257656 0.7379603
0001b0 fa af 55 be e9 64 9d 3e 95 5b 16 3f 7c c6 90 3e
       -0.20867911 0.3074105 0.58733493 0.28276432
0001c0 90 ef 28 3f 4e 2c 53 3f e8 08 04 bf 2c fe 06 bf
       0.65990543 0.8248948 -0.5157609 -0.52731586
0001d0 8d a6 62 3e c1 e8 11 bf 4f 39 af 3e 82 22 9d be
       0.22133847 -0.5699578 0.3422341 -0.3069039
0001e0 a0 64 ca 3d f8 c9 98 be 18 7a a3 3e 1b 99 0e bf
       0.09882474 -0.2984159 0.31929088 -0.5570237
0001f0 6b f0 09 3d 8e 4a 59 3e 94 7d fe 3e e4 c6 18 3f
       0.033676546 0.21219847 0.49705184 0.59678483
000200 e8 09 47 be 61 1e dc be 40 04 00 bf dc 81 27 bf
       -0.19437373 -0.42991927 -0.50006485 -0.65432525
000210 64 cf c3 3e 17 09 0a be 80 8d ad 3d b0 6e 42 3e
       0.38244164 -0.1348003 0.084742546 0.18987536
000220 b0 2b 43 3e 88 22 14 be 9f b8 06 bf aa 41 3b bf
       0.19059634 -0.14466298 -0.5262546 -0.7314707
000230 f9 a2 0f bd f0 70 f6 be a9 1c 02 be ac 4f 45 be
       -0.035067532 -0.4813304 -0.12706245 -0.19268674
000240 a0 cb 00 bf 29 9e ed be d9 1e 14 be 42 9a 6e bd
       -0.5031071 -0.4640973 -0.14464892 -0.05825258
000250 a8 99 d4 be 09 cb 35 be 82 46 56 3f 8b c2 6f be
       -0.4152348 -0.17753233 0.83701336 -0.23414056
000260 4b e1 81 bd d5 d5 a7 3e 99 f9 0c bf d4 0a 58 bf
       -0.06341799 0.32780328 -0.55068356 -0.8439152
000270 aa 87 89 3d d1 af c1 be cb 2c 21 bf 48 f3 0f be
       0.06715329 -0.3782945 -0.62958974 -0.14057648
000280 36 8e 44 bf f2 1a 00 3f c8 6c 2d 3f bd b6 6a 3e
       -0.76779497 0.50041115 0.6774411 0.22921272
000290 77 05 d1 bd 0e 83 b0 3e aa 49 68 be 33 09 2d 3f
       -0.102061205 0.34474987 -0.2268435 0.6759216
0002a0 29 c6 0d bf 56 d6 67 3e c8 d8 8c 3d cc 02 19 3e
       -0.55380493 0.22640356 0.06877285 0.14942473
0002b0 35 93 21 3d 0e 29 8e 3e 22 b6 11 bf 39 03 c7 be
       0.03944703 0.27765697 -0.5691854 -0.38869646
0002c0 ad c2 bb 3e 0a 3b 9c 3e 4e 1d a7 3e 5a a3 76 be
       0.36671963 0.30513793 0.32639545 -0.24085751
0002d0 bb b5 a0 be 72 62 03 be d8 9f 7d 3d 3a 4f 15 bf
       -0.3138865 -0.12830523 0.061920017 -0.58324015
0002e0 0c a3 03 bf 83 29 89 be 96 dd ab be 13 20 01 3f
       -0.51420665 -0.26789483 -0.33567494 0.50439566
0002f0 8b d7 21 3d 67 95 46 bf 72 41 59 be ec 4b af 3e
       0.0395122 -0.7757172 -0.21216372 0.3423761
000300 d7 3c 9c 3e 04 8d 80 3e e9 60 f1 be a1 0b 3e 3d
       0.30515167 0.25107586 -0.4714425 0.04639781
000310 0a 57 4f 3e e8 c6 80 3e 3c 52 ac 3e 88 0e 97 3e
       0.20248047 0.25151753 0.3365649 0.29503274
000320 69 af 32 3f fa 19 a4 bd 5a f6 c8 be c5 ba 0c bf
       0.69798905 -0.08012767 -0.3925045 -0.5497249
000330 a1 af b3 3e 87 74 79 bd cb a9 bd bd 50 e6 1f be
       0.35094932 -0.060902145 -0.09260901 -0.15615201
000340 07 8d 2e 3f a5 6b 10 bf ef dd 13 bd 10 66 ff 3d
       0.6818394 -0.5641425 -0.036100324 0.12470639
000350 13 8d e0 be 88 35 76 bf 3f b5 63 3f c3 be 5a 3e
       -0.4385763 -0.9617543 0.88948435 0.21361832
000360 b9 59 11 3e a0 99 30 be 98 e8 13 bf 0b 1a 21 bd
       0.14194383 -0.17246103 -0.57776785 -0.039331477
000370 4a a7 e3 3e 29 cd 05 3f cb c7 02 3f 48 e0 ad 3d
       0.4446357 0.52266175 0.5108611 0.08490044
000380 a1 dc 78 bf 76 ac 0b bd 97 da bc 3e 51 ff 31 3e
       -0.97211653 -0.03410002 0.3688552 0.17382552
000390 2a 1b cd 3e c0 e4 0f 3f 74 6e 96 be 50 9e 50 3e
       0.40059787 0.5620842 -0.29381144 0.20372891
0003a0 9c 8e 4f 3f 20 ad d1 3e f0 47 6c be cf d5 84 3e
       0.8107698 0.40952396 -0.23074317 0.25944373
0003b0 ce c1 64 bf af 13 29 3d 02 92 30 bf b5 7e c2 bd
       -0.8935822 0.041278537 -0.6897279 -0.09496824
0003c0 9f f4 ec bd 0e 7c 15 bd 19 2b 1d 3f a1 54 45 bf
       -0.11570095 -0.03649526 0.61393887 -0.7708226
0003d0 1b 54 96 3d 90 be 92 bf b1 c1 30 be 8f 16 b8 bd
       0.073402606 -1.1464405 -0.17261387 -0.08988678
0003e0 00 4b 0b 3f 8a d5 90 bd 66 86 be bf 8f 13 16 3f
       0.54411316 -0.07071979 -1.4884765 0.58623594
0003f0 82 55 5d 3e ae 5f 8c bd 22 4c 90 3d 96 a8 7d bf
       0.2161465 -0.06854187 0.07045771 -0.99085367

network_body._body_endoder.seq_layers.0.bias f4 [128]
000000 00 00 00 00 00 00 00 00 00 00 00 00 00 00 00 00
       0.0 0.0 0.0 0.0
000010 00 00 00 00 00 00 00 00 00 00 00 00 00 00 00 00
       0.0 0.0 0.0 0.0
000020 00 00 00 00 00 00 00 00 00 00 00 00 00 00 00 00
       0.0 0.0 0.0 0.0
000030 00 00 00 00 00 00 00 00 00 00 00 00 00 00 00 00
       0.0 0.0 0.0 0.0
000040 00 00 00 00 00 00 00 00 00 00 00 00 00 00 00 00
       0.0 0.0 0.0 0.0
000050 00 00 00 00 00 00 00 00 00 00 00 00 00 00 00 00
       0.0 0.0 0.0 0.0
000060 00 00 00 00 00 00 00 00 00 00 00 00 00 00 00 00
       0.0 0.0 0.0 0.0
000070 00 00 00 00 00 00 00 00 00 00 00 00 00 00 00 00
       0.0 0.0 0.0 0.0
000080 00 00 00 00 00 00 00 00 00 00 00 00 00 00 00 00
       0.0 0.0 0.0 0.0
000090 00 00 00 00 00 00 00 00 00 00 00 00 00 00 00 00
       0.0 0.0 0.0 0.0
0000a0 00 00 00 00 00 00 00 00 00 00 00 00 00 00 00 00
       0.0 0.0 0.0 0.0
0000b0 00 00 00 00 00 00 00 00 00 00 00 00 00 00 00 00
       0.0 0.0 0.0 0.0
0000c0 00 00 00 00 00 00 00 00 00 00 00 00 00 00 00 00
       0.0 0.0 0.0 0.0
0000d0 00 00 00 00 00 00 00 00 00 00 00 00 00 00 00 00
       0.0 0.0 0.0 0.0
0000e0 00 00 00 00 00 00 00 00 00 00 00 00 00 00 00 00
       0.0 0.0 0.0 0.0
0000f0 00 00 00 00 00 00 00 00 00 00 00 00 00 00 00 00
       0.0 0.0 0.0 0.0
000100 00 00 00 00 00 00 00 00 00 00 00 00 00 00 00 00
       0.0 0.0 0.0 0.0
000110 00 00 00 00 00 00 00 00 00 00 00 00 00 00 00 00
       0.0 0.0 0.0 0.0
000120 00 00 00 00 00 00 00 00 00 00 00 00 00 00 00 00
       0.0 0.0 0.0 0.0
000130 00 00 00 00 00 00 00 00 00 00 00 00 00 00 00 00
       0.0 0.0 0.0 0.0
000140 00 00 00 00 00 00 00 00 00 00 00 00 00 00 00 00
       0.0 0.0 0.0 0.0
000150 00 00 00 00 00 00 00 00 00 00 00 00 00 00 00 00
       0.0 0.0 0.0 0.0
000160 00 00 00 00 00 00 00 00 00 00 00 00 00 00 00 00
       0.0 0.0 0.0 0.0
000170 00 00 00 00 00 00 00 00 00 00 00 00 00 00 00 00
       0.0 0.0 0.0 0.0
000180 00 00 00 00 00 00 00 00 00 00 00 00 00 00 00 00
       0.0 0.0 0.0 0.0
000190 00 00 00 00 00 00 00 00 00 00 00 00 00 00 00 00
       0.0 0.0 0.0 0.0
0001a0 00 00 00 00 00 00 00 00 00 00 00 00 00 00 00 00
       0.0 0.0 0.0 0.0
0001b0 00 00 00 00 00 00 00 00 00 00 00 00 00 00 00 00
       0.0 0.0 0.0 0.0
0001c0 00 00 00 00 00 00 00 00 00 00 00 00 00 00 00 00
       0.0 0.0 0.0 0.0
0001d0 00 00 00 00 00 00 00 00 00 00 00 00 00 00 00 00
       0.0 0.0 0.0 0.0
0001e0 00 00 00 00 00 00 00 00 00 00 00 00 00 00 00 00
       0.0 0.0 0.0 0.0
0001f0 00 00 00 00 00 00 00 00 00 00 00 00 00 00 00 00
       0.0 0.0 0.0 0.0

network_body._body_endoder.seq_layers.2.weight f4 [128, 128]
000000 58 38 7b bd b4 f3 c6 3d 79 e8 90 3d cb b2 99 bd
       -0.06133303 0.097144514 0.07075591 -0.07504805
000010 5e 21 3c 3e 78 c7 0c 3d 1e 46 3d 3e 0c 7d 92 ba
       0.18372104 0.034369916 0.18483779 -0.0011176183
000020 e0 66 8b 3c 71 f4 a7 bc a4 9d 31 bd 40 42 03 3e
       0.017016828 -0.020502301 -0.04336323 0.12818241
000030 fd fd 21 bd ef 02 b6 3d ad 18 e1 bd a0 6e 4f bd
       -0.039548863 0.08887278 -0.10991035 -0.05064261
000040 35 f4 13 be 60 eb ff 3d 69 53 2d 3e a2 12 25 bd
       -0.14448626 0.12496066 0.1692635 -0.040300973
000050 54 b9 da 3b 42 3e a7 bd 0b b8 d6 3c 7e e8 8a 3d
       0.006674925 -0.081661716 0.026210805 0.067826256
000060 ad f5 a9 bc 72 23 d8 3d 74 b0 a8 3c 4e 37 0b bd
       -0.02074703 0.10553636 0.020591952 -0.03398829
000070 b2 75 85 3d 87 ad 85 bd 42 00 17 be e1 20 58 be
       0.06516589 -0.06527238 -0.14746192 -0.21106292
000080 03 a9 bf 3d 1b 04 bc bd e2 ef 76 bd 0c 77 0b bd
       0.09358408 -0.091804706 -0.060287364 -0.03404908
000090 29 b7 ef 3d d7 fc 24 bd 05 f0 06 bd 5a c4 4f 3e
       0.11704857 -0.04028019 -0.032943744 0.20289746
0000a0 e8 31 1c bd e2 a8 7c bd ef b0 eb bc 6e 70 b0 3d
       -0.03813353 -0.061684497 -0.028770892 0.08615194
0000b0 5c a7 f3 bd 58 df 31 3d 3e 87 be bd d8 6b 20 bb
       -0.11897156 0.043425888 -0.09303139 -0.0024478342
0000c0 c6 fa 4b bc 97 a7 df 3d e5 53 da bd fd 4b b3 3d
       -0.012449926 0.10920637 -0.10660533 0.08754728
0000d0 20 35 b4 bd 76 bf 96 bd 5f 76 58 3e 98 65 be bd
       -0.08799195 -0.07360737 0.21138905 -0.09296721
0000e0 13 de b8 bc 53 f0 54 bd e5 a1 76 3d e9 f3 1c 3d
       -0.02256683 -0.051987004 0.06021299 0.03831855
0000f0 17 28 75 bd 2c 04 0e 3e 15 8a 91 bd 1d 6c 8e 3c
       -0.059852686 0.13868779 -0.07106415 0.017385537
000100 12 57 d5 bb 61 fc 9b 3d ec 14 4c 3c 13 84 12 3d
       -0.0065106237 0.07616497 0.01245616 0.035770487
000110 6b e3 8e 3d 92 23 1a 3d 89 29 cb 3d b6 ec b8 bd
       0.0697697 0.03763158 0.099200316 -0.09029524
000120 66 09 3f 3e de fc 0f 3d 1b 64 61 bd 30 6c 47 3e
       0.18655929 0.035153262 -0.05502711 0.19474864
000130 37 dd 62 bd eb 66 d2 3a 77 4d 56 3d dd 5f 6f be
       -0.05538675 0.00160524 0.05231997 -0.23376413
000140 96 97 2c 3e d0 94 07 be 7a 08 6d bd 27 6a 70 bd
       0.168547 -0.13240361 -0.057869412 -0.058694985
000150 f5 29 98 bd d5 d9 eb 3c 89 d9 f0 3d 44 33 0e 3e
       -0.07429878 0.028790394 0.117602415 0.13886744
000160 f2 4b 08 3d a6 b8 50 bc 50 ea 8d 3c 13 db fb 3d
       0.033275552 -0.012739336 0.017323643 0.122976445
000170 b7 e7 23 be 00 12 4d 3d 09 84 83 3d c9 10 9b bd
       -0.16006361 0.050065994 0.06421668 -0.07571561
000180 40 12 32 3d 6a 81 46 be ef f3 ac bc eb e0 d3 3d
       0.043474436 -0.19385305 -0.02111241 0.10345634
000190 d9 d0 e3 bd 57 b1 31 bd fc c4 94 3c 4f 28 aa bd
       -0.11123819 -0.043382015 0.018160336 -0.083084695
0001a0 69 7a 71 3d 20 33 ab 3d 9b 9c 3d 3d 7a 65 df 3c
       0.05895463 0.08359361 0.04629193 0.027270067
0001b0 25 f4 49 bc c4 f0 fe 3b 34 94 3d 3e 7a 73 4f bd
       -0.012326275 0.0077801663 0.18513566 -0.050647236
0001c0 69 c2 1d be b8 77 b0 bd 45 43 b5 3d 63 2d b6 3d
       -0.15406193 -0.086165845 0.08850721 0.088953756
0001d0 21 78 cb 3c 13 86 e0 bd 4a b0 ee 3d a0 b0 52 bd
       0.024837555 -0.10963073 0.11654718 -0.051437974
0001e0 8c bf 7d 3d c8 cf 14 bd 78 38 78 3d 6d 88 2e 3c
       0.06195025 -0.03633097 0.060600728 0.010652644
0001f0 2f f8 93 3c 3c f8 9a bd 60 1e 67 3b f6 46 f3 bc
       0.01806268 -0.07566878 0.0035265908 -0.029696923
000200 30 80 9c 3b 73 d3 0a 3e b9 67 9a bd 03 13 32 3e
       0.0047760233 0.13557224 -0.07539315 0.17390065
000210 90 d6 aa bd e0 7a 0f 3e 8f 8c 60 bd 3b b7 90 ba
       -0.08341706 0.14011717 -0.054821547 -0.0011040935
000220 3d 6a b4 bd 2d b3 8a bd 65 3f 02 bd 9d 72 41 bd
       -0.08809326 -0.06772456 -0.03179874 -0.047228444
000230 46 05 3e bd 1e 22 f2 ba 11 78 05 3d e2 e2 03 bd
       -0.046391748 -0.0018473302 0.032585207 -0.032198794
000240 0f 6d 21 be c6 8b 3f be 9e 80 2a 3e cb 21 4c 3d
       -0.15764259 -0.18705663 0.16650626 0.049836915
000250 3f 2b 34 3d 0f 1d b7 3c 75 8f 18 bc ed bb 7d bd
       0.043986555 0.022352723 -0.009311547 -0.061946798
000260 6a 86 2f 3e 1b 66 bb bc be 97 eb 3d 04 12 4a 3d
       0.17141119 -0.022875836 0.11503552 0.049333587
000270 af b2 a3 bd ed 6c 00 be 23 ad 36 3d bc 2f b7 3d
       -0.079930656 -0.12541552 0.04459871 0.089446515
000280 b1 81 b6 3d 4c c5 e7 bd 19 59 d9 bd 10 2d 3c bd
       0.089114554 -0.11316928 -0.10612697 -0.045941412
000290 a9 5d 2d 3d 4e 9d 4e bd fe 1c 0a be 34 02 ee bc
       0.04232565 -0.050442986 -0.13487622 -0.029053785
0002a0 04 41 e2 bd 79 2e da 3d dc fe a5 bd 59 03 21 3a
       -0.11047557 0.10653395 -0.08105251 0.00061421614
0002b0 f7 2b 40 3d f0 3c 1a 3e 2a 89 88 3c 7b ae 8b 3d
       0.04691693 0.15062308 0.016666967 0.06820389
0002c0 eb aa 24 3e b0 c1 63 bd 7e bb f2 bd 8c 6e 54 bd
       0.16080825 -0.055604637 -0.118521675 -0.05186324
0002d0 b3 e2 03 be fa 54 af 3d e1 ea 20 3e 46 5e 98 bd
       -0.12879448 0.0856113 0.15714599 -0.07439856
0002e0 86 b8 44 bd cb ee 66 bd e9 19 18 bd 2f 07 eb 3d
       -0.048027538 -0.056380074 -0.037134085 0.114759795
0002f0 17 ab 27 bc 45 8f c1 3c 24 b7 89 3d 01 7b 0d bc
       -0.010233662 0.023627887 0.067243844 -0.008635283
000300 7f 6d d0 bd 76 9f 13 3c e2 07 3c be f3 af 8f bd
       -0.10177135 0.009010186 -0.18362382 -0.070159815
000310 4c e2 22 bd e5 67 8e bc 49 c7 19 3b ed bd 68 bd
       -0.039766595 -0.017383525 0.002346473 -0.056821752
000320 c0 c3 85 bd 7c a8 5e 3d b7 99 9a 3c b7 5d b6 3d
       -0.06531477 0.054359898 0.018872125 0.089045934
000330 89 0c 39 bd dc 42 1a bd fe ce b5 3d ba ae 45 bd
       -0.04517797 -0.03766142 0.08877371 -0.048262335
000340 31 8e 7a 3e 12 68 ad 3d ae a2 1f be 27 20 93 bc
       0.24468304 0.084671155 -0.15589401 -0.017959667
000350 6a 6d 2a 3d c7 76 4a 3d 5a 66 9e bd ad bd 5d 3e
       0.04160825 0.04942968 -0.07734366 0.21654387
000360 9c 80 61 3d 74 ef 71 bd 81 80 ab bb 24 bc ad 3d
       0.055054292 -0.05906625 -0.0052338247 0.084831506
000370 68 eb e7 3d ef f0 2f 3e 3a a9 25 3d b1 df d3 3d
       0.11324197 0.17181753 0.04044459 0.103454
000380 a6 e2 dc bc 29 43 54 3d f5 fa 85 3d 37 9c 92 bc
       -0.026963543 0.05182186 0.06542007 -0.017896755
000390 00 6a f2 bd 54 07 7c 3c 41 ff 6d bc ab 14 62 bd
       -0.11836624 0.015382607 -0.014526189 -0.05519549
0003a0 19 ad a6 bb b8 14 e4 3d c3 34 90 bc 24 6a 95 bc
       -0.005086553 0.11136764 -0.017603284 -0.018239088
0003b0 d7 03 80 bd 62 17 a2 bd 13 18 45 be 93 12 f3 bd
       -0.062507324 -0.07914616 -0.19247465 -0.11868777
0003c0 04 1a e8 bc 40 95 2c bd ee b4 a4 bc c9 5b e2 3d
       -0.028332718 -0.042134523 -0.020105805 0.11052663
0003d0 75 59 03 3e f5 d6 af 3a 41 45 e4 3d e9 e8 96 3c
       0.12827094 0.0013415503 0.11146022 0.018421607
0003e0 5d d6 98 3e d6 f1 0b bd 73 38 3c bd 70 8d 46 3e
       0.29851046 -0.03416618 -0.04595227 0.19389892
0003f0 2a 1e 83 3d 4f 12 3e bd 66 2a 25 bb da b5 83 bb
       0.06402238 -0.04640418 -0.0025202273 -0.004019481

network_body._body_endoder.seq_layers.2.bias f4 [128]
000000 00 00 00 00 00 00 00 00 00 00 00 00 00 00 00 00
       0.0 0.0 0.0 0.0
000010 00 00 00 00 00 00 00 00 00 00 00 00 00 00 00 00
       0.0 0.0 0.0 0.0
000020 00 00 00 00 00 00 00 00 00 00 00 00 00 00 00 00
       0.0 0.0 0.0 0.0
000030 00 00 00 00 00 00 00 00 00 00 00 00 00 00 00 00
       0.0 0.0 0.0 0.0
000040 00 00 00 00 00 00 00 00 00 00 00 00 00 00 00 00
       0.0 0.0 0.0 0.0
000050 00 00 00 00 00 00 00 00 00 00 00 00 00 00 00 00
       0.0 0.0 0.0 0.0
000060 00 00 00 00 00 00 00 00 00 00 00 00 00 00 00 00
       0.0 0.0 0.0 0.0
000070 00 00 00 00 00 00 00 00 00 00 00 00 00 00 00 00
       0.0 0.0 0.0 0.0
000080 00 00 00 00 00 00 00 00 00 00 00 00 00 00 00 00
       0.0 0.0 0.0 0.0
000090 00 00 00 00 00 00 00 00 00 00 00 00 00 00 00 00
       0.0 0.0 0.0 0.0
0000a0 00 00 00 00 00 00 00 00 00 00 00 00 00 00 00 00
       0.0 0.0 0.0 0.0
0000b0 00 00 00 00 00 00 00 00 00 00 00 00 00 00 00 00
       0.0 0.0 0.0 0.0
0000c0 00 00 00 00 00 00 00 00 00 00 00 00 00 00 00 00
       0.0 0.0 0.0 0.0
0000d0 00 00 00 00 00 00 00 00 00 00 00 00 00 00 00 00
       0.0 0.0 0.0 0.0
0000e0 00 00 00 00 00 00 00 00 00 00 00 00 00 00 00 00
       0.0 0.0 0.0 0.0
0000f0 00 00 00 00 00 00 00 00 00 00 00 00 00 00 00 00
       0.0 0.0 0.0 0.0
000100 00 00 00 00 00 00 00 00 00 00 00 00 00 00 00 00
       0.0 0.0 0.0 0.0
000110 00 00 00 00 00 00 00 00 00 00 00 00 00 00 00 00
       0.0 0.0 0.0 0.0
000120 00 00 00 00 00 00 00 00 00 00 00 00 00 00 00 00
       0.0 0.0 0.0 0.0
000130 00 00 00 00 00 00 00 00 00 00 00 00 00 00 00 00
       0.0 0.0 0.0 0.0
000140 00 00 00 00 00 00 00 00 00 00 00 00 00 00 00 00
       0.0 0.0 0.0 0.0
000150 00 00 00 00 00 00 00 00 00 00 00 00 00 00 00 00
       0.0 0.0 0.0 0.0
000160 00 00 00 00 00 00 00 00 00 00 00 00 00 00 00 00
       0.0 0.0 0.0 0.0
000170 00 00 00 00 00 00 00 00 00 00 00 00 00 00 00 00
       0.0 0.0 0.0 0.0
000180 00 00 00 00 00 00 00 00 00 00 00 00 00 00 00 00
       0.0 0.0 0.0 0.0
000190 00 00 00 00 00 00 00 00 00 00 00 00 00 00 00 00
       0.0 0.0 0.0 0.0
0001a0 00 00 00 00 00 00 00 00 00 00 00 00 00 00 00 00
       0.0 0.0 0.0 0.0
0001b0 00 00 00 00 00 00 00 00 00 00 00 00 00 00 00 00
       0.0 0.0 0.0 0.0
0001c0 00 00 00 00 00 00 00 00 00 00 00 00 00 00 00 00
       0.0 0.0 0.0 0.0
0001d0 00 00 00 00 00 00 00 00 00 00 00 00 00 00 00 00
       0.0 0.0 0.0 0.0
0001e0 00 00 00 00 00 00 00 00 00 00 00 00 00 00 00 00
       0.0 0.0 0.0 0.0
0001f0 00 00 00 00 00 00 00 00 00 00 00 00 00 00 00 00
       0.0 0.0 0.0 0.0

value_heads.value_heads.extrinsic.weight f4 [1, 128]
000000 80 9f fa 3d d2 52 0d 3e 60 1d cf bc 90 cc 5b 3c
       0.122374535 0.13801125 -0.025282562 0.013415471
000010 64 f1 b5 3d fa ba 00 be 64 3a 9b 3d 4c a9 d4 3d
       0.08883932 -0.12571326 0.075794965 0.10383853
000020 8f 99 58 be e6 e1 52 3e 78 1a d3 3d 0a 9c 2b 3e
       -0.21152328 0.20593986 0.10307783 0.16758743
000030 b1 e0 e1 bd f8 6e 33 3e a2 18 30 3e 54 50 f4 3d
       -0.110291846 0.175228 0.17196897 0.11929384
000040 f6 8a 89 bd d0 33 83 3d 7c 7b 06 3e c0 81 8f 3d
       -0.06715958 0.06406367 0.13133043 0.0700717
000050 26 f9 36 be 84 54 be 3d ae 90 85 bd bc 0a 1b 3e
       -0.1786848 0.09293464 -0.06521736 0.15140814
000060 4a 98 94 bd fa a8 0c 3e 49 a8 16 be 3a e9 2c be
       -0.07255609 0.13736334 -0.14712633 -0.16885844
000070 18 22 88 3d f0 88 49 3e f8 55 9d 3d 40 0e dc bb
       0.06647128 0.19681144 0.07682413 -0.006715566
000080 9c da d5 3d 8c e2 31 3e 82 c6 4e be 1c e8 44 bd
       0.10442087 0.17371577 -0.20192912 -0.04807292
000090 0d 59 08 be 48 d6 4e be 46 5f 12 3e 98 ed 8f 3c
       -0.1331522 -0.2019893 0.14294156 0.017569348
0000a0 60 21 e6 3d 1e 97 03 3e a0 82 67 bd c8 27 12 3d
       0.112368345 0.12850615 -0.056521058 0.03568247
0000b0 74 ec ac 3d de 86 83 bd be 85 ba bd 1a 92 46 be
       0.08443537 -0.06422208 -0.091075405 -0.19391671
0000c0 60 bf d4 3b 50 e1 10 3d 94 6d f4 bd 94 85 cd bd
       0.0064925402 0.035371125 -0.11934963 -0.10035244
0000d0 2a 7a 02 be 00 42 aa bb 41 21 f3 bd 4f 31 5a be
       -0.12741914 -0.005195856 -0.11871577 -0.21307872
0000e0 86 24 3c 3e 00 f3 77 3a 78 65 98 bd 00 68 f2 b9
       0.18373308 0.0009458512 -0.07441229 -0.00046235323
0000f0 b0 ce 59 3c 30 bc 36 be 18 80 36 3d c0 b9 8a bc
       0.013293907 -0.17845225 0.044555753 -0.016934276
000100 cc 25 2f be 28 c3 59 3d 51 46 46 be 3c 68 87 bd
       -0.17104262 0.05316463 -0.19362761 -0.06611678
000110 58 3a c9 bc 50 40 57 3d 68 5d 7c 3d 9c 47 28 be
       -0.024563953 0.052551568 0.061612517 -0.16433567
000120 92 7a 25 be 70 cf aa bc 92 42 bb bd 7a be a4 bd
       -0.16160038 -0.020850867 -0.09143557 -0.08044143
000130 0f 6f 3c be 40 68 87 3c 38 24 28 3e 28 9c c8 bc
       -0.1840174 0.016529202 0.16420066 -0.024488524
000140 e0 d6 da 3d 12 80 03 be 7c 4f 0a 3e d8 55 8b 3c
       0.106855154 -0.12841824 0.13506883 0.017008707
000150 fc 76 12 be ef df 53 be 3c 70 46 be 00 11 14 bd
       -0.14303201 -0.20690893 -0.19378752 -0.036149025
000160 50 b7 c9 3d e0 2c a7 3d db a5 3e be 2c 2e 00 3e
       0.09849417 0.08162856 -0.18617956 0.12517613
000170 4b 48 48 be b2 50 44 3e bc a6 f3 bd bf 5b 55 be
       -0.19558828 0.19171408 -0.118970364 -0.2083578
000180 0c 44 d3 3d 8e 35 1a 3e 20 bd aa bb b8 31 44 3e
       0.10315713 0.15059492 -0.0052105337 0.19159591
000190 66 8f 1a 3e ae 86 db bd ac 3c f7 3d 5c 31 46 3e
       0.15093765 -0.107190475 0.12072119 0.19354767
0001a0 2a 3e 2c 3e f8 b3 82 bc ee ce 43 3e 1c 0c f1 3d
       0.16820589 -0.015954956 0.19121906 0.11769888
0001b0 98 98 11 be 00 9b 64 ba 98 ba 9a bc 20 d3 ce bc
       -0.14218366 -0.00087206066 -0.018887803 -0.025247157
0001c0 48 f5 19 bd 32 21 95 bd a9 60 fb bd 42 57 41 3e
       -0.037587434 -0.07281722 -0.12274296 0.18880942
0001d0 c2 9c 34 3e a0 5a e5 bc d8 f6 aa bd 95 44 50 be
       0.17637923 -0.027997315 -0.08347863 -0.20338662
0001e0 04 91 51 3e ec f4 3e 3e 00 59 4d 3c dc 38 bf 3d
       0.20465475 0.18648118 0.012533426 0.09337017
0001f0 e6 1c 49 3e 40 eb ee 3c dd 50 1f be 68 24 4a bd
       0.1963993 0.02916491 -0.1555819 -0.049351126
