actualgame/results/NewLocomotionRun2/Agent Controller/checkpoint.pt (torch, 445410 bytes, 39 tensors)

network_body._body_endoder.seq_layers.0.weight f4 [128, 6]
0	0x3ebcacac	0.36850488
1	0x3e764721	0.24050571
2	0xbda63092	-0.08114733
3	0xbe478e35	-0.19487841
4	0x3f6992fc	0.91239905
5	0x3d4c9197	0.049943533
6	0xbe908a2b	-0.28230414
7	0x3e54dba5	0.20786913
8	0xbee3ab70	-0.44466734
9	0xbee72e02	-0.4515229
10	0xbe141ac6	-0.14463338
11	0x3f7e54e6	0.99348295
12	0xbe34580c	-0.17611712
13	0xbd29b6c4	-0.041434065
14	0xbe6beca4	-0.2303949
15	0x3ed0c5b7	0.40775844
16	0xbf5e2621	-0.8677693
17	0xbede3579	-0.4340017
18	0x3f3ec138	0.7451358
19	0x3ebf4610	0.3735814
20	0x3ef33bb7	0.47506496
21	0xbe944f87	-0.28966925
22	0xbf1c1c50	-0.609807
23	0xbea2c427	-0.31790277
24	0xbdcd0d1f	-0.10012268
25	0xbde6d09e	-0.11270259
26	0xbefd35f3	-0.49455222
27	0xbf03ed96	-0.515344
28	0x3e8ea086	0.27856845
29	0xbe09e83d	-0.13467498
30	0xbeaee683	-0.3416024
31	0x3d043993	0.03228147
32	0xbef068cc	-0.46954954
33	0xbe22e9de	-0.15909526
34	0xbeb11402	-0.34585577
35	0xbdc2f402	-0.09519197
36	0x3f15a2d1	0.58451563
37	0xbec25cf7	-0.37961552
38	0xbf2295fe	-0.6351012
39	0x3e802f64	0.25036156
40	0x3f28e52a	0.65974677
41	0xbec142cc	-0.37746274
42	0xbf017ae9	-0.5057817
43	0x3eaafb9f	0.33395097
44	0x3d86a923	0.06575229
45	0x3f1470b3	0.57984465
46	0x3ec2cef1	0.3804851
47	0x3ed80408	0.42190576
48	0x3eee75a4	0.46574128
49	0x3f0e9761	0.55699736
50	0xbe7c856f	-0.24660276
51	0xbea1c5ad	-0.31596127
52	0xbe1186ad	-0.14211531
53	0x3db9c1eb	0.0907019
54	0x3f10f294	0.56620145
55	0x3ea261d8	0.31715274
56	0xbf826fb1	-1.0190336
57	0x3f0f441c	0.559633
58	0xbed34fce	-0.41271824
59	0x3e668137	0.22510229
60	0x3e9de2ce	0.308371
61	0x3ebccab5	0.36873403
62	0x3ea32988	0.31867623
63	0x3e967a27	0.2939007
64	0xbe28e3fa	-0.16493216
65	0x3d26aab0	0.040690124
66	0xbd919594	-0.07108608
67	0x3f36b7e9	0.71374375
68	0x3e345c80	0.17613411
69	0xbe5c87bd	-0.21536155
70	0xbd19acdc	-0.037518367
71	0x3e530e18	0.20610845
72	0x3e8be9a4	0.2732669
73	0x3eb82083	0.35962304
74	0xbd9f7563	-0.077860616
75	0xbe5aea7a	-0.21378508
76	0xbe57205c	-0.21008438
77	0x3ee14062	0.43994433
78	0xbda7aa7a	-0.08186813
79	0x3c4ca540	0.012490571
80	0x3f2147a1	0.6299992
81	0x3ed0a95b	0.40754208
82	0x3ddd3b46	0.10802321
83	0xbf0484e5	-0.5176528
84	0x3e610325	0.21973856
85	0xbf1f0976	-0.6212381
86	0x3e10342e	0.14082405
87	0x3e8d48d0	0.27594614
88	0x3f29d44f	0.6633958
89	0xbe862266	-0.2619812
90	0xbea0fbc6	-0.31442088
91	0x3eb27a3d	0.34858885
92	0x3e749359	0.23884334
93	0x3e8abb55	0.27096048
94	0xbf27978c	-0.6546562
95	0xbf460007	-0.7734379
96	0xbdf572ce	-0.11984788
97	0x3e826107	0.2546465
98	0xbe090b9e	-0.13383338
99	0x3eebf0d9	0.4608219
100	0x3ab3c651	0.0013715719
101	0x3f354f7e	0.7082442
102	0x3ee8f944	0.45502675
103	0x3dbc5561	0.09195972
104	0x3e301011	0.17193629
105	0x3f17d407	0.59307903
106	0xbe1d7f6a	-0.15380636
107	0xbf88d246	-1.068917
108	0xbf1ed091	-0.62037
109	0x3e7ed519	0.24885978
110	0x3ed7bcce	0.42136234
111	0xbcc13bc7	-0.023588074
112	0x3f38f005	0.7224124
113	0x3f318f88	0.69359636
114	0xbe82f8a4	-0.25580323
115	0x3e921c3e	0.28537172
116	0xbe6dba1a	-0.23215523
117	0xbd99bedb	-0.07507106
118	0xbec5b25d	-0.38612643
119	0xbe515b38	-0.20444953
120	0xbc46f6d8	-0.012143813
121	0xbe014d0f	-0.12627052
122	0xbd8aa65b	-0.06770011
123	0xbf861d7b	-1.0477747
124	0x3f62a6d0	0.88535786
125	0xbe18c997	-0.1492065
126	0xbe1ba067	-0.15197907
127	0xbf08d3fc	-0.5344846
128	0xbe833acd	-0.256308
129	0x3ddb2999	0.107012935
130	0xbdf4032c	-0.119146675
131	0x3e06eca5	0.1317621
132	0xbf146bbd	-0.57976896
133	0xbf07e0cc	-0.5307739
134	0xbdfc1356	-0.123083755
135	0xbdabd058	-0.08389348
136	0x3e99ebda	0.30062753
137	0xbee4a36f	-0.4465594
138	0x3ed75830	0.4205947
139	0x3f00e1f6	0.5034479
140	0x3e08828c	0.1333105
141	0xbec08000	-0.37597656
142	0x3f050b11	0.5197001
143	0x3e3c7b91	0.18406512
144	0x3e9d14b8	0.3067987
145	0xbee4e2e1	-0.44704345
146	0xbe228654	-0.15871555
147	0xbe46bd37	-0.19408117
148	0x3f1983b1	0.5996657
149	0x3f980b4a	1.1878445
150	0xbd468af1	-0.04847235
151	0x3f0f6e60	0.56027794
152	0xbf05e947	-0.5230908
153	0x3e810af7	0.25203678
154	0xbf598585	-0.8496936
155	0xbc6aef7c	-0.014339324
156	0x3db6c5c6	0.08924441
157	0x3d81240d	0.06305704
158	0xbe6ad7c7	-0.22933875
159	0xbd93cac7	-0.07216411
160	0xbdabecf3	-0.08394804
161	0xbef3e3d2	-0.4763475
162	0xbef2851e	-0.47367185
163	0xbea12fd5	-0.31481805
164	0x3ed8c672	0.42338902
165	0x3bd5c533	0.006523752
166	0xbdf41d1a	-0.11919613
167	0xbef0dff8	-0.47045875
168	0xbf338ae2	-0.70133793
169	0x3ddf94da	0.10917063
170	0xbf01d26d	-0.5071171
171	0x3f1feccf	0.62470716
172	0xbe7b9cdc	-0.24571556
173	0x3ebf446f	0.37356898
174	0x3e0e4518	0.13893545
175	0x3edafb72	0.42769963
176	0xbe598f21	-0.21246006
177	0xbe2bb49b	-0.16768114
178	0x3f01e845	0.5074504
179	0xbe067d78	-0.131338
180	0xbef991ee	-0.48744148
181	0x3f354f21	0.70823866
182	0x3e913feb	0.28369078
183	0xbee61307	-0.44936392
184	0x3e9bc73e	0.30425447
185	0x3f09d389	0.538384
186	0xbd8d59c6	-0.069018885
187	0x3e2366cf	0.15957187
188	0x3dcc60a2	0.09979369
189	0x3f1cd7b6	0.6126665
190	0x3e2b7dd1	0.16747214
191	0xbe0d026a	-0.13770452
192	0xbf1e2ab6	-0.6178392
193	0x3f16ce77	0.5890879
194	0x3dfabca6	0.12243013
195	0xbe890e92	-0.2676893
196	0xbe6b16f3	-0.22957973
197	0xbed427cb	-0.4143661
198	0xbf6ce0e9	-0.92530686
199	0x3e1718bf	0.14755534
200	0x3eb85fa5	0.3601047
201	0xbe6d3735	-0.23165591
202	0xbeb1abba	-0.3470133
203	0xbd8dd0db	-0.06924602
204	0xbe14139d	-0.14460607
205	0x3e8051f6	0.2506253
206	0x3e8e3789	0.27776745
207	0xbe8ec4d2	-0.27884537
208	0x3d1759e6	0.03695097
209	0xbf406dc4	-0.7516749
210	0xbebfb7c6	-0.37444896
211	0x3e90a01f	0.28247163
212	0x3db37118	0.08761805
213	0x3bce7452	0.0063004876
214	0x3e30b1ed	0.17255373
215	0x3ef968be	0.48712724
216	0xbec249a5	-0.3794681
217	0x3df17e44	0.117916614
218	0xbec1bd9a	-0.37839967
219	0x3d811031	0.063019164
220	0x3e6c400e	0.2307131
221	0xbdb1f17e	-0.08688639
222	0x3eb9e215	0.363053
223	0x3f267a1a	0.6503006
224	0x3e9b4f3b	0.30333886
225	0xbf181771	-0.5941077
226	0x3f1c8f06	0.61155736
227	0x3f29bac4	0.66300607
228	0x3e10842c	0.1411292
229	0xbf7839d5	-0.96963245
230	0xbe25ddf9	-0.16197957
231	0xbe2959fd	-0.16538234
232	0xbf1d689d	-0.6148775
233	0x3e571990	0.21005845
234	0x3e10c169	0.1413628
235	0x3af9eb7d	0.0019067373
236	0xbf03a87f	-0.5142898
237	0xbf0fb30f	-0.56132597
238	0x3ea92b71	0.33040956
239	0x3f17ccbe	0.59296787
240	0xbf472881	-0.7779618
241	0x3e43c649	0.19118609
242	0x3d22eae3	0.039774787
243	0x3ef26541	0.47342876
244	0xbe7ca63d	-0.2467279
245	0xbebc1693	-0.36735973
246	0xbd7f25bb	-0.062291842
247	0x3efb2e4d	0.49058762
248	0x3dfdfb38	0.12401432
249	0x3edcf5b9	0.43156222
250	0xbd79764f	-0.060903843
251	0x3ec295e6	0.38004988
252	0x3ea02c65	0.3128387
253	0xbddb1c3a	-0.10698743
254	0xbcde8d81	-0.027167084
255	0x3bfcacef	0.007711045

network_body._body_endoder.seq_layers.0.bias f4 [128]
0	0xbafcefab	-0.0019297501
1	0xbb2080b8	-0.0024490785
2	0xbbc83618	-0.006109964
3	0x3b4576eb	0.0030130695
4	0xbc5c3cdd	-0.013442245
5	0x39f4f69a	0.0004672304
6	0xbc389744	-0.011266533
7	0x3a86502c	0.0010247282
8	0xba2d7659	-0.00066170614
9	0xba4bce62	-0.0007774589
10	0xba98cf61	-0.0011658483
11	0xbbaa546d	-0.0051980526
12	0xbba98967	-0.0051738503
13	0xbc333adb	-0.010939325
14	0xbbd50e48	-0.0065019466
15	0xb86809c5	-5.532221e-05
16	0xbb645d4e	-0.0034845653
17	0x3c33cc5e	0.010974018
18	0x3a8322be	0.0010004861
19	0xbadde4db	-0.0016929166
20	0x3c0c6214	0.0085683055
21	0xbc00bdd7	-0.007857761
22	0xbc513174	-0.012768138
23	0xbb4e42bd	-0.0031472885
24	0x3c3cf1f3	0.011532295
25	0xbb03f9c4	-0.0020137886
26	0xba5436b0	-0.0008095307
27	0x3c556ad0	0.013025954
28	0x3b892225	0.0041849785
29	0x3a9f1ccd	0.0012139321
30	0xbb436ff6	-0.0029821373
31	0xbabbbe8b	-0.0014323754
32	0xbc0ac3af	-0.008469506
33	0x3aa8997b	0.0012863124
34	0x3bc3af6c	0.0059718397
35	0xb9ed418d	-0.00045253002
36	0x3b54eb60	0.0032488927
37	0xbbdded11	-0.0067726453
38	0xbc1bcfd5	-0.00951
39	0x3b22402a	0.0024757483
40	0x3af0aaea	0.0018361483
41	0x3b1fd6e7	0.0024389566
42	0xbc2f469c	-0.010697987
43	0x3bcaf8ef	0.006194226
44	0x3c1d70be	0.009609399
45	0xb968b194	-0.00022191397
46	0x3b28d3d6	0.002576103
47	0xbaaf85c6	-0.0013391308
48	0x3b19b816	0.002345567
49	0x3bd88736	0.0066079153
50	0xbc4ca30d	-0.012490046
51	0xba5d17f2	-0.0008434049
52	0xbc3ae011	-0.011405961
53	0xbbf6d156	-0.007532279
54	0x3a2f97ef	0.000669836
55	0x3b04d312	0.002026741
56	0x39a9bf54	0.00032376742
57	0xbc1bcd3a	-0.009509379
58	0xbc246deb	-0.010035972
59	0x3b94c515	0.0045400956
60	0xb88b7377	-6.6495435e-05
61	0xbb7d3d05	-0.0038641107
62	0xba847867	-0.0010106683
63	0xbabf04bc	-0.0014573555
64	0x3a1b6d55	0.00059290725
65	0xbb2e1432	-0.002656233
66	0x3b8accf3	0.0042358576
67	0x3c3d423a	0.011551434
68	0x3c289a75	0.010290732
69	0x3c08365a	0.00831374
70	0xbc450955	-0.012026151
71	0x3abca642	0.001439281
72	0x3b9cea4a	0.0047886716
73	0xbc3cfe68	-0.011535265
74	0xbad0e6a4	-0.0015937877
75	0xbc0dcca7	-0.00865475
76	0x3b230c79	0.002487926
77	0xbc4d2353	-0.012520629
78	0x3bab352e	0.0052248454
79	0x3b2ee243	0.0026685155
80	0x3c15af8b	0.009136091
81	0x3bc533e3	0.0060181483
82	0xbc280e3f	-0.010257303
83	0x3acbc910	0.0015547592
84	0xbb18faef	-0.0023342927
85	0x39d10972	0.00039870624
86	0x393a9815	0.00017794997
87	0xba6ffffc	-0.0009155271
88	0xbc122363	-0.00891957
89	0x3b4fc11d	0.0031700798
90	0xbc21aa9f	-0.009867339
91	0xbbaa26a2	-0.0051925937
92	0x3aa1ed96	0.0012354131
93	0xbc2f26b7	-0.010690383
94	0x3ba29bd8	0.0049624257
95	0xbabcaa7c	-0.001439407
96	0xbc1d4912	-0.009599941
97	0xba6b7fce	-0.0008983583
98	0x3c1c013e	0.009521781
99	0x3bf17b41	0.0073694293
100	0x3a1f5268	0.0006077648
101	0x3bb70169	0.005584885
102	0xbc2708e5	-0.010194992
103	0xbc1f8264	-0.009735677
104	0x3a41676d	0.00073777774
105	0xbba58c00	-0.0050520897
106	0x3a938cbe	0.0011257154
107	0xbabcdfb5	-0.0014409932
108	0xbbd241a1	-0.006416515
109	0xb9f917ee	-0.0004751081
110	0xba3cbb4f	-0.0007199542
111	0xba74da4a	-0.0009340389
112	0xbb4a385a	-0.0030856342
113	0x3af7bd25	0.0018900974
114	0x3a2b3e92	0.0006532456
115	0xbc22dfdf	-0.00994107
116	0xbc484232	-0.012222813
117	0xbb61ec89	-0.0034473261
118	0x3ad8236f	0.0016490052
119	0x3b8374ed	0.0040117414
120	0x3c16a677	0.009194962
121	0xbb71fba9	-0.0036923683
122	0xbbccbf05	-0.0062483572
123	0xbbb51a92	-0.005526849
124	0xbc1aafb7	-0.009441308
125	0x38d65f9a	0.000102221224
126	0xbb5ac03d	-0.0033378743
127	0xbc17acd0	-0.00925751

network_body._body_endoder.seq_layers.2.weight f4 [128, 128]
0	0xbcdb2f0c	-0.026755832
1	0xbda8fb9b	-0.08251115
2	0xbe090ffa	-0.13385001
3	0xbd565330	-0.052325428
4	0x3ba508c2	0.0050364444
5	0xbb9de7a5	-0.004818874
6	0xbe0b49c2	-0.13602355
7	0xbaca97a8	-0.0015456574
8	0x3e024779	0.12722577
9	0xbd0a0c82	-0.033703335
10	0x3e1ec034	0.15503007
11	0xbb7ed857	-0.0038886273
12	0xbcfebe50	-0.031096607
13	0xbcdbf770	-0.026851386
14	0x3d89d56a	0.067301586
15	0x3ce9e0a9	0.02854951
16	0x3debf286	0.11520867
17	0x3d7d095e	0.06177651
18	0xbd528dc1	-0.05140472
19	0x3d0df6ba	0.034659125
20	0x3d9b9624	0.075969964
21	0xbd9c9e66	-0.076473996
22	0xbd5c313a	-0.053757884
23	0x3e0fb9e3	0.14035754
24	0xbe0a3035	-0.13494952
25	0x3b3def94	0.002898191
26	0xbd0f0178	-0.03491351
27	0xbe5be94f	-0.21475719
28	0x3cca8cf9	0.024725424
29	0x3d3102bc	0.0432155
30	0xbdc9381a	-0.09825154
31	0xbc3161ba	-0.0108265225
32	0x3ce5238f	0.027971057
33	0xbe151576	-0.14558968
34	0x3de5d25d	0.11221764
35	0xb9488831	-0.00019124222
36	0x3da6476a	0.0811909
37	0xbbd61bd6	-0.00653408
38	0x3b25d311	0.0025302807
39	0x3e358549	0.17726626
40	0xbe0d0c5d	-0.13774247
41	0x3c8679ec	0.016415559
42	0xbd0fc28f	-0.035097655
43	0x3d0f566f	0.03499454
44	0xbc52d312	-0.012867706
45	0xbc35d84c	-0.0110989325
46	0x3cd58bc2	0.026067618
47	0xbde4bb2b	-0.11168512
48	0xbdd12caa	-0.10213597
49	0x3e0d5c43	0.13804726
50	0x3d564f3c	0.052321658
51	0xbd46f07f	-0.0485692
52	0xbd3a4654	-0.045477226
53	0x3e4fb0ff	0.20282362
54	0x3d9365db	0.07197162
55	0x3e022818	0.12710607
56	0x3e20b9c1	0.1569586
57	0xbccebcbf	-0.025236486
58	0xbd90c59d	-0.07068942
59	0x3dc488cf	0.09596407
60	0x3d19ed8b	0.037580054
61	0x3c56c08b	0.013107429
62	0x3d86eb0d	0.06587801
63	0x3d23fc18	0.040035337
64	0xbd11191e	-0.035424344
65	0xbca6436d	-0.020295823
66	0xbccfc67f	-0.025363205
67	0x3e30ac71	0.17253281
68	0x3dce36d8	0.10069054
69	0xbcb8da05	-0.022564897
70	0xbd09129a	-0.033465005
71	0x3da4b432	0.08042182
72	0x3e2a0ba1	0.16605999
73	0xbcaa1414	-0.020761527
74	0x3e1dd32a	0.15412584
75	0x3c76b56d	0.015057904
76	0xbd37b40b	-0.044849437
77	0xbd1726c4	-0.036902204
78	0x3d22b755	0.03972562
79	0xbd5ab0a7	-0.053391125
80	0xbd6d81d7	-0.057985153
81	0x3d2b90d1	0.041886155
82	0xbe1577db	-0.14596502
83	0xbc15901b	-0.009128596
84	0xbd0653be	-0.032794707
85	0x3e1aa8b2	0.15103415
86	0x3d1fd13d	0.039017905
87	0x3d83838a	0.064215735
88	0x3c27b018	0.010234855
89	0x3d061f5a	0.032744743
90	0xbd509f86	-0.050933383
91	0xbe311220	-0.1729207
92	0x3c7681e7	0.01504562
93	0xbd491871	-0.049095575
94	0x3dbcafcf	0.0921322
95	0xbd886aaa	-0.066609696
96	0x3c95b5c2	0.018275145
97	0x3d57cab8	0.052683562
98	0xbd651e3a	-0.05593703
99	0xbd994748	-0.07484299
100	0xbc4d5807	-0.012533194
101	0x3e0465b5	0.12929423
102	0x3e192071	0.14953782
103	0x3c7fad69	0.015605309
104	0xbdde70ed	-0.10861383
105	0x3c03aa19	0.00803616
106	0xbc6424e7	-0.013924814
107	0x3e75c9b0	0.24002719
108	0x3cc5d00b	0.024147054
109	0x3c8d565a	0.01725309
110	0x3e2c2dd3	0.16814356
111	0x3cba8c00	0.022771835
112	0x3d4564f4	0.04819198
113	0x3cf6739a	0.03008442
114	0xbc5b5758	-0.013387524
115	0x3e43e00a	0.19128433
116	0x3cc36e7a	0.02385639
117	0x3dc5e1cf	0.0966221
118	0x3cdaedc4	0.026724704
119	0xbd73d655	-0.059530575
120	0x3daa9ecc	0.08331069
121	0x3d07e679	0.03317878
122	0x3c80023e	0.01562607
123	0x3cde0b15	0.027104894
124	0x3cfee8c3	0.031116849
125	0x3cdb6be1	0.02678484
126	0x3d4a848a	0.049442805
127	0xba8db206	-0.0010810501
128	0x3df5f58f	0.12009727
129	0xbd291352	-0.04127819
130	0x3d92f906	0.07176404
131	0x3da6af85	0.081389464
132	0xbd0775ae	-0.033071212
133	0x3ccc9552	0.024973545
134	0xbbabcf38	-0.0052432083
135	0x3d9a63fe	0.07538603
136	0xbd78fc1b	-0.0607873
137	0x3da938eb	0.08262809
138	0xbdc1d628	-0.09464675
139	0x3c4e705c	0.012600031
140	0x3d3cc827	0.046089318
141	0xbdeea197	-0.116519146
142	0x3c89aa33	0.01680479
143	0x3d1103a2	0.035403855
144	0xbd4c85df	-0.049932357
145	0x3c8b9f4d	0.017043734
146	0xbddcd404	-0.10782626
147	0xbd21659e	-0.03940355
148	0xbd71c87b	-0.059029084
149	0x3ca2b695	0.019862453
150	0xbdbbc4e2	-0.09168412
151	0x3ded6495	0.1159145
152	0xbd015fd6	-0.031585537
153	0x3d491b57	0.04909834
154	0xbdb40883	-0.08790686
155	0x3cf1d182	0.029518846
156	0xbe07da7f	-0.13266943
157	0xbd2669f5	-0.040628392
158	0x3dff9568	0.12479669
159	0xbdc00076	-0.09375088
160	0xbd492e24	-0.04911627
161	0xbcbefd1b	-0.02331405
162	0x3de7f9e5	0.113269605
163	0x3dc5ecc9	0.09664304
164	0xbcf0c141	-0.029389026
165	0x3ca1aa52	0.019734535
166	0x3e627308	0.22114193
167	0x3da78c14	0.08181015
168	0xbc729052	-0.014804916
169	0xbc8c497e	-0.017124888
170	0x3d02ea9d	0.031962026
171	0x3db36cd7	0.08760994
172	0x3e2a1f77	0.16613565
173	0x3be62813	0.00702382
174	0x3d8f410a	0.06994827
175	0x3db5169a	0.088422015
176	0xbd86f25b	-0.065891944
177	0x3d63371f	0.05547249
178	0x3d82cfff	0.06387328
179	0xbc4bb45d	-0.012433139
180	0xbd7b4e1f	-0.0613538
181	0xbc8cd9b1	-0.017193647
182	0xbd399d89	-0.045316253
183	0x3d45fad8	0.048334926
184	0x3d8fdcd6	0.07024543
185	0x3d6fc669	0.058538828
186	0x3df48eb0	0.11941278
187	0xbda01589	-0.078166075
188	0x3dc842e9	0.09778387
189	0x3c7f1210	0.015568271
190	0xbba91cd0	-0.0051609054
191	0x3d95e431	0.07318915
192	0xbcd30846	-0.025760781
193	0xbe0562b4	-0.13025934
194	0x3d3ba8ab	0.04581515
195	0xbe67b178	-0.22626293
196	0x3cf09f32	0.029372785
197	0x3e18a8cc	0.14908141
198	0x3d1fe901	0.03904057
199	0x3d57ca5c	0.05268322
200	0xbdf1dc4c	-0.118095964
201	0xbe240529	-0.16017593
202	0xbd945fb2	-0.07244815
203	0xbc452088	-0.012031682
204	0x3dd36b69	0.10323221
205	0x3d2b1855	0.04177125
206	0x3d2ecb50	0.042674363
207	0x3e25f5b5	0.16207011
208	0x3df024ff	0.117258064
209	0x3d3243c7	0.04352167
210	0x3e370867	0.17874299
211	0xbd88488a	-0.06654461
212	0x3d1bcb6f	0.038035806
213	0xbd8d5c43	-0.06902363
214	0xbc909a2a	-0.017651636
215	0x3de794c6	0.11307673
216	0x3c8b663b	0.01701652
217	0x3dd754a1	0.105141886
218	0x3dff6977	0.12471288
219	0xbd91f718	-0.071272075
220	0x3d4d04c8	0.050053388
221	0xbd811d56	-0.063044235
222	0xbde3ccab	-0.11123022
223	0xbd65fc79	-0.05614898
224	0xbcf30900	-0.029667377
225	0x3de0f42c	0.10984072
226	0x3d3b3340	0.045703173
227	0xbd282082	-0.041046627
228	0x3ddc81b1	0.10766924
229	0x3d951520	0.0727942
230	0xbdf5b638	-0.11997646
231	0xbdfdffcd	-0.12402306
232	0x3dbb4f9b	0.09146043
233	0xbd849e52	-0.0647551
234	0xbc212233	-0.009834814
235	0xbdc90960	-0.09816241
236	0xbdcd10f0	-0.10012996
237	0x3dc8f1a9	0.09811718
238	0x3da07493	0.07834735
239	0xbbe7b1e6	-0.0070707677
240	0xbd7497d1	-0.059715096
241	0x3d106997	0.03525695
242	0x3bbabf67	0.0056990865
243	0x3c88186c	0.016613208
244	0x3ce19aa5	0.02753956
245	0xbcb9a7ae	-0.022662964
246	0x3e403fdc	0.1877436
247	0xbb8fa3fe	-0.004383563
248	0x3d50cb06	0.05097487
249	0x3dc5dbc7	0.0966106
250	0xbcbb5cda	-0.022871424
251	0xbd981149	-0.07425172
252	0xbdbc396a	-0.09190638
253	0xbd135d15	-0.03597744
254	0x3ba13cf9	0.0049205986
255	0xbe23a9b5	-0.15982707

network_body._body_endoder.seq_layers.2.bias f4 [128]
0	0xbaa49662	-0.0012557025
1	0xbb9dc63c	-0.004814891
2	0xba4e61bb	-0.00078728393
3	0xbc3452f1	-0.011006103
4	0xbc4182e7	-0.011810995
5	0x3bf31d77	0.007419284
6	0x3c219b7f	0.009863733
7	0x3c1b9723	0.009496483
8	0xbc00eda8	-0.007869162
9	0x3a233074	0.00062251766
10	0xbb749474	-0.003731993
11	0x3c0fa9ec	0.00876854
12	0x3c290d09	0.010318049
13	0x3c3c6090	0.011497632
14	0x3c0bb02c	0.008525889
15	0xbc06de77	-0.008231751
16	0xbc35be1c	-0.011092689
17	0xbc0254c4	-0.00795478
18	0x3997bee3	0.00028943186
19	0xbc15fcca	-0.009154508
20	0xbb82147f	-0.0039697285
21	0x3bf2f7d3	0.007414797
22	0x3a094be5	0.00052374444
23	0xbb8cca8e	-0.0042966073
24	0xbbfc0952	-0.0076915408
25	0x3c294980	0.010332465
26	0xbc48fe5a	-0.012267673
27	0xbc3aed7f	-0.011409163
28	0x3b13f074	0.002257374
29	0xbc4c1293	-0.0124556
30	0x3b600bef	0.00341868
31	0xbc333d69	-0.010939934
32	0x3c1dbd4b	0.0096276505
33	0xbc3b2dab	-0.011424462
34	0x3a8337dd	0.0010011155
35	0x3c3a2847	0.011362142
36	0x39f1dc45	0.00046131216
37	0xbbc1da9f	-0.0059159542
38	0xbc449ffd	-0.012001035
39	0xbc3cc55b	-0.011521663
40	0x3b9977e6	0.0046834825
41	0xbc366683	-0.011132839
42	0x3bb750c1	0.0055943434
43	0xbc2b3c0f	-0.010451331
44	0xbb5aedb6	-0.0033405847
45	0x3c2a297f	0.01038587
46	0x3bd4e48a	0.0064969705
47	0x3a197dc5	0.0005855228
48	0xbc247bcd	-0.010039282
49	0xbb96888c	-0.0045939144
50	0x3b6911ac	0.0035563512
51	0x3a54cd12	0.0008117716
52	0x3ab2a781	0.0013630242
53	0x3b870915	0.0041209557
54	0xbbac91ff	-0.0052664275
55	0x37b0b678	2.1065804e-05
56	0xbad55bae	-0.0016277933
57	0x3c432632	0.011910962
58	0x3c1d9e4b	0.0096202595
59	0xbb725a30	-0.0036980025
60	0x3c0b5361	0.008503766
61	0x3b81f821	0.003966347
62	0xba5e7aa5	-0.00084869034
63	0xbc434341	-0.01191789
64	0xbb51655d	-0.0031951286
65	0xbb1b2ddc	-0.0023678457
66	0xbc3e9fd3	-0.011634785
67	0x3bd3e216	0.0064661605
68	0x399a4f54	0.00029432273
69	0xb84afafd	-4.8394304e-05
70	0xbc2acf03	-0.010425332
71	0xbc447a40	-0.011992037
72	0xbc4893f0	-0.012242302
73	0x3bee292d	0.007268092
74	0x3a15c489	0.0005713185
75	0xbc45beb8	-0.012069397
76	0x3bf10c3a	0.007356194
77	0x3c34f0a0	0.011043698
78	0xbc3b0663	-0.011415097
79	0xba2c4f64	-0.00065731094
80	0xbc0cf2ed	-0.00860284
81	0xbc2cda76	-0.010550132
82	0xbbacd82d	-0.0052747936
83	0xbbcdee64	-0.006284522
84	0x3c16102e	0.009159131
85	0xbad5e0f0	-0.0016317647
86	0xbb8b6715	-0.0042542317
87	0xbb26b232	-0.0025435803
88	0xbb01cc69	-0.0019805676
89	0xbc5aac39	-0.013346725
90	0x3c379930	0.011205956
91	0xba300f42	-0.0006716141
92	0x3c31d477	0.010853878
93	0xba6c61da	-0.00090172666
94	0xbafeab72	-0.0019429757
95	0x3a9dca40	0.0012038425
96	0x3ac61b4f	0.001511434
97	0x3ae7e336	0.0017691616
98	0xbc24aa61	-0.010050387
99	0xbaac25fa	-0.0013133876
100	0x3c0e62e7	0.008690572
101	0xbc450240	-0.012024462
102	0xbb559128	-0.003258774
103	0x3ac3f7ca	0.0014951166
104	0x3c3debd4	0.01159187
105	0x3c37d710	0.0112207085
106	0xbb011d33	-0.0019701242
107	0xbb7c53a4	-0.0038502002
108	0x3c3e4494	0.01161303
109	0x3c054c7f	0.008135914
110	0x3b27b947	0.0025592612
111	0xbc4b3760	-0.012403339
112	0x3b0f6d0f	0.0021885072
113	0xbc1ad27f	-0.0094496
114	0xbbdd6925	-0.006756919
115	0xbc1cd628	-0.009572543
116	0x3b04ed72	0.002028313
117	0x3c004f3a	0.007831389
118	0xbb2b0851	-0.0026097486
119	0xbb04a89c	-0.00202421
120	0x3a3e7eb7	0.0007266807
121	0x39cd381d	0.00039142455
122	0xba88d03b	-0.0010438034
123	0x3a15a49d	0.0005708428
124	0x3c32cc86	0.01091302
125	0x3b10c517	0.002209013
126	0xbc1fedd7	-0.009761295
127	0xbc570d20	-0.013125688

action_model._continuous_distribution.log_sigma f4 [1, 2]
0	0x3c0fb232	0.008770512
1	0x35a73e80	1.246066e-06

action_model._continuous_distribution.mu.weight f4 [2, 128]
0	0xbc2d4b62	-0.010577055
1	0xbba5eb27	-0.0050634327
2	0xbae473a2	-0.0017429481
3	0xbb91890a	-0.004441385
4	0x3c7774e1	0.01510355
5	0xbcaf9d93	-0.021437442
6	0x3bc9df3d	0.0061606453
7	0x3c4cdbb2	0.012503551
8	0xbd3fbcf0	-0.046811044
9	0x3bae6f31	0.0053233136
10	0x3c852c7e	0.016256567
11	0x39ae962b	0.0003329975
12	0xbba4122e	-0.00500705
13	0xbc1168a3	-0.008875045
14	0x3ba763fb	0.005108354
15	0xbcb76dd1	-0.022391232
16	0xbbb39212	-0.0054800594
17	0xbd167f31	-0.036742393
18	0x3c2c943a	0.010533387
19	0xbce36d1f	-0.027761994
20	0x3a7a68fc	0.0009552387
21	0x3d16a558	0.036778778
22	0x3b93ee75	0.0045145103
23	0x3cc23d68	0.023710921
24	0xbd08682a	-0.033302464
25	0xbcccda21	-0.025006356
26	0xbb3279b2	-0.002723318
27	0x3bf8944c	0.0075860377
28	0x3c0adf13	0.008476037
29	0x3be6739c	0.0070328247
30	0xbbf31159	-0.0074178395
31	0xbcdaaaf0	-0.026692837
32	0x3c676d38	0.014125161
33	0xbbd0713b	-0.0063611544
34	0xbd227b9b	-0.03966866
35	0xbb3568b1	-0.002768081
36	0x3c08b0c9	0.00834293
37	0xbbef3d05	-0.0073009753
38	0xbabc54e2	-0.0014368559
39	0x3c14fcc1	0.009093464
40	0xbc1e7e46	-0.009673661
41	0xbb9354fb	-0.0044962144
42	0xbd09ac74	-0.03361173
43	0xbcc53996	-0.02407531
44	0xba98cc4e	-0.0011657567
45	0xbc922066	-0.017837714
46	0xbcd35c8d	-0.025800968
47	0x3b8adba7	0.0042376104
48	0xbc2c86a5	-0.010530149
49	0x3c548ff9	0.012973779
50	0x3c2436fc	0.010022875
51	0xbbad6720	-0.0052918345
52	0xbb14a3ee	-0.0022680718
53	0xbbbfd69a	-0.00585444
54	0x3cd8f745	0.026485095
55	0xbc0de9a1	-0.0086616585
56	0x3c127e73	0.008941281
57	0xbc0bf0df	-0.008541315
58	0x3c810e0d	0.01575377
59	0x3ccda9e2	0.02510542
60	0x3c723be6	0.014784789
61	0x3b889d9a	0.004169178
62	0xbc9be866	-0.019031715
63	0xb9e032ee	-0.00042762555
64	0x3cab3976	0.020901423
65	0x3d1de9d4	0.038553074
66	0xbbd82d2f	-0.006597183
67	0x3c8c910b	0.017159006
68	0xb8a0a05c	-7.659264e-05
69	0xbc8786ad	-0.01654371
70	0xbd1c24db	-0.038121086
71	0x3c09e424	0.008416209
72	0x3b4e0cb4	0.0031440677
73	0x3c92236c	0.017839156
74	0xbcb3f59f	-0.021967707
75	0xbb199c8c	-0.0023439256
76	0xbc913882	-0.01772714
77	0xbb45e77b	-0.0030197788
78	0x3c84572e	0.016154852
79	0xbc8fc2a5	-0.017548868
80	0xbd0a416f	-0.03375381
81	0xbc6ddb05	-0.01451755
82	0xbbb70140	-0.005584866
83	0x3c7ded53	0.015498477
84	0x3c2b9813	0.010473269
85	0x3b21581e	0.0024619172
86	0x3b3b3112	0.0028563184
87	0x3c9d5a03	0.01920796
88	0x3c980d3a	0.018560994
89	0x3bad1437	0.005281951
90	0xbba43746	-0.005011472
91	0x3c91dc03	0.017805105
92	0x3b39a888	0.0028329212
93	0xbc9e5c07	-0.019330991
94	0x3ca4bdb8	0.020109996
95	0x3bbdbb70	0.0057901666
96	0x3c7e67ce	0.015527679
97	0xbce68f60	-0.028144538
98	0xbc827192	-0.015923295
99	0xbc0556a2	-0.008138331
100	0x3cd3f742	0.025874738
101	0x393a81c7	0.00017786688
102	0x3d02e989	0.031960998
103	0x3c00434e	0.007828547
104	0xbc4d46ba	-0.01252907
105	0xbc4cfbb5	-0.0125111835
106	0x3c226f33	0.009914207
107	0xbba9a2c6	-0.005176875
108	0xbc6c59ad	-0.014425677
109	0x3c11af74	0.008891929
110	0xbcdd102d	-0.026985252
111	0xba4b70d9	-0.0007760651
112	0xbca9f54b	-0.020746848
113	0xbce84e55	-0.028357664
114	0xbbbb7b65	-0.005721497
115	0xbbfd6564	-0.007733034
116	0xbba0769b	-0.0048969514
117	0x3c5e0234	0.01355033
118	0xbcec3ae5	-0.028836677
119	0xbc8fb61e	-0.017542895
120	0xbd1ef765	-0.038810153
121	0xbc414936	-0.01179724
122	0x3b7ff753	0.0039057329
123	0xba3940ac	-0.0007066827
124	0x3b47d3de	0.0030491273
125	0xbce54ffc	-0.027992241
126	0xbcaec544	-0.021334298
127	0x3ba89b7d	0.005145489
128	0x3bb665a7	0.005566317
129	0x3babcd10	0.005242951
130	0x3bc5d310	0.0060371235
131	0xbcb8dda5	-0.022566626
132	0xbc9d9784	-0.019237287
133	0x3cceba3f	0.025235293
134	0x3c6f1153	0.014591533
135	0x3c0efcfd	0.008727309
136	0xbbc1ebd8	-0.0059180073
137	0x394ba5f5	0.00019421412
138	0xba334929	-0.000683921
139	0x3bce0c02	0.0062880525
140	0x3c402979	0.011728638
141	0x3cb072d5	0.021539131
142	0x3c15bbeb	0.009139041
143	0x3b4a17b3	0.003083688
144	0xbbae26d7	-0.0053146887
145	0xbacc6810	-0.0015594978
146	0x3c40ab1f	0.011759548
147	0xbb35763f	-0.0027688888
148	0xbc15d811	-0.0091457525
149	0x3c9c3bcb	0.01907148
150	0xbc8a292c	-0.016865335
151	0xbc44ee57	-0.012019715
152	0xba81fda4	-0.000991751
153	0x3d22b12a	0.039719738
154	0xba7b299e	-0.00095810916
155	0xbd68f7fb	-0.056877118
156	0xb8d215ea	-0.00010017662
157	0xbc8762ca	-0.016526598
158	0x3be9bdc0	0.0071332157
159	0xbd54154f	-0.051778134
160	0x3bc8b0fd	0.0061246143
161	0xbd076537	-0.03305551
162	0xbca8cea8	-0.020606354
163	0x3c81080d	0.01575091
164	0xbcb01265	-0.021493146
165	0xbbb7b3d9	-0.0056061563
166	0xbc8cf9fd	-0.017209047
167	0xbc938529	-0.018007832
168	0x3c7a61c0	0.0152820945
169	0xbc6cfa1c	-0.014463928
170	0x3d03d757	0.032187786
171	0xbd0cc994	-0.034371927
172	0xbba27770	-0.0049580857
173	0x3cf214bd	0.029550904
174	0x3c9418d2	0.018078241
175	0x3c06ee31	0.0082355
176	0xbaacd93a	-0.0013187297
177	0xbbef6540	-0.007305771
178	0x39cef481	0.0003947355
179	0xbb660636	-0.0035098917
180	0xbb0ac188	-0.0021172483
181	0x3cb907bc	0.022586696
182	0xbcaac0e5	-0.020843932
183	0x3ca6c269	0.020356374
184	0x3af38550	0.0018579159
185	0x3d07f3d7	0.03319153
186	0x3c889a6e	0.0166752
187	0xbc8ca075	-0.017166356
188	0x3c4e0cc1	0.012576283
189	0x3b3b71bb	0.0028601724
190	0xbc99be11	-0.018767389
191	0xbc9d4b09	-0.019200819
192	0x3c1b5418	0.009480499
193	0xbbca283c	-0.006169347
194	0xbccbbcb6	-0.024870258
195	0x3c08cd72	0.008349763
196	0x3b4c38c8	0.0031161774
197	0xbc4ea213	-0.012611884
198	0xbd034b93	-0.032054495
199	0xbc375fa7	-0.011192239
200	0xbc9c8139	-0.019104587
201	0x3c177dff	0.009246348
202	0xbcc3beb7	-0.02389465
203	0xbccb4c6f	-0.02481672
204	0x3ca382ae	0.019959774
205	0x3c842931	0.016132923
206	0xbd5428cf	-0.05179673
207	0xbc9c8896	-0.019108098
208	0x3b100174	0.0021973522
209	0xbd0513f5	-0.032489736
210	0xbc47bd5a	-0.012191141
211	0xbc266539	-0.010155969
212	0x3c901755	0.01758925
213	0x3b9a1ed6	0.004703383
214	0xbc5d45f6	-0.0135054495
215	0xbc25cf8e	-0.010120286
216	0xbd41771a	-0.047232725
217	0xbc15471c	-0.009111192
218	0x3d125575	0.03572603
219	0xbc68354a	-0.014172861
220	0x3cebc496	0.028780263
221	0x3c61d1dd	0.013782945
222	0x3c8a85a2	0.016909424
223	0x3ca8539d	0.020547682
224	0xbb950a8a	-0.0045483755
225	0xbc9c6a6a	-0.01909371
226	0xbca21b71	-0.019788476
227	0xbbcb6ef8	-0.006208297
228	0x3d1099a3	0.03530277
229	0xbd3c09f7	-0.04590794
230	0xbcd61756	-0.026134174
231	0x3d12512e	0.03572195
232	0x3cdd52bc	0.02701699
233	0x3c8df11c	0.017326884
234	0xbbb7f827	-0.005614299
235	0x3bcf8c67	0.006333876
236	0x3d3b96da	0.04579816
237	0x3c3480be	0.011017023
238	0xbbcd56a3	-0.0062664314
239	0xbcf0a99a	-0.029377747
240	0x3c870861	0.016483488
241	0xbcf25f42	-0.029586438
242	0xbc847317	-0.01616816
243	0x39a24193	0.00030947904
244	0x3bbbe501	0.0057340865
245	0x3c138979	0.009004944
246	0x3c47f319	0.012203955
247	0xbc902333	-0.01759491
248	0xbc222349	-0.009896108
249	0xbcf51906	-0.029919159
250	0xbc661478	-0.014042966
251	0x3c53187d	0.012884256
252	0x3cac8579	0.021059738
253	0x3ccbc7a0	0.024875462
254	0xbcba14cd	-0.022714997
255	0xbc3c83f2	-0.011506068

action_model._continuous_distribution.mu.bias f4 [2]
0	0x3bd07bb9	0.006362405
1	0x3c3903cf	0.011292412

action_model._discrete_distribution.branches.0.weight f4 [1, 128]
0	0xbbc4fce1	-0.006011591
1	0x3c34385d	0.010999766
2	0x3a7de405	0.00096851616
3	0x3b3811f4	0.0028086873
4	0xbbc12f50	-0.0058955327
5	0x39f0b168	0.00045908545
6	0x3bad2020	0.0052833706
7	0x3b5bbc9b	0.0033529166
8	0xbac97983	-0.0015371296
9	0x3b6ca07d	0.00361064
10	0xba76ab5a	-0.00094096886
11	0xb9377fc0	-0.0001749983
12	0xbb4a62ce	-0.0030881646
13	0xbc28240f	-0.010262503
14	0x3b671f18	0.0035266336
15	0x3c00bab2	0.007857012
16	0x3c1e92ed	0.0096785845
17	0x3c0604c9	0.008179852
18	0x3ab6eedc	0.0013956684
19	0xbb3e8ab1	-0.0029074366
20	0x3c4d2cb7	0.012522868
21	0x3c1d4f0b	0.009601365
22	0x3b4dd228	0.003140578
23	0x3ab8dffe	0.0014104841
24	0x3c0c1fbd	0.008552489
25	0x3b1f326c	0.0024291528
26	0x3c38d9a7	0.011282361
27	0x3b83a92c	0.0040179696
28	0x3a044648	0.0005045873
29	0xbc06f515	-0.008237143
30	0x3ba442a7	0.0050128284
31	0x3c82f0e1	0.015984
32	0x3c130c01	0.00897503
33	0x3c0979b7	0.0083908355
34	0x39d5f780	0.00040810928
35	0x3b7054cb	0.0036671634
36	0xba9c6c18	-0.001193407
37	0xbb5f9db0	-0.0034121089
38	0xb8be1b52	-9.064995e-05
39	0xbb992632	-0.0046737427
40	0x3b557d25	0.0032575813
41	0xbbccb7e7	-0.006247509
42	0xbc239307	-0.0099837845
43	0xbb4cf15d	-0.0031271793
44	0xbc4091b7	-0.011753491
45	0x3b957c83	0.004561962
46	0xbb925669	-0.0044658673
47	0x3b9740fe	0.004615902
48	0xbb60157f	-0.00341925
49	0x3b16cab3	0.0023009002
50	0x3c4e2b0b	0.012583504
51	0x3b35b08b	0.0027723636
52	0x3c44ceff	0.012012242
53	0xbbdeddc8	-0.0068013407
54	0x3bbc12ad	0.005739531
55	0x3b38a155	0.0028172333
56	0xba923453	-0.001115451
57	0x3b11cb67	0.0022246481
58	0x3a72de22	0.0009264668
59	0x3b273923	0.0025516234
60	0xbb35cac3	-0.0027739264
61	0xbc403abc	-0.011732753
62	0x3c0fcd05	0.008776908
63	0x3b923c37	0.0044627446
64	0x392d0cb7	0.00016503302
65	0xbb2402a9	-0.0025026
66	0xbbb9a70a	-0.0056656646
67	0xbc7153b3	-0.014729428
68	0x3c36f379	0.011166447
69	0xba913e1a	-0.001108113
70	0xbb9d0d6f	-0.004792861
71	0xbb9ec44e	-0.0048451787
72	0xbbabb764	-0.0052403677
73	0x3c996920	0.018726885
74	0xbc28f769	-0.010312893
75	0x3c148d6d	0.009066922
76	0xbc318b2f	-0.010836407
77	0x3b3ed9a6	0.0029121428
78	0xbbec9d62	-0.00722091
79	0xbb57efe8	-0.0032949392
80	0xbc5e7cea	-0.0135795865
81	0x3bb3b187	0.0054838094
82	0x3c77bbe0	0.0151204765
83	0xbb105fd7	-0.0022029781
84	0xbbd274c2	-0.00642261
85	0x3c3eeb7c	0.011652824
86	0x3bc29e77	0.0059393006
87	0xbbe7bd20	-0.007072106
88	0xbab3db9e	-0.0013722067
89	0x3b6b499d	0.0035902031
90	0xbbf5d2f7	-0.0075019556
91	0x3c35445c	0.011063661
92	0xbc26726c	-0.010159116
93	0x3c7466e0	0.014917105
94	0xbc12143d	-0.008915958
95	0xbb54079f	-0.0032353175
96	0xba47b483	-0.0007618146
97	0x3baca709	0.0052689356
98	0xbc03a248	-0.008034296
99	0xbc084188	-0.008316405
100	0x3c0b38c2	0.008497419
101	0xbc47cc05	-0.012194638
102	0xba8bf2f9	-0.001067727
103	0x3b3153cd	0.0027058006
104	0xb9746258	-0.00023306289
105	0xbc0872bd	-0.008328137
106	0xbba2d082	-0.0049687037
107	0x3b5aec7b	0.0033405113
108	0x3afdfaed	0.001937715
109	0x3c680960	0.014162391
110	0x3a97c476	0.0011578936
111	0xbbaf4022	-0.0053482214
112	0x3c1d1f93	0.009590047
113	0xbb7dd0d0	-0.0038729198
114	0x3b8ccacc	0.004296636
115	0xbb6086ea	-0.0034260103
116	0xbb3ee642	-0.0029128944
117	0x39e45648	0.00043551833
118	0xbca11d01	-0.01966715
119	0xbc4cd558	-0.012502037
120	0x3b1a2e23	0.0023526035
121	0x3c500e70	0.012698755
122	0xbc5cd382	-0.013478162
123	0x3adb133a	0.0016714104
124	0xbbc64a36	-0.006051327
125	0xb995d63e	-0.00028579117
126	0x3c435543	0.011922183
127	0x39246d93	0.00015681078

exp_avg f4 [128, 6]
0	0x347b6c80	2.3415669e-07
1	0x358f1d6c	1.0662893e-06
2	0xb74c59b5	-1.2180234e-05
3	0x3786c484	1.6065555e-05
4	0x35b28f92	1.3303818e-06
5	0xb6113924	-2.1639944e-06
6	0xb544b46c	-7.327824e-07
7	0x33c74a95	9.280226e-08
8	0xb5cdaa0e	-1.5323183e-06
9	0x356758a8	8.618322e-07
10	0x33d382e9	9.8492656e-08
11	0x33e99f5a	1.0878894e-07
12	0xb7a94130	-2.0176725e-05
13	0x3e0043fa	0.12525931
14	0x3728f718	1.0071111e-05
15	0x37340ace	1.0731352e-05
16	0x355a5b7c	8.1344456e-07
17	0x359516ba	1.1107979e-06
18	0xb57fecd4	-9.5339533e-07
19	0xb4599e47	-2.0267281e-07
20	0x367ddf14	3.7829786e-06
21	0xb65f0e80	-3.323803e-06
22	0xb4842d5a	-2.4619914e-07
23	0x353a531f	6.9411357e-07
24	0x3690f188	4.3196524e-06
25	0xbe00d221	-0.12580158
26	0xb43d9d00	-1.7659113e-07
27	0x35ed7128	1.7690809e-06
28	0x34d724ce	4.007365e-07
29	0x34c23c30	3.6179108e-07
30	0xb52a80a3	-6.3517126e-07
31	0x35d014e0	1.5503283e-06
32	0xb771d069	-1.4413244e-05
33	0x37e977d2	2.783156e-05
34	0x360d9af8	2.110084e-06
35	0xb6b458e8	-5.374768e-06
36	0xb677ea97	-3.6942417e-06
37	0xbd4fd43d	-0.050739516
38	0x37fb453f	2.9953777e-05
39	0xb81137bd	-3.4622604e-05
40	0xb63079a7	-2.6296855e-06
41	0x36cfe818	6.1961e-06
42	0x37002e1d	7.640131e-06
43	0x359f1a80	1.1854136e-06
44	0xb7c65e47	-2.364734e-05
45	0x378b4045	1.6600019e-05
46	0x35bf003e	1.4230679e-06
47	0xb5f7fbda	-1.8476233e-06
48	0xb6066a24	-2.0029338e-06
49	0x35f4d247	1.8240615e-06
50	0xb782fb77	-1.5614305e-05
51	0x37df3c5e	2.6611782e-05
52	0x3612997e	2.184504e-06
53	0xb67ae556	-3.7386394e-06
54	0x379cfddc	1.8714862e-05
55	0x361bcf5a	2.3217494e-06
56	0xb827d564	-4.001464e-05
57	0x38077664	3.2296768e-05
58	0x36380c4e	2.74253e-06
59	0xb67c0024	-3.7551008e-06
60	0xb6db67ee	-6.5388076e-06
61	0xb5806388	-9.565711e-07
62	0x37a6b473	1.987277e-05
63	0xb76e98a1	-1.4221442e-05
64	0xb598bf4c	-1.1380557e-06
65	0x3615f454	2.2344948e-06
66	0xb349615c	-4.6887507e-08
67	0xb37d305e	-5.8950143e-08
68	0x34fd1768	4.7141953e-07
69	0xb5c7f0ec	-1.4896773e-06
70	0xb39678d4	-7.006898e-08
71	0x352c0581	6.4083e-07
72	0x33f9b4c0	1.1627844e-07
73	0xb492d663	-2.7350606e-07
74	0x362cb28a	2.573392e-06
75	0xb69a02d2	-4.589886e-06
76	0xb4a6ef34	-3.1093953e-07
77	0x359f036f	1.1847422e-06
78	0xb6b32611	-5.339047e-06
79	0xb5ed4d39	-1.7680351e-06
80	0x350ca6b0	5.2396626e-07
81	0x36e26092	6.746567e-06
82	0x3513f857	5.512315e-07
83	0xb5a0b946	-1.1974851e-06
84	0xb7703136	-1.4316573e-05
85	0x3e0498b6	0.1294888
86	0x379e2782	1.8853465e-05
87	0xb6e028b4	-6.6804587e-06
88	0xb51e7e76	-5.904361e-07
89	0x36729d68	3.6152433e-06
90	0xb7a6f1c0	-1.9901316e-05
91	0x35a64297	1.2387344e-06
92	0x36a94d9d	5.045628e-06
93	0x379c953f	1.8666147e-05
94	0x35c7db3d	1.4890462e-06
95	0xb646270f	-2.9527034e-06
96	0xb70b0a1e	-8.287401e-06
97	0x3659c106	3.2447874e-06
98	0xb7c663a4	-2.3649838e-05
99	0x384b8db2	4.8530936e-05
100	0x3682c028	3.896672e-06
101	0xb6fca988	-7.5299213e-06
102	0x38127051	3.4913715e-05
103	0xb6430eba	-2.9065836e-06
104	0xb5312100	-6.598566e-07
105	0xb863d3dc	-5.4318327e-05
106	0xb69329bf	-4.3858013e-06
107	0x370e195c	8.469764e-06
108	0xb79d71a9	-1.8768786e-05
109	0x3629c64c	2.5298386e-06
110	0xb6ef5b04	-7.1333507e-06
111	0x382b5ea8	4.0857733e-05
112	0x364e9b2c	3.0786714e-06
113	0xb706b592	-8.0292975e-06
114	0x36c872fd	5.973851e-06
115	0x35462000	7.3807314e-07
116	0xb73ee3ca	-1.1377919e-05
117	0x3735aa38	1.0828073e-05
118	0x356ed2f6	8.89689e-07
119	0xb5ca75fe	-1.5084513e-06
120	0xb687bc25	-4.0452164e-06
121	0xbde4c4f6	-0.1117038
122	0x36581def	3.2203932e-06
123	0x360758e8	2.0168318e-06
124	0x31cda900	5.9854983e-09
125	0xb6c192ac	-5.768923e-06
126	0x36ac8101	5.1410175e-06
127	0x3d722468	0.05911675
128	0xb7270c71	-9.956872e-06
129	0x36d921f2	6.4710557e-06
130	0x351199fc	5.4240786e-07
131	0x3557d2ac	8.040031e-07
132	0x355f5d12	8.320941e-07
133	0xbd83f6ae	-0.06443535
134	0x36666e7f	3.4336988e-06
135	0xb705125c	-7.931692e-06
136	0xb50f4a12	-5.337944e-07
137	0x3585ab62	9.959151e-07
138	0xb503c924	-4.9094e-07
139	0x340eee56	1.3311487e-07
140	0xb541c0ad	-7.2178483e-07
141	0x35d81b00	1.6101112e-06
142	0x3424eaec	1.5359154e-07
143	0xb33758c2	-4.2688733e-08
144	0xb6175196	-2.2548243e-06
145	0x3e210e0a	0.15728012
146	0x368c2e1d	4.1776934e-06
147	0xb72ad952	-1.0183388e-05
148	0xb593fe3c	-1.1026345e-06
149	0x3574a928	9.114324e-07
150	0x36c882a2	5.975672e-06
151	0x362833ca	2.5064096e-06
152	0xb8008c35	-3.0648156e-05
153	0x381d9014	3.75659e-05
154	0x364904f1	2.995421e-06
155	0xb6ca493b	-6.0285943e-06
156	0x362a7b74	2.5403833e-06
157	0xb5b0e9c7	-1.318106e-06
158	0x36a40eac	4.889289e-06
159	0xb79fc7a3	-1.904724e-05
160	0xb5c78a04	-1.4866823e-06
161	0x365f6398	3.328756e-06
162	0x35f3cd4c	1.816466e-06
163	0x3dc703c4	0.09717515
164	0xb52ca4b9	-6.4314696e-07
165	0xb708af2f	-8.14702e-06
166	0xb55652dc	-7.984179e-07
167	0x35ce4394	1.5367864e-06
168	0xb7514648	-1.2473734e-05
169	0xb6176c94	-2.2563954e-06
170	0x3812f4b0	3.5036996e-05
171	0xb83732ca	-4.36779e-05
172	0xb663f9b9	-3.3970994e-06
173	0x3700b1eb	7.670819e-06
174	0xb6c93546	-5.9964686e-06
175	0xb591294b	-1.081536e-06
176	0x378e5b00	1.6970094e-05
177	0xb77ef79e	-1.5197233e-05
178	0xb5ade6eb	-1.295671e-06
179	0x35e86934	1.7315965e-06
180	0x34bf7848	3.5664038e-07
181	0xb472537e	-2.256838e-07
182	0x35e8a1b9	1.7332414e-06
183	0xb62b08c2	-2.5486083e-06
184	0xb48db6f0	-2.63964e-07
185	0xb3d5a47a	-9.9485035e-08
186	0xb727c10b	-9.998922e-06
187	0xb6283514	-2.5064846e-06
188	0x380bbbdc	3.331514e-05
189	0xb81bdc07	-3.7159796e-05
190	0xb6437e35	-2.9130726e-06
191	0x36d50490	6.348426e-06
192	0xb60f0d89	-2.131654e-06
193	0x33f3c750	1.1351824e-07
194	0x35703a6c	8.949198e-07
195	0x35e290bc	1.6880435e-06
196	0x34185f9c	1.4190886e-07
197	0xb4712cf0	-2.2461222e-07
198	0xb7d548e4	-2.5425521e-05
199	0x3669e1e4	3.4851191e-06
200	0xb74a3795	-1.2053079e-05
201	0x38608abb	5.3534965e-05
202	0x368cb97c	4.1939184e-06
203	0xb71a5a78	-9.200179e-06
204	0x36421e74	2.8925979e-06
205	0xb4d466e1	-3.956293e-07
206	0x35a11fec	1.2004725e-06
207	0xb6ca3d65	-6.0272164e-06
208	0xb50258d8	-4.855806e-07
209	0x3580d513	9.598756e-07
210	0x37576d42	1.2840437e-05
211	0xb605f219	-1.9959464e-06
212	0x36e10e12	6.7071605e-06
213	0xb8057399	-3.181733e-05
214	0xb620c551	-2.3956711e-06
215	0x36d20050	6.258524e-06
216	0xb7ebcbbb	-2.8109052e-05
217	0x35c09d3e	1.4350878e-06
218	0x37082df1	8.116928e-06
219	0x37c0ad6c	2.296894e-05
220	0x35ea8c78	1.747524e-06
221	0xb6930058	-4.3809814e-06
222	0xb5273ae1	-6.229803e-07
223	0x339fb2da	7.4365474e-08
224	0x343c9f96	1.7566921e-07
225	0x3457b66c	2.00898e-07
226	0x33c05f97	8.9580844e-08
227	0x351d9c6c	5.871468e-07
228	0x340c21e4	1.3050845e-07
229	0xbe09fb32	-0.1347473
230	0x344c5df0	1.9033155e-07
231	0x364cb5f2	3.0504275e-06
232	0x34c17a0d	3.6037855e-07
233	0xb633871e	-2.6751727e-06
234	0x3534fcef	6.742329e-07
235	0x349f0d2b	2.962564e-07
236	0xb5316de0	-6.609753e-07
237	0xb6ab3eda	-5.103514e-06
238	0xb4cffc57	-3.8740356e-07
239	0x3582bfce	9.741577e-07
240	0xb69795b6	-4.5175793e-06
241	0x34196e84	1.4289441e-07
242	0xb67a7664	-3.7321815e-06
243	0x3615a8e8	2.2301047e-06
244	0x34371090	1.7049229e-07
245	0xb4d8fb10	-4.0415807e-07
246	0xb72f1b85	-1.043722e-05
247	0x34c126c7	3.5977266e-07
248	0x364d07ee	3.0551996e-06
249	0x36bd2e7b	5.63805e-06
250	0x34e4fedb	4.265374e-07
251	0xb5936442	-1.0981532e-06
252	0x33b982c0	8.638517e-08
253	0xbbd56411	-0.006512173
254	0x36555d17	3.1793659e-06
255	0xb52950e0	-6.3075095e-07

exp_avg_sq f4 [128, 6]
0	0x2f53644f	1.9225975e-10
1	0x2e2e6326	3.965108e-11
2	0x2fcffb21	3.7831518e-10
3	0x2ff57c19	4.4653417e-10
4	0x2d0d6232	8.036726e-12
5	0x2f7d9802	2.306422e-10
6	0x2f15c2a9	1.3620628e-10
7	0x2ec75a22	9.065483e-11
8	0x2f045f47	1.203918e-10
9	0x2de855e5	2.6413491e-11
10	0x2c46e981	2.8267113e-12
11	0x2f03919f	1.1966116e-10
12	0x30640ace	8.296127e-10
13	0x3f5555a7	0.8333382
14	0x30789699	9.0435887e-10
15	0x319e3eaa	4.6055293e-09
16	0x2e202d12	3.641982e-11
17	0x308c7a37	1.0221076e-09
18	0x2f2e651d	1.586113e-10
19	0x2dc057b6	2.1866824e-11
20	0x2e89ef11	6.2725054e-11
21	0x2eae7e60	7.9350526e-11
22	0x2c024afc	1.8515736e-12
23	0x2e974af5	6.88e-11
24	0x3117387a	2.2005495e-09
25	0x3f3135b8	0.69222593
26	0x2fdd3c36	4.0242448e-10
27	0x2ffaeabd	4.5641527e-10
28	0x2dd0b06e	2.3725213e-11
29	0x2f8abbe8	2.523557e-10
30	0x2ed220ac	9.555498e-11
31	0x305f98a6	8.1343854e-10
32	0x2ff666e4	4.4820248e-10
33	0x3032cbb9	6.504553e-10
34	0x2cd74119	6.117895e-12
35	0x2edfed94	1.0183068e-10
36	0x306de8c0	8.6550855e-10
37	0x3dfc85e3	0.12330224
38	0x30b8febb	1.3460161e-09
39	0x318d1003	4.1054604e-09
40	0x2e4c6c5b	4.648047e-11
41	0x2f7e2664	2.3114805e-10
42	0x2fbcec7c	3.4365033e-10
43	0x2e3a3b85	4.2344368e-11
44	0x306826d9	8.4456314e-10
45	0x313832d5	2.6804419e-09
46	0x2dba69b1	2.1192688e-11
47	0x2f8f1e92	2.603327e-10
48	0x2fcfda57	3.780822e-10
49	0x2d7aef2d	1.4263962e-11
50	0x300b2b55	5.0629484e-10
51	0x2f734b77	2.2127532e-10
52	0x2d41fdc7	1.102713e-11
53	0x2ff0af6d	4.3780393e-10
54	0x30d89667	1.5758815e-09
55	0x2ee9ab29	1.06260174e-10
56	0x319d82cd	4.5841717e-09
57	0x325ad20d	1.273703e-08
58	0x2ee795ce	1.05312745e-10
59	0x30b9d96b	1.3522315e-09
60	0x2f938307	2.6832245e-10
61	0x2d6acc48	1.33467196e-11
62	0x3029d4b4	6.178411e-10
63	0x311be5c5	2.2686077e-09
64	0x2d8fec93	1.6362278e-11
65	0x2f176275	1.3768349e-10
66	0x2f4618dc	1.8016827e-10
67	0x2c7ada4c	3.5648316e-12
68	0x2e74aa69	5.563053e-11
69	0x2e487b53	4.558427e-11
70	0x2cb66555	5.1840012e-12
71	0x2f6115d0	2.047138e-10
72	0x2e911fae	6.599464e-11
73	0x2d02ae33	7.4283244e-12
74	0x2e1447f1	3.37152e-11
75	0x2db46047	2.0506387e-11
76	0x2ba72687	1.1876757e-12
77	0x2e40141f	4.3673617e-11
78	0x2eb76b68	8.340956e-11
79	0x3495770d	2.7840034e-07
80	0x2f36be47	1.6620404e-10
81	0x300c62ca	5.107209e-10
82	0x2d16e5a8	8.577507e-12
83	0x2fa54261	3.006049e-10
84	0x30336559	6.5263844e-10
85	0x3f6307e4	0.88683915
86	0x3045742d	7.183328e-10
87	0x316cb397	3.4444605e-09
88	0x2e0755db	3.07717e-11
89	0x30621dba	8.2260565e-10
90	0x304944f6	7.3221373e-10
91	0x2e16d82a	3.4298044e-11
92	0x309fe47e	1.1633714e-09
93	0x31b89abc	5.372696e-09
94	0x2e189a85	3.469804e-11
95	0x2f2e1559	1.5832792e-10
96	0x301c1427	5.678111e-10
97	0x2f7ce3df	2.3000223e-10
98	0x30eb7a63	1.7133285e-09
99	0x31862aee	3.904794e-09
100	0x2e1831a8	3.4604902e-11
101	0x300c00bd	5.093275e-10
102	0x30c3f2c3	1.4257114e-09
103	0x31c53adf	5.7401475e-09
104	0x318e8d54	4.148811e-09
105	0x325a172c	1.2694539e-08
106	0x2eb79bfe	8.349586e-11
107	0x30120cd8	5.313274e-10
108	0x300f0fa7	5.204534e-10
109	0x2e56b0a5	4.881486e-11
110	0x2f9d071e	2.856319e-10
111	0x30d554f6	1.5521937e-09
112	0x2daa9bb2	1.9395905e-11
113	0x2ff99fdc	4.5406423e-10
114	0x2ef85005	1.12919486e-10
115	0x2cbc90d7	5.359362e-12
116	0x2fe49c8f	4.15842e-10
117	0x304eab24	7.518557e-10
118	0x2cd8d335	6.162538e-12
119	0x2eb132d6	8.0580584e-11
120	0x302e5765	6.3425026e-10
121	0x3f512d36	0.8170961
122	0x2fb268af	3.2452394e-10
123	0x30f031b8	1.7476429e-09
124	0x2e4b88b0	4.627826e-11
125	0x310cdc3b	2.0497868e-09
126	0x2f6e3738	2.1665592e-10
127	0x3e59d464	0.21272427
128	0x2f939e1b	2.6851485e-10
129	0x308db559	1.0310642e-09
130	0x2d65f46b	1.3071415e-11
131	0x2fe09a5d	4.0855044e-10
132	0x2fde24a8	4.040761e-10
133	0x3e3a4bdf	0.18193005
134	0x2f252809	1.5020886e-10
135	0x2fa20e27	2.9477684e-10
136	0x2d09d626	7.835099e-12
137	0x2e9d9fea	7.16794e-11
138	0x2da86980	1.914624e-11
139	0x2c718b24	3.4325398e-12
140	0x2d214f5d	9.169413e-12
141	0x2d4dcb34	1.1698021e-11
142	0x2b713526	8.569416e-13
143	0x2e2c59e4	3.918811e-11
144	0x31918d06	4.236088e-09
145	0x3f8bbb41	1.091652
146	0x30889346	9.93716e-10
147	0x302ec2c7	6.3577626e-10
148	0x2e72cb06	5.520475e-11
149	0x30a49a46	1.1976418e-09
150	0x30319212	6.4599803e-10
151	0x2e09e867	3.135661e-11
152	0x312498ed	2.395207e-09
153	0x31d67798	6.241816e-09
154	0x2e42c9ae	4.428962e-11
155	0x2fc0388f	3.4964784e-10
156	0x2fb5b41a	3.3051678e-10
157	0x2f82b987	2.3778687e-10
158	0x30da785f	1.5895799e-09
159	0x316c8e7f	3.442352e-09
160	0x2dc9f9c4	2.2961973e-11
161	0x2f10bb3f	1.3163247e-10
162	0x30879385	9.86447e-10
163	0x3ed48f35	0.41515508
164	0x2ebcefda	8.5918564e-11
165	0x2fc4033c	3.565449e-10
166	0x2d252c6b	9.389027e-12
167	0x2ebde827	8.6359635e-11
168	0x30eb16a9	1.7104941e-09
169	0x319adb45	4.506918e-09
170	0x31afa346	5.1117324e-09
171	0x3259d5f1	1.2679707e-08
172	0x2ee62a6e	1.0466726e-10
173	0x30c06890	1.3999557e-09
174	0x2f016f5b	1.1772043e-10
175	0x2ce9d58a	6.645966e-12
176	0x2ff1fc6d	4.4017004e-10
177	0x30a91b16	1.2304067e-09
178	0x2d1ec103	9.024117e-12
179	0x2eaaf21b	7.7737115e-11
180	0x2fbb9cb9	3.412646e-10
181	0x2d35bfb5	1.0331226e-11
182	0x2f28f53b	1.5366634e-10
183	0x2ea54d75	7.5170904e-11
184	0x2d2a6cd1	9.687543e-12
185	0x2fe397b4	4.139885e-10
186	0x3091d5a8	1.0610863e-09
187	0x2f12b4c5	1.3342845e-10
188	0x3162994e	3.2974472e-09
189	0x3229a33e	9.874212e-09
190	0x2e998ab0	6.98227e-11
191	0x30123e2d	5.320285e-10
192	0x2dfe06b3	2.8879432e-11
193	0x2c8cdea4	4.0037574e-12
194	0x2e211641	3.6626927e-11
195	0x2f0396c0	1.1967938e-10
196	0x2b782d4e	8.817017e-13
197	0x2d6e9533	1.3561863e-11
198	0x300cc867	5.121649e-10
199	0x2dd1a251	2.3832632e-11
200	0x2f265b60	1.5130075e-10
201	0x30b66e09	1.3273517e-09
202	0x2d5f3657	1.2688148e-11
203	0x2f7b956f	2.2881406e-10
204	0x2d3b9cf8	1.0664573e-11
205	0x2cdd5f61	6.291787e-12
206	0x2d1cee0d	8.920431e-12
207	0x2de0dcc9	2.55639e-11
208	0x2a91ce4d	2.5900324e-13
209	0x2d537692	1.2020289e-11
210	0x2f95436e	2.7150854e-10
211	0x2df0771d	2.7337738e-11
212	0x2fcdfef4	3.7470438e-10
213	0x309b9408	1.1319807e-09
214	0x2d80624c	1.4595568e-11
215	0x2fc0500f	3.4981482e-10
216	0x309e18ed	1.1503097e-09
217	0x2f04d27a	1.2080106e-10
218	0x311b482b	2.2596491e-09
219	0x3202a239	7.603881e-09
220	0x2e759324	5.5837238e-11
221	0x300a3958	5.02856e-10
222	0x2e8fa10f	6.531497e-11
223	0x2c71ff6a	3.4389943e-12
224	0x2e167ede	3.4218732e-11
225	0x2dcd405c	2.3334383e-11
226	0x2c5871a5	3.0758532e-12
227	0x2f0f1827	1.3014355e-10
228	0x305204d2	7.6404405e-10
229	0x3f5614a1	0.8362523
230	0x2f24f314	1.5002072e-10
231	0x2f9cc609	2.8516947e-10
232	0x2d0c1cea	7.964499e-12
233	0x302de2ac	6.3259153e-10
234	0x2e86076f	6.094935e-11
235	0x31e6b123	6.714019e-09
236	0x2f643d87	2.0758338e-10
237	0x2e42737d	4.4213067e-11
238	0x2c5604bb	3.0413855e-12
239	0x2f0c0556	1.2734822e-10
240	0x2fac47b0	3.1337555e-10
241	0x2e1d6ef3	3.579621e-11
242	0x3078c31e	9.049915e-10
243	0x311ac3fd	2.2521356e-09
244	0x2d905160	1.6407042e-11
245	0x2f20920a	1.4603799e-10
246	0x300e845c	5.1847393e-10
247	0x2dbc37d6	2.1397922e-11
248	0x303f730e	6.96489e-10
249	0x311e606a	2.304683e-09
250	0x2dbba498	2.1332533e-11
251	0x2fbfc624	3.4883485e-10
252	0x306fce3e	8.724078e-10
253	0x3d5bb709	0.053641353
254	0x2f83302b	2.3862987e-10
255	0x308e1a0e	1.0339265e-09

exp_avg f4 [128]
0	0x3694ccfc	4.434607e-06
1	0x34b0426c	3.2830883e-07
2	0x3635f6ee	2.7114834e-06
3	0xb55c4b94	-8.206637e-07
4	0x35b34954	1.335788e-06
5	0x36ec024d	7.033616e-06
6	0xb7131006	-8.7656135e-06
7	0x369f2ae2	4.7435615e-06
8	0x36f45526	7.2816792e-06
9	0x37195fa1	9.141776e-06
10	0xb67e942a	-3.7935192e-06
11	0xb47ac95e	-2.3356321e-07
12	0xb58b1cac	-1.0364652e-06
13	0x35f69df2	1.8374396e-06
14	0xb6041408	-1.9681192e-06
15	0x36a68c0c	4.963489e-06
16	0x3759eae9	1.2988902e-05
17	0xb775459e	-1.4619347e-05
18	0x372c2bf7	1.0262235e-05
19	0x36470524	2.9656303e-06
20	0x32ab61e0	1.9951528e-08
21	0x35f2ab60	1.8080282e-06
22	0xb5eed0c4	-1.7793141e-06
23	0x35096e6f	5.119718e-07
24	0xb676a7b6	-3.6754477e-06
25	0x3727841c	9.984735e-06
26	0xb6a64853	-4.955605e-06
27	0xb6329a5c	-2.6613916e-06
28	0xb73dfac5	-1.1323665e-05
29	0xb690eb16	-4.318902e-06
30	0xb56c30e4	-8.7987996e-07
31	0xb722e92a	-9.71024e-06
32	0x34fdf4ac	4.7302944e-07
33	0x376a8a7a	1.39797285e-05
34	0xb5d93ec0	-1.6186023e-06
35	0xb705f9c6	-7.985573e-06
36	0x36c3750e	5.82508e-06
37	0x34a04fa8	2.986028e-07
38	0x35a13b04	1.2012611e-06
39	0xb5ad5246	-1.2913449e-06
40	0x35188ddc	5.6830845e-07
41	0x35bed45a	1.4217906e-06
42	0x34e3c740	4.2427018e-07
43	0xb5ae3785	-1.2980169e-06
44	0xb59cf433	-1.1693977e-06
45	0x374e8825	1.2310255e-05
46	0xb2ae28d0	-2.0274825e-08
47	0x36d810c8	6.4392552e-06
48	0x36b95c9c	5.524211e-06
49	0xb6d82c1a	-6.4424357e-06
50	0x365734b2	3.206817e-06
51	0x359f6552	1.1875911e-06
52	0x36074c68	2.0161042e-06
53	0xb57849a0	-9.249434e-07
54	0xb3fc7f40	-1.1757811e-07
55	0x351fe748	5.9568674e-07
56	0x37c5feaf	2.3602826e-05
57	0x33ef98a7	1.1157072e-07
58	0x36894d4c	4.0919167e-06
59	0x35079f8e	5.05236e-07
60	0xb3d8ba2e	-1.009215e-07
61	0xb77b2a65	-1.4970637e-05
62	0x36885799	4.0633136e-06
63	0xb68b5748	-4.1526837e-06
64	0x3760db04	1.3402434e-05
65	0x37329066	1.0643247e-05
66	0xb746088e	-1.18037115e-05
67	0xb60df5a2	-2.1153614e-06
68	0xb6862dd3	-3.998846e-06
69	0xb597fd8e	-1.1324171e-06
70	0x358a893a	1.0321739e-06
71	0xb68c4467	-4.180288e-06
72	0xb60118f6	-1.9237027e-06
73	0x3747227a	1.18693515e-05
74	0x34f2cfb4	4.5227137e-07
75	0xb54d149b	-7.6398436e-07
76	0x3517ae5c	5.650561e-07
77	0x3705c6c7	7.973699e-06
78	0x36572e90	3.20646e-06
79	0x369da58b	4.6982364e-06
80	0xb72629c9	-9.9041e-06
81	0x36fd7a2b	7.55421e-06
82	0x37039746	7.84343e-06
83	0x373b60b2	1.1168582e-05
84	0x379ae865	1.8466448e-05
85	0x369adc71	4.6152204e-06
86	0x368ce60a	4.199105e-06
87	0x372bf292	1.0248872e-05
88	0xb4ab80d8	-3.1944978e-07
89	0x35de2ea7	1.6553867e-06
90	0xb5924ca5	-1.0900154e-06
91	0x35192337	5.7048186e-07
92	0xb61dcbf4	-2.351354e-06
93	0x3695f4d6	4.4690487e-06
94	0xb53dfb30	-7.077351e-07
95	0xb5a68fb8	-1.2409791e-06
96	0xb51e3f36	-5.895157e-07
97	0x36b6f348	5.4523443e-06
98	0xb5f5b0f0	-1.8305418e-06
99	0xb61184c1	-2.1683957e-06
100	0xb47c8480	-2.3517532e-07
101	0xb40d449e	-1.3156611e-07
102	0xb671b260	-3.6015626e-06
103	0x3714a8f4	8.860825e-06
104	0xb5e45f4a	-1.7015057e-06
105	0x36515ec8	3.1198597e-06
106	0xb5177d25	-5.643399e-07
107	0xb589073b	-1.02094e-06
108	0x369a3436	4.595636e-06
109	0xb688a0b0	-4.0718223e-06
110	0xb609672c	-2.0474645e-06
111	0x3665bc74	3.4233353e-06
112	0x36366333	2.7177855e-06
113	0xb7161090	-8.944553e-06
114	0xb5f323ac	-1.8115293e-06
115	0x370e632c	8.48695e-06
116	0xb65a9467	-3.2570913e-06
117	0xb7398e6a	-1.1060018e-05
118	0xb68f5850	-4.272013e-06
119	0xb6a6b7ea	-4.968596e-06
120	0xb3aa717c	-7.9368846e-08
121	0x36003701	1.9105503e-06
122	0x364b193e	3.026405e-06
123	0x35ebb3b7	1.7561168e-06
124	0x36babc5a	5.565159e-06
125	0x368a2422	4.116927e-06
126	0xb5bcaa4c	-1.4056654e-06
127	0x34fee279	4.7475967e-07
