actualgame/results/NewLocomotionRun3/Agent Controller/checkpoint.pt (torch, 445410 bytes, 39 tensors)

network_body._body_endoder.seq_layers.0.weight f4 [128, 6]
0	0xbedaf9bc	-0.42768657
1	0x3dd6fa8e	0.10497008
2	0xbd124b1a	-0.035716154
3	0x3ef34004	0.47509778
4	0xbb97a777	-0.0046281177
5	0x3ecefd8e	0.40427822
6	0xbea1c746	-0.31597346
7	0xbed78250	-0.42091608
8	0xbd7e7e8e	-0.06213241
9	0x3f17b1ba	0.59255564
10	0x3f03430e	0.5127419
11	0x3c18d33a	0.009327704
12	0x3e7f982a	0.2496039
13	0xbe22e950	-0.15909314
14	0xbd2512d4	-0.04030116
15	0xb9f6c4c3	-0.00047067375
16	0x3deb1006	0.114776656
17	0xbf04e584	-0.51912713
18	0x3e34cf84	0.17657286
19	0x3f104e8c	0.56369853
20	0xbe578803	-0.21047978
21	0xbd150252	-0.036379166
22	0xbe4749ed	-0.19461794
23	0x3d5de98f	0.054177817
24	0xbecbb0d8	-0.3978336
25	0xbe122c94	-0.14274818
26	0xbdf3e778	-0.119093835
27	0x3e105af6	0.14097199
28	0x3e245488	0.16047871
29	0x3e196206	0.14978799
30	0xbd95ea6f	-0.07320105
31	0x3f5189eb	0.8185107
32	0xbf67724e	-0.9040879
33	0x3e05c0ac	0.1306178
34	0x3f3b2f76	0.73119295
35	0xbeab1e08	-0.3342135
36	0x3e075585	0.13216217
37	0xbc034370	-0.008011684
38	0xbe472268	-0.19446719
39	0x3e356377	0.17713724
40	0x3f5a2549	0.8521314
41	0xbf39d430	-0.725894
42	0xbe474e48	-0.19463456
43	0x3e91cebc	0.28478038
44	0x3e8df509	0.2772601
45	0xbe2431ce	-0.16034624
46	0xbf27b837	-0.65515465
47	0x3e2a1fa0	0.16613626
48	0x3e9ee315	0.31032625
49	0xbcbd3990	-0.023098737
50	0x3d57b3e9	0.05266181
51	0xbeb80f79	-0.35949305
52	0xbee3a6b3	-0.4446312
53	0x3df81842	0.12114002
54	0x3e3c3a65	0.18381651
55	0x3e4e0aa5	0.20121248
56	0xbd24f31c	-0.04027091
57	0xbe3739c3	-0.17893128
58	0x3f12e231	0.5737639
59	0x3e21fe43	0.1581965
60	0x3f49c6b1	0.78818804
61	0xbd36a2b1	-0.04458875
62	0x3f83f0ce	1.0307863
63	0xbf13e4e4	-0.57771134
64	0xbdfb253c	-0.12262961
65	0xbe9e89f1	-0.30964616
66	0xbe176cf2	-0.14787653
67	0xbea4463f	-0.32084844
68	0x3e3c2577	0.18373667
69	0x3d92d796	0.07170026
70	0x3f262da9	0.6491342
71	0xbecfe93b	-0.40607628
72	0xbec04eda	-0.3756016
73	0xbf40ccf2	-0.7531272
74	0xbeb84b8f	-0.35995147
75	0x3ddda24e	0.10821973
76	0x3eaf3fb8	0.342283
77	0x3f089ff5	0.53369075
78	0x3e12c2a7	0.14332066
79	0x3ea87e6a	0.32908946
80	0x3d5818e6	0.05275812
81	0xbe679535	-0.22615512
82	0xbe0b3445	-0.13594158
83	0x3ec1db84	0.3786279
84	0xbf13571a	-0.5755478
85	0x3ed6a0ff	0.41919705
86	0x3f2bcabf	0.6710624
87	0x3e5e1557	0.21687828
88	0x3ed50c8e	0.4161114
89	0xbea8f8d5	-0.33002344
90	0xbee013d5	-0.4376513
91	0xbe356a36	-0.17716298
92	0xbf1d8e14	-0.6154492
93	0x3ef686cf	0.48149726
94	0xbdfa9031	-0.122345336
95	0xbe8e22eb	-0.27761015
96	0xbe4869c9	-0.19571604
97	0xbde6638b	-0.11249455
98	0x3e2aa6d8	0.16665208
99	0x3e9258ae	0.28583282
100	0x3b6b1c5c	0.0035875058
101	0x3ea05518	0.3131492
102	0xbd25d7c1	-0.040488962
103	0xbebf9e7d	-0.37425604
104	0x3f34c8b0	0.70618725
105	0xbf539a9b	-0.82657784
106	0xbe80e181	-0.25172046
107	0xbe972675	-0.29521528
108	0x3f4176b7	0.7557177
109	0x3f7211d8	0.9455848
110	0xbdb5aa94	-0.08870426
111	0xbe1a6939	-0.15079202
112	0xbe5cb302	-0.21552661
113	0xbda76a1c	-0.08174536
114	0xbe666b42	-0.22501853
115	0x3d3e3d14	0.046444967
116	0x3ec34b72	0.38143498
117	0x3deea877	0.11653226
118	0xbf36bbbf	-0.7138023
119	0xbe86c7d0	-0.2632432
120	0x3ec101d9	0.37696722
121	0x3e1339c6	0.14377508
122	0x3eaf12a0	0.34193897
123	0x3ee5282a	0.44757205
124	0xbf32885b	-0.6973931
125	0xbe2ac71c	-0.16677517
126	0xbe8a8bfc	-0.27059925
127	0xbf060af4	-0.52360463
128	0xbda236c4	-0.07920602
129	0x3eb91dd1	0.3615556
130	0xbdd35d02	-0.10320474
131	0xbe8d8408	-0.27639794
132	0xbefef6f8	-0.49797797
133	0x3e99b8a1	0.30023673
134	0x3ceaed36	0.028677564
135	0x3d64025d	0.055666316
136	0xbe383f36	-0.17992863
137	0xbd772f29	-0.06034771
138	0xbea38cfe	-0.31943506
139	0x3da4cad4	0.08046499
140	0xbf01bb72	-0.50676644
141	0xbe8d5128	-0.2760098
142	0xbe24d959	-0.16098537
143	0xbdd7134b	-0.10501727
144	0x3ea5e0c6	0.3239805
145	0x3e22dbf0	0.15904212
146	0x3e67c3b6	0.22633252
147	0xbd6f7919	-0.058465097
148	0xbe74809b	-0.23877184
149	0xbe0753d9	-0.13215579
150	0xbe137642	-0.1440058
151	0xbe8a1574	-0.26969492
152	0x3c3afdb8	0.01141303
153	0xbf39f8a8	-0.72645044
154	0xbe19dc7b	-0.15025513
155	0x3d976875	0.073929705
156	0x3f30b5f9	0.6902767
157	0xbe3ec3ba	-0.18629351
158	0xbe3c7692	-0.18404606
159	0xbea47459	-0.32120016
160	0x3e302b12	0.1720393
161	0xbf06f5b6	-0.52718675
162	0xbecb7843	-0.3974019
163	0xbedcdb1b	-0.43135914
164	0xbce08916	-0.027409118
165	0xbee4e151	-0.44703153
166	0xbedd5e8c	-0.43236196
167	0xbee63f3b	-0.44970116
168	0xbf1c204e	-0.60986793
169	0xbeedee83	-0.46471033
170	0x3f21d69e	0.63218105
171	0x3e13b5f1	0.14424874
172	0xbeae1239	-0.33998278
173	0x3e25a659	0.16176738
174	0x3ea2fd7f	0.31834027
175	0xbd8b82e3	-0.06812074
176	0x3e7fb8a7	0.24972783
177	0x3e18b839	0.14914025
178	0x3ee32a86	0.4436838
179	0xbf163fad	-0.5869091
180	0xbda156c4	-0.07877877
181	0x3deb6603	0.114940666
182	0xbd8914ab	-0.06693395
183	0x3dca10f4	0.09866515
184	0xbe25c291	-0.16187502
185	0xbf08837b	-0.53325623
186	0xbd405724	-0.046958104
187	0xbe5a08f9	-0.21292485
188	0x3f0fe090	0.5620203
189	0x3f08a82d	0.53381616
190	0xbe08a237	-0.1334313
191	0x3f35feb0	0.7109175
192	0xbf2ed682	-0.6829606
193	0x3f44a5a5	0.76815253
194	0xbda22e3a	-0.07918973
195	0x3f1ad512	0.6048137
196	0x3f3bbc90	0.733346
197	0xbeeb057d	-0.45902625
198	0xbe39e331	-0.18153073
199	0x3f0a3037	0.5397982
200	0x3ed3b7de	0.41351217
201	0xbe352c00	-0.17692566
202	0x3ddbb29b	0.10727426
203	0x3ebd8ce6	0.3702156
204	0xbe2153c5	-0.15754612
205	0xbe8c98d9	-0.27460364
206	0x3eb1e293	0.34743175
207	0xbe0755eb	-0.13216369
208	0xbd9f2dc3	-0.077724
209	0xbef643b3	-0.48098525
210	0x3e58553a	0.21126261
211	0x3e07428c	0.1320898
212	0xbedf1e36	-0.43577737
213	0xbbcf57d9	-0.006327611
214	0xbec5b752	-0.38616425
215	0xbec2adea	-0.3802331
216	0x3e614a0a	0.220009
217	0x3f2f0432	0.68365777
218	0x3b2f986e	0.0026793736
219	0x3eaa263d	0.33232298
220	0x3ef1669d	0.471486
221	0x3eab0b7e	0.33407205
222	0x3ed7567a	0.42058164
223	0x3f09620b	0.53665227
224	0x3eb8c22e	0.36085647
225	0x3e960e8a	0.29307967
226	0xbdcd0b26	-0.10011892
227	0x3d45ee15	0.048322756
228	0xbf0d14f4	-0.55110097
229	0xbf2b2d06	-0.66865575
230	0xbedf5428	-0.43618894
231	0xbe921928	-0.28534818
232	0xbd3f4fc7	-0.04670694
233	0xbef5b73d	-0.47991362
234	0xbf37c110	-0.71778965
235	0xbd63af4b	-0.055587094
236	0x3e9a17b5	0.30096212
237	0x3e19bfdd	0.15014596
238	0x3e234c10	0.15946984
239	0xbdf8412b	-0.12121805
240	0xbbd12ed8	-0.006383758
241	0xbe643e20	-0.22289324
242	0xbec13061	-0.37732223
243	0x3e07d101	0.13263322
244	0x3cc41b27	0.023938728
245	0x3f44aa9a	0.7682282
246	0xbe82daab	-0.25557455
247	0xbeb700a1	-0.35742667
248	0xbf948e93	-1.160601
249	0x3e97f35b	0.29677853
250	0x3ebc7d12	0.3681417
251	0xbc3b496c	-0.011431079
252	0xbdca4c12	-0.098777905
253	0xbf17f49d	-0.59357625
254	0x3ed1c9e4	0.40974343
255	0x3ea794ef	0.32730815

network_body._body_endoder.seq_layers.0.bias f4 [128]
0	0xbb95a956	-0.0045673056
1	0x3b6d2a5a	0.0036188574
2	0xbc023d7d	-0.00794923
3	0x3c278b10	0.010226026
4	0xbc3fa94c	-0.011698078
5	0xbaeb8f2d	-0.0017971747
6	0x3be9e34d	0.007137692
7	0x3bc5cda1	0.0060364758
8	0xbb0125e5	-0.0019706425
9	0xbb903742	-0.0044011185
10	0x3b653148	0.0034972
11	0xbbdc7948	-0.006728325
12	0xbc828db8	-0.015936717
13	0xbbdb85b5	-0.0066992887
14	0x3bfc0bc0	0.0076918304
15	0xbc94da0b	-0.018170377
16	0x3b40282d	0.0029320822
17	0xbc34f868	-0.011045553
18	0xbc97c7cb	-0.018527886
19	0xbb4c691a	-0.0031190575
20	0x3b681175	0.0035410796
21	0xbc1333b5	-0.008984496
22	0xbc2ff9f6	-0.010740748
23	0xbc87a9b2	-0.01656041
24	0x3bff8716	0.007798086
25	0x3ba32239	0.004978445
26	0x3b0f500b	0.0021867778
27	0xbbd6196e	-0.006533793
28	0xbc075783	-0.0082606105
29	0x3bf599be	0.007495134
30	0x3aed4343	0.0018101711
31	0x3b834b68	0.004006792
32	0xbc276a50	-0.010218218
33	0xbc284a53	-0.0102716265
34	0xbc1fa17c	-0.009743091
35	0x3b365ad4	0.0027825134
36	0xbbe95122	-0.0071202675
37	0xbbc72305	-0.0060771727
38	0x3ba8f72e	0.0051564192
39	0x3ae98265	0.001781535
40	0x3a04e5ad	0.0005069625
41	0x3b8b4fab	0.0042514405
42	0x3b019845	0.0019774598
43	0x3ac39c40	0.0014923885
44	0x3b279114	0.002556865
45	0xbc19ad81	-0.009379745
46	0x3a2db474	0.0006626316
47	0xbbbbc942	-0.005730779
48	0x3c0e9517	0.008702538
49	0xbbeae229	-0.0071680737
50	0x3c560afe	0.013064144
51	0xbbc35ac2	-0.005961747
52	0x3afc7fb7	0.0019264136
53	0x3c1d9af2	0.009619461
54	0xbb12ee27	-0.0022419782
55	0x3ae43045	0.0017409405
56	0xba447612	-0.00074944005
57	0xbbd2b0a2	-0.0064297477
58	0xbaa2f1e1	-0.0012431705
59	0xbb2d5685	-0.0026449275
60	0xbbae5b0a	-0.0053209113
61	0x3b2b367e	0.002612501
62	0xba96598b	-0.0011470778
63	0xbbcf7b88	-0.0063318647
64	0x3c6f223a	0.014595563
65	0xbb0877f8	-0.002082346
66	0xba71ad1e	-0.0009219217
67	0xbbe65743	-0.0070294454
68	0x3c1aeb93	0.009455579
69	0xbbd1c234	-0.0064013246
70	0xbc69549a	-0.014241362
71	0xbc4d0b1d	-0.012514857
72	0x3aec8248	0.0018044198
73	0x39f859a8	0.00047369045
74	0xba65331d	-0.0008743273
75	0x377282b7	1.44547585e-05
76	0xbb854004	-0.004066469
77	0xbba9a9d5	-0.0051777163
78	0xbb903537	-0.004400875
79	0xbbc0240b	-0.0058636717
80	0xbc0fcaad	-0.008776349
81	0xbc465eac	-0.0121075325
82	0xbc0c7efe	-0.008575199
83	0xbbfd102b	-0.0077228746
84	0xbb99e5d5	-0.0046965876
85	0xbc3cfe93	-0.011535305
86	0xbbd285ee	-0.006424657
87	0x3a27c7c7	0.00064003136
88	0x3c420536	0.011842063
89	0x3a50add9	0.00079604756
90	0xbc439158	-0.011936508
91	0xbb8fd62f	-0.0043895463
92	0x3ba960e6	0.005169022
93	0xbbfe3d56	-0.0077587767
94	0x3c2969ea	0.010340193
95	0xbb9cf949	-0.0047904593
96	0x3c0e5898	0.008688115
97	0x3abd6ddd	0.0014452297
98	0xbb66284f	-0.003511924
99	0x3c3aaff2	0.011394488
100	0xba73847b	-0.00092894555
101	0xbb646a2f	-0.003485333
102	0xbbfac492	-0.0076528275
103	0xba76522c	-0.00093964
104	0xbbe18f46	-0.0068835346
105	0x3be191d3	0.0068838387
106	0x3b594ea7	0.0033158453
107	0x3bf6162b	0.007509967
108	0x3aea723f	0.0017886831
109	0xbb7e9245	-0.0038844508
110	0xbbed50d8	-0.0072423033
111	0x3a84822d	0.0010109596
112	0xbc35b56c	-0.011090618
113	0x3b02b360	0.0019943342
114	0xbbcaf9d9	-0.006194335
115	0xbbdedba0	-0.0068010837
116	0xba994adb	-0.0011695282
117	0xbba94c9e	-0.005166604
118	0xbb00f797	-0.0019678825
119	0xbb44095a	-0.00299128
120	0xbb226e35	-0.0024784927
121	0x3b7c1abc	0.0038468083
122	0xbc84bdd0	-0.01620379
123	0xbb9316a2	-0.004488782
124	0xbbd983ca	-0.006638025
125	0x3b69f2c8	0.0035697687
126	0x3b85682b	0.0040712557
127	0xbb9e7630	-0.0048358664

network_body._body_endoder.seq_layers.2.weight f4 [128, 128]
0	0x3d3052ed	0.043047834
1	0xbd66eab0	-0.05637616
2	0xbca8c979	-0.020603882
3	0x3c5faf68	0.01365266
4	0x3e1ddc9d	0.15416189
5	0xbd7d91d4	-0.06190665
6	0x3d0e684a	0.034767427
7	0x3d8e31e3	0.06943109
8	0x3c4c9e0b	0.012488852
9	0x3e6bf26f	0.230417
10	0xbde6c759	-0.11268491
11	0x3d80c312	0.06287207
12	0x3d236171	0.03988785
13	0xbdf37da6	-0.118892
14	0xbe27ab79	-0.16374005
15	0xbdb69994	-0.089160115
16	0xbe281819	-0.16415443
17	0x3d846b05	0.06465725
18	0x3e2f1afd	0.17100139
19	0x3da796f9	0.081830926
20	0xbdd597b7	-0.10429328
21	0x3da0d265	0.078526296
22	0x3d4ae037	0.049530234
23	0xbd5f1dbf	-0.054471727
24	0xbbee5586	-0.007273379
25	0xbd7ce4a5	-0.06174149
26	0x3d94c106	0.07263379
27	0xbdaf2b08	-0.085531294
28	0x3e5a7aa5	0.21335848
29	0xbe12a499	-0.14320602
30	0xbe05b1e5	-0.13056143
31	0xbe1d343e	-0.1535196
32	0xbcd3a385	-0.025834808
33	0x3d8d34fc	0.068948716
34	0x3d760be2	0.060069926
35	0xbd900b55	-0.070334114
36	0x3cc4ed8f	0.024039058
37	0xbc63df4b	-0.013908218
38	0xbd9981ea	-0.07495482
39	0xbd85e8ed	-0.06538568
40	0x3cc35d89	0.023848312
41	0xbddfab83	-0.10921385
42	0xbc320f5b	-0.010867919
43	0x3ddc9bf7	0.107719354
44	0xbdb58125	-0.08862523
45	0xbdb6c4e9	-0.089242764
46	0xbd42aa3e	-0.047525637
47	0xbc15a342	-0.009133162
48	0xbdaec195	-0.085330166
49	0x3d9423a8	0.072333634
50	0xbdcd2b4a	-0.10018022
51	0x3d574fea	0.052566446
52	0x3d33adf4	0.043867067
53	0x3d38bfe3	0.045104872
54	0x3e208285	0.15674789
55	0xbdfb89c3	-0.12282135
56	0x3e2cdf71	0.16882111
57	0x3d978993	0.07399287
58	0xbbe7bf9c	-0.007072402
59	0x3d8e8eb9	0.06960816
60	0x3d8a6da4	0.067591935
61	0xbdc87e6c	-0.09789738
62	0xbd886853	-0.06660523
63	0xbe1ea741	-0.1549349
64	0xbe826d18	-0.25473857
65	0xbb4bef7e	-0.003111809
66	0xbbb52d63	-0.005529092
67	0xbc407ed9	-0.011748993
68	0x3be2561f	0.006907239
69	0x3dbf0e5e	0.09328912
70	0x3d8ace03	0.06777575
71	0x3e1bbf2c	0.15209645
72	0xbd970d56	-0.073755905
73	0x3d409e40	0.04702592
74	0x3db8bb95	0.090201534
75	0xbddc0116	-0.107423946
76	0xbd35a06a	-0.044342436
77	0x3d69247b	0.056919556
78	0xbc936265	-0.017991254
79	0x3d8cfb4d	0.06883869
80	0x3e4688b4	0.19388086
81	0x3dd37779	0.10325522
82	0xbdfcc9cb	-0.123431765
83	0xbce59662	-0.02802581
84	0xbce76f86	-0.02825142
85	0x3db5d217	0.08877962
86	0x3d8ab462	0.067726865
87	0x3ce7c1f6	0.02829073
88	0x3d40c2d6	0.04706081
89	0xbe38bd40	-0.18040943
90	0x3dd10cb6	0.102075025
91	0xbde7f92a	-0.11326821
92	0xbcc52773	-0.024066662
93	0x3cb9becc	0.022673987
94	0xbbe4e2d3	-0.0069850474
95	0x3a8050da	0.0009789721
96	0xbdd7e3ca	-0.10541494
97	0xbd9ea2b2	-0.077458754
98	0xbd21debd	-0.03951906
99	0xbda372f2	-0.079809085
100	0xbd9e8a56	-0.07741229
101	0x3d63d64d	0.055624295
102	0xbbe1f25c	-0.0068953466
103	0x3dc2c699	0.09510536
104	0x3d4c7039	0.04991171
105	0x3d082455	0.033237774
106	0x3de4834e	0.11157857
107	0x3d485946	0.048913263
108	0x3d4c4829	0.049873505
109	0xbe0b9611	-0.13631465
110	0xbc538601	-0.012910367
111	0x3e3183b1	0.17335393
112	0x3e01d64c	0.12679404
113	0x3d5a321c	0.053270444
114	0x3d6e3812	0.05815894
115	0x3daf0f1d	0.085478045
116	0xbdbb962b	-0.09159502
117	0x3d378a8a	0.044809856
118	0x3df6f63f	0.120586865
119	0xbe07a341	-0.1324587
120	0x3dbe8d87	0.09304338
121	0x3da0afe2	0.07846047
122	0x3e193452	0.14961365
123	0xbddc28d2	-0.10749973
124	0x3a642268	0.00087026367
125	0x3ced477a	0.028964747
126	0xbbedec9d	-0.0072608725
127	0xbd356169	-0.04428235
128	0xbdb5c08a	-0.088746145
129	0xbc8b70f0	-0.017021626
130	0x3de2af0b	0.11068543
131	0xbca5c62a	-0.020236094
132	0xbd1b9d5e	-0.037991874
133	0xbe2de444	-0.16981608
134	0xbdc0ad2d	-0.09408031
135	0xbd449031	-0.047989074
136	0x3d9bf8c6	0.07615809
137	0xbd11bd5a	-0.03558097
138	0x3d122487	0.035679366
139	0x3cbc82c9	0.023011582
140	0x3bc6f4b9	0.0060716537
141	0x3dc4b083	0.096039794
142	0xbdab5359	-0.08365507
143	0xbcdd2471	-0.026994916
144	0xbda1f51c	-0.07908079
145	0x3e103487	0.14082538
146	0x3e235621	0.15950824
147	0xbd46fbe8	-0.04858008
148	0x3da3cec7	0.07998424
149	0xbd7692ee	-0.060198717
150	0xbc331051	-0.010929183
151	0xbd490906	-0.04908087
152	0xbd973f50	-0.07385123
153	0x3cd66965	0.026173303
154	0x3d5e5080	0.05427599
155	0xbd8a77df	-0.06761145
156	0xbdd52ed5	-0.10409323
157	0xbc713229	-0.014721432
158	0xbd6c1ab9	-0.057642672
159	0xbe1a179d	-0.1504807
160	0xbe2ea514	-0.1705516
161	0xbe52b41c	-0.20576519
162	0x3e2bb554	0.1676839
163	0xbd418dd3	-0.047254395
164	0xbdf07948	-0.117418826
165	0x3cf86fac	0.030326687
166	0xbd5dede5	-0.054181952
167	0xbddcac58	-0.107750595
168	0x3e14bfae	0.14526245
169	0xbcda5b99	-0.026655005
170	0xbd02960d	-0.03188138
171	0xbe123a82	-0.14280131
172	0x3d5f482f	0.0545122
173	0x3d28e0b2	0.04122991
174	0xbe3f54c6	-0.18684682
175	0x3de35f07	0.111021094
176	0xbd491356	-0.049090706
177	0x3c8c52a0	0.017129242
178	0x3d270bcf	0.040782746
179	0xbc59ab41	-0.013285459
180	0xbd954ccb	-0.07290038
181	0x3dba460f	0.09095394
182	0x3c97b5e8	0.018519357
183	0xbd138c9b	-0.036022764
184	0x3b2bbd92	0.0026205522
185	0xbd30a184	-0.043122783
186	0x3d0b17a8	0.033958107
187	0xbe191151	-0.14948012
188	0xbd162ed9	-0.03666577
189	0xbc2bbfa8	-0.010482706
190	0x3e223fe0	0.15844679
191	0x3e3037f9	0.17208852
192	0x3b07e1ac	0.0020733876
193	0x3ca9c3ca	0.020723242
194	0x3d8e1ab4	0.06938687
195	0xbde93782	-0.113875404
196	0xbca89ff2	-0.02058408
197	0x3d9c31a9	0.076266594
198	0xbde1d205	-0.11026386
199	0xbc699806	-0.014257437
200	0x3bea7602	0.007155181
201	0x3ce16300	0.027513027
202	0x3d093244	0.033495203
203	0x3d9f4e27	0.07778578
204	0xbe356ee9	-0.1771809
205	0x3ded2b13	0.115804814
206	0x3d3cf9f8	0.046136826
207	0x3cbe066e	0.023196425
208	0x3dccc623	0.09998729
209	0xbd51f493	-0.051258635
210	0xbe1e3af5	-0.15452178
211	0xbc7d5dab	-0.015464227
212	0xbaac1c50	-0.0013130996
213	0x3d8bc6f0	0.06825054
214	0x3e560238	0.20899284
215	0xb7962601	-1.789909e-05
216	0x3d688ade	0.05677306
217	0x3e3e519c	0.18585819
218	0x3dd70544	0.10499051
219	0x3d1cc225	0.03827109
220	0xbd90af0b	-0.07064637
221	0xbd2b1bd3	-0.041774582
222	0xbe76d46a	-0.24104467
223	0xbdcb48e1	-0.0992601
224	0xbddb6341	-0.107122906
225	0xbda1d752	-0.07902397
226	0x3dfe3748	0.12412888
227	0xbcaeb38b	-0.021325847
228	0x3bb18e93	0.0054186075
229	0xbdaaa420	-0.083320856
230	0xbd8db09f	-0.069184534
231	0x3d9b8e7a	0.075955346
232	0x3d643b94	0.05572088
233	0xbe1ba127	-0.15198193
234	0x3e91a5eb	0.28446898
235	0x3c00fe0c	0.0078730695
236	0xbd49b608	-0.049245864
237	0xbd396a54	-0.045267418
238	0xbe1503c6	-0.1455222
239	0x3bd9eec1	0.006650776
240	0x3c9ac676	0.018893462
241	0xbe1d1119	-0.15338553
242	0xbdb97a60	-0.09056544
243	0x3d8f6568	0.070017636
244	0x3e0baa62	0.13639215
245	0x3db63c0f	0.08898174
246	0x3c06c231	0.00822501
247	0x3da5dec2	0.08099128
248	0xbd8e1cd1	-0.0693909
249	0x3d9720ac	0.073792785
250	0x3e8e2875	0.2776524
251	0x3df8fdeb	0.12157806
252	0x3d5b0e7d	0.053480614
253	0xbe0a6ddd	-0.13518472
254	0x3db5b894	0.08873096
255	0x3d85ee38	0.06539577

network_body._body_endoder.seq_layers.2.bias f4 [128]
0	0xbc21c2f2	-0.009873139
1	0xbb446ba6	-0.002997139
2	0x3b8aa27a	0.0042307945
3	0xbc84e045	-0.016220221
4	0x3aced335	0.0015779497
5	0x3b5c97a8	0.003365973
6	0x3c2b4225	0.010452782
7	0x3bf34ee5	0.0074251764
8	0xbba9846e	-0.0051732576
9	0xbbe73277	-0.0070555764
10	0xba2c4d1b	-0.0006572769
11	0xbc07a6d7	-0.008279524
12	0xbba858af	-0.005137525
13	0xbb60bd97	-0.0034292692
14	0x3c33c286	0.010971671
15	0x38af82ca	8.3690116e-05
16	0x3b35857c	0.002769797
17	0xbb498047	-0.0030746625
18	0xbc0824c3	-0.008309546
19	0x39f4ee65	0.00046716924
20	0xbb324e63	-0.0027207367
21	0x3b84b914	0.0040503833
22	0x3af93b03	0.0019014779
23	0xba0ddacb	-0.0005411326
24	0xbbba5c12	-0.005687245
25	0x3bbcc0af	0.0057602744
26	0x3a3337b8	0.0006836611
27	0x3a5a99db	0.0008338966
28	0xbb32728d	-0.0027228922
29	0x3b3bf89b	0.0028682116
30	0x3a67f22f	0.0008848039
31	0xbbf3c6c5	-0.0074394667
32	0xbb64fb39	-0.003493978
33	0x3b11f0cb	0.0022268768
34	0x3bc9f72d	0.006163499
35	0x391bdc1f	0.00014863953
36	0x3b324488	0.0027201492
37	0xbbf2b5fe	-0.007406949
38	0xbbb7f604	-0.005614044
39	0xba10cba0	-0.00055235066
40	0xba22e6b9	-0.000621419
41	0x3b9a5902	0.0047103176
42	0xbbabd76f	-0.0052441875
43	0xbbe15cf5	-0.0068775364
44	0xbb05917d	-0.0020380907
45	0x3c2118c2	0.009832563
46	0x3b8f2dcc	0.004369473
47	0xbb8c2176	-0.00427645
48	0xbbd25ae5	-0.006419527
49	0xb8424edf	-4.632666e-05
50	0xbbe84c3c	-0.007089166
51	0x3a206e8c	0.00061199884
52	0x3c1a4ebb	0.009418185
53	0xbc07a471	-0.008278952
54	0x3c006d70	0.007838592
55	0xbbc22f99	-0.0059260842
56	0x3bf23b4c	0.0073923226
57	0xbc3c9129	-0.011509218
58	0x3a5a7e2c	0.0008334841
59	0x3af1c81c	0.0018446478
60	0xbbf1387f	-0.007361471
61	0x3b6bcaee	0.003597911
62	0xbb91f9ad	-0.0044548125
63	0xbbe4d4b0	-0.006983362
64	0xbb029cb3	-0.0019929826
65	0xbbbfcaba	-0.0058530243
66	0xba916148	-0.0011091614
67	0xbb484445	-0.003055827
68	0xbafbf3ce	-0.001922244
69	0x3ae39dd6	0.0017365764
70	0xbbcb7a29	-0.006209631
71	0xbc1ba1de	-0.009499041
72	0xbbacf801	-0.005278588
73	0xbc062d00	-0.00818944
74	0xbb8e5e81	-0.004344762
75	0xbb9464e0	-0.004528627
76	0xbbc5e4f7	-0.0060392576
77	0xbbbc6903	-0.005749823
78	0xbc4f99a4	-0.012670908
79	0xbbe75558	-0.0070597343
80	0x39e3145b	0.0004331198
81	0x3b043f39	0.0020179285
82	0xbbdd8680	-0.0067604184
83	0xbc2a3e9f	-0.010390907
84	0xbafa47c8	-0.0019094879
85	0xbbaa2125	-0.0051919394
86	0xbb84c77c	-0.0040521007
87	0xbbba2bbd	-0.0056814835
88	0xbc58cbc1	-0.0132321725
89	0x3c3dd6ff	0.011586904
90	0xbb8a1264	-0.004213618
91	0x3b943958	0.0045234375
92	0x3b98c6d0	0.004662372
93	0x3b582e88	0.003298672
94	0x3b8eb10e	0.0043546027
95	0xbb958b78	-0.004563745
96	0xbc83133a	-0.016000379
97	0xb9da405f	-0.0004162816
98	0xbbc8d807	-0.006129268
99	0x3b38214b	0.0028096016
100	0xba644948	-0.00087084295
101	0x3c418c57	0.011813245
102	0xba310b9e	-0.0006753745
103	0x3b6803a2	0.0035402556
104	0xbb9e048d	-0.00482232
105	0x3b2627bf	0.002535328
106	0x3af4859a	0.0018655539
107	0x3c324d42	0.0108826775
108	0xbc23020f	-0.009949221
109	0xbbdacbb5	-0.006677116
110	0xbc246663	-0.0100341765
111	0xbc15d774	-0.009145606
112	0xbb3ed67e	-0.0029119547
113	0xbc1950fb	-0.009357686
114	0x3bb0cd88	0.005395595
115	0xbb6e1ecf	-0.0036334281
116	0x3b010f0a	0.0019692802
117	0x3c236406	0.009972578
118	0xbaaead65	-0.0013326822
119	0x3a837d64	0.0010031876
120	0xbbaff088	-0.0053692497
121	0xbbfe465b	-0.007759852
122	0x3bb741d2	0.005592563
123	0xbaf3ed48	-0.0018610144
124	0xbc1db1ee	-0.009624941
125	0x3b005d95	0.001958703
126	0x3c1e73e9	0.00967119
127	0xbc3a24ca	-0.01136131

action_model._continuous_distribution.log_sigma f4 [1, 2]
0	0x3c61f755	0.013791879
1	0x3ba57697	0.0050495374

action_model._continuous_distribution.mu.weight f4 [2, 128]
0	0xbd3d0804	-0.046150222
1	0x3c6a5016	0.014301321
2	0x3bfa4964	0.0076381434
3	0xbc8fcfbb	-0.017555108
4	0xbd5de997	-0.054177847
5	0x3bc6510d	0.0060521425
6	0x3caab115	0.020836392
7	0x3cea2600	0.028582573
8	0xbc6087f1	-0.013704286
9	0xbd2c5ab5	-0.042078692
10	0x3c9b5849	0.018962996
11	0xbce1d272	-0.027566168
12	0x3bca539e	0.0061745187
13	0xbb987a5c	-0.0046532582
14	0x3cc0b7c1	0.02352512
15	0xbd25466a	-0.040350355
16	0xbd1c2a60	-0.03812635
17	0xbc57da7c	-0.013174649
18	0x3a0e79e5	0.0005435034
19	0x3c8f6b86	0.017507326
20	0x3bb49628	0.005511064
21	0x3ae5dc29	0.0017536926
22	0x3c383e0b	0.011245261
23	0xbcfec015	-0.031097451
24	0xbb3fd0a7	-0.0029268654
25	0x3c15ec7d	0.0091506215
26	0x3c0c2537	0.008553795
27	0x3b7b0c18	0.003830677
28	0x3d00181d	0.031272996
29	0xbc05e314	-0.008171815
30	0x3bce8275	0.006302173
31	0x3b90baf8	0.0044168197
32	0xbbb0a572	-0.0053908164
33	0x3c93fdfb	0.018065443
34	0x3c1d297e	0.009592412
35	0xbb862b1e	-0.0040944954
36	0x3ceb9e6f	0.02876207
37	0x3c78c406	0.015183454
38	0xbc6f237e	-0.014595864
39	0x3c423183	0.011852625
40	0x39feaf7a	0.00048577396
41	0x3c2b3a60	0.010450929
42	0x3c8e700f	0.017387418
43	0xbcbe0c28	-0.023199156
44	0xbc3cd1fd	-0.0115246745
45	0x3c96db48	0.018415108
46	0x3c603578	0.013684623
47	0x3c9b18ff	0.018932818
48	0xbcb76f01	-0.022391798
49	0x3c400318	0.011719488
50	0xbc29ebb4	-0.010371137
51	0x3bcde5da	0.006283504
52	0x3cc7b950	0.024380356
53	0x3abd2f5c	0.001443367
54	0x3b7645df	0.0037578268
55	0xbc26aa2e	-0.01017241
56	0x3cbbcd35	0.022924999
57	0xbc5a74bd	-0.013333497
58	0x3b43da22	0.0029884656
59	0x3c5c10ed	0.01343177
60	0xbb49da9b	-0.0030800465
61	0x3d0900e7	0.033448126
62	0xbc0f30be	-0.008739648
63	0xbc57cc60	-0.013171285
64	0xbc8df48a	-0.01732852
65	0xbae9e0d2	-0.0017843491
66	0xbb98f736	-0.0046681417
67	0x3c404333	0.011734772
68	0x3c81fcb5	0.01586757
69	0x3cbcce1e	0.023047503
70	0xbc2be9d0	-0.010492757
71	0xbcb46cf6	-0.022024613
72	0x3c2b2721	0.010446341
73	0xbbbd5e87	-0.005779091
74	0x3b922ff8	0.0044612847
75	0xbcd65a64	-0.026166148
76	0xbcccd394	-0.025003232
77	0xbceca0c2	-0.028885249
78	0xbcaefee4	-0.021361776
79	0xba8bb530	-0.0010658856
80	0xbcf1b5d5	-0.02950565
81	0x3cf0a58e	0.029375818
82	0x3bbb0332	0.005707168
83	0xbca01ab3	-0.019543981
84	0xbb32e577	-0.0027297416
85	0xbc735dc6	-0.0148539
86	0xbb1fee28	-0.0024403427
87	0xbc8d2558	-0.017229721
88	0xbbebca5a	-0.007195753
89	0x3d3d9b2c	0.04629056
90	0xbb5bcfdf	-0.003354065
91	0x3c11ad69	0.008891442
92	0x3d225b45	0.039637823
93	0xbc0815c4	-0.008305971
94	0x3c1de59c	0.009637263
95	0x3abec9ea	0.0014556025
96	0xbc2fca95	-0.010729452
97	0xbcf26596	-0.029589456
98	0xbc82af7f	-0.015952824
99	0xbc3a48cd	-0.011369896
100	0x3cd2f8cf	0.025753407
101	0x3d408283	0.046999466
102	0x3c5cbad7	0.01347228
103	0xbbaec539	-0.0053335694
104	0xbc9afa0e	-0.018918063
105	0x3bfec5d1	0.0077750464
106	0x3d1937b8	0.037406653
107	0x3d138257	0.036012974
108	0xbcb9e901	-0.022694113
109	0x3c834a44	0.016026624
110	0x3b0b12cc	0.002122092
111	0xbc4086c8	-0.011750884
112	0xbcc2f8dc	-0.023800306
113	0xbbcc86fb	-0.006241677
114	0x3cb810b6	0.022468906
115	0x3c768dad	0.015048427
116	0x3ce6dd9c	0.028181843
117	0x3cb53397	0.022119327
118	0x3cb11600	0.021616936
119	0x3d096c58	0.03355059
120	0x3b838be3	0.0040144785
121	0xbc2636a7	-0.010144866
122	0x3cba79b6	0.022763114
123	0xbb18a9eb	-0.0023294638
124	0xba4dee95	-0.0007855681
125	0x3c5ec1c5	0.013596003
126	0x3d0a584e	0.03377562
127	0xbb3df822	-0.002898701
128	0x3cb60548	0.022219315
129	0xbaeb6cec	-0.0017961538
130	0xbc8db08b	-0.017296096
131	0x3ca9695c	0.020680122
132	0xbb845641	-0.0040386026
133	0xbcaf4b9f	-0.021398364
134	0x3bd0333f	0.0063537653
135	0xbc77d5f5	-0.015126695
136	0xbad52e2a	-0.0016264368
137	0x3ca53241	0.020165564
138	0xbbf64794	-0.007515857
139	0x3c8c72b3	0.017144537
140	0x3a41ce3c	0.0007393097
141	0xbbdb61e1	-0.0066950177
142	0xbcab9518	-0.020945117
143	0xbb374a3f	-0.0027967838
144	0xbcecb6a3	-0.028895682
145	0xbaff5772	-0.0019481017
146	0x3c5a4f82	0.01332462
147	0xbc4dbdcf	-0.012557461
148	0x3d174437	0.03693029
149	0xbcd6e92c	-0.026234232
150	0xbc8259b8	-0.015911922
151	0x3bb028e2	0.0053759674
152	0xbb8d7883	-0.0043173446
153	0xbc4b1f5f	-0.012397616
154	0x3a6456be	0.00087104354
155	0xbc137803	-0.009000781
156	0x3b9ff06c	0.0048809554
157	0xbcc6b638	-0.02425681
158	0x39f6a887	0.0004704634
159	0x3c799dee	0.015235407
160	0xbab91d2d	-0.0014123075
161	0xbb8dea9e	-0.004330947
162	0xbbb4fa08	-0.00552297
163	0xbcb7971b	-0.02241092
164	0xbb984197	-0.004646491
165	0x3cd8ab1a	0.026448775
166	0xbbb988c3	-0.005662055
167	0xbbc71894	-0.006075928
168	0xbc5266e4	-0.012841914
169	0xbc58b474	-0.013226617
170	0x3cf38a9b	0.029729178
171	0x3c99cce7	0.018774463
172	0xbbff4d46	-0.007791194
173	0x3a149d47	0.0005669188
174	0xbb8092c9	-0.003923748
175	0x3ca57d62	0.020201389
176	0xbc084d3a	-0.0083191935
177	0x3d0641be	0.03277754
178	0x3b8009ec	0.003907433
179	0xba914ce1	-0.0011085534
180	0xbcc937ad	-0.024562681
181	0x3c7a9dab	0.01529638
182	0xbc4e54c0	-0.012593448
183	0x3b68b97c	0.0035510948
184	0x3c477307	0.012173421
185	0x3c8d0d1c	0.017218165
186	0x3ccad59e	0.024760064
187	0xb7381b94	-1.0973676e-05
188	0x3cb7fa6a	0.022458274
189	0xbc06185e	-0.0081845205
190	0xbb76c056	-0.0037651262
191	0x3b1d6c22	0.002402075
192	0xbc070ac0	-0.008242309
193	0x3c681c2a	0.014166871
194	0xbcd562cb	-0.026048085
195	0x3bc2d4b4	0.0059457663
196	0x3cad8ee7	0.021186305
197	0xbbd6629f	-0.0065425183
198	0x3ce70dc1	0.0282048
199	0x3cb735e2	0.02236456
200	0x3c443c51	0.011977271
201	0x3ca600c1	0.020264031
202	0x3bd9646a	0.0066342847
203	0x39a9405b	0.0003228214
204	0x3b634d84	0.0034683654
205	0x3c1355c9	0.008992621
206	0x3c84fd91	0.016234191
207	0x3c58631e	0.013207225
208	0xbb9db16e	-0.004812411
209	0xbb560a7b	-0.0032660055
210	0x3b29af07	0.0025891678
211	0x3ca2a00d	0.019851709
212	0xba661d64	-0.0008778183
213	0xbc63d275	-0.013905157
214	0x3c5ec73f	0.013597309
215	0x3c85f248	0.01635088
216	0x3b4d41bc	0.0031319698
217	0xbb7c7daa	-0.003852705
218	0xbb9c9bb7	-0.004779305
219	0xbc80fd86	-0.01574589
220	0xbc569b24	-0.013098512
221	0xbcb9a1b6	-0.022660118
222	0xbc99542e	-0.018716898
223	0xbbdebaa3	-0.006797151
224	0x3b302335	0.0026876454
225	0x3b58979d	0.0033049353
226	0xbca3b7b6	-0.019985061
227	0xbc0ee8d7	-0.0087225055
228	0x3bc2c7fd	0.0059442506
229	0xbd02ab66	-0.03190174
230	0x3c6443be	0.013932167
231	0xbcaa65e8	-0.020800546
232	0xbaebbcdb	-0.001798536
233	0xbb5101d7	-0.0031891966
234	0x3d587769	0.052848253
235	0x3bbdfde8	0.0057980902
236	0x3b4cf859	0.0031275956
237	0x3cca7a8c	0.024716638
238	0x3ba0e51b	0.004910124
239	0x3b92154b	0.0044581047
240	0xbd05f6be	-0.032706015
241	0x3b9746b8	0.0046165846
242	0xbc540aa1	-0.012941987
243	0x3c40aab9	0.011759453
244	0x3c49d947	0.012319869
245	0x3ae5ab9c	0.0017522457
246	0x3a9eaa9c	0.0012105289
247	0xbc683e1e	-0.014174966
248	0x3c64d49b	0.013966705
249	0x3c51bc51	0.012801246
250	0xbce35962	-0.027752582
251	0xbb91ec13	-0.004453191
252	0x3cb434a1	0.021997752
253	0xbb3b6246	-0.002859251
254	0xbc2122de	-0.009834973
255	0x3b1fb6a3	0.0024370335

action_model._continuous_distribution.mu.bias f4 [2]
0	0x3ba60ba8	0.0050673075
1	0xbbbb3e91	-0.0057142456

action_model._discrete_distribution.branches.0.weight f4 [1, 128]
0	0x3ba368c0	0.0049868524
1	0x39c3ad7e	0.0003732256
2	0x3b89f103	0.004209639
3	0xbc898d65	-0.016791055
4	0xb9df1b0b	-0.00042554023
5	0x3ba67755	0.0050801435
6	0xbc075b58	-0.008261524
7	0xbc55d5f7	-0.0130515015
8	0x3ba2f42b	0.0049729547
9	0xbb51a782	-0.0031990712
10	0x3b92241c	0.004459871
11	0x3ca8b02c	0.020591818
12	0xbb1bb740	-0.0023760349
13	0x3c22c2ac	0.009934109
14	0xbbf5b2c8	-0.007498119
15	0x3a8c04fb	0.0010682637
16	0x3c5533a3	0.013012799
17	0xbc17468e	-0.00923313
18	0x3bcf360b	0.006323581
19	0x3bf428cd	0.007451153
20	0x39d963e5	0.00041463893
21	0x3c6c4ffa	0.014423365
22	0xbbc221fb	-0.005924461
23	0xbc1fa0c2	-0.0097429175
24	0xbc247381	-0.010037304
25	0x3b114af7	0.0022169927
26	0x3c0cf7ad	0.008603972
27	0x3be9944a	0.007128273
28	0xbc0e6fba	-0.00869363
29	0xbb608db5	-0.0034264151
30	0xbba767fb	-0.005108831
31	0xbb88caf5	-0.004174585
32	0x3c4662ce	0.012108518
33	0x3c5c509f	0.013446956
34	0xbc54f58d	-0.012997997
35	0x3c2be31a	0.010491157
36	0x3aced152	0.0015778935
37	0xbc003779	-0.007825726
38	0xbab0b993	-0.001348304
39	0xbb6bdc83	-0.003598959
40	0x3bc8ffef	0.0061340253
41	0xbc41fd80	-0.011840224
42	0x3b13c6d3	0.0022548928
43	0x3c1db810	0.009626403
44	0xba1ae1ae	-0.00059082627
45	0xbab52403	-0.0013819936
46	0x3c5044f7	0.012711755
47	0x3b93cbf4	0.004510397
48	0xbbd4cc63	-0.0064940914
49	0x3bda429a	0.0066607716
50	0x3bd38980	0.0064556003
51	0xba517e40	-0.000799153
52	0xbc17a1ba	-0.009254867
53	0xbc8212a1	-0.015878024
54	0xbba16053	-0.004924813
55	0xbc52b4db	-0.012860502
56	0xbbd26e20	-0.0064218193
57	0xbb57809f	-0.003288306
58	0xb9dd5113	-0.0004221281
59	0x3bbe94ab	0.0058160624
60	0xbc8c9bd9	-0.017164158
61	0x3b033900	0.0020022988
62	0x3b371a9d	0.0027939447
63	0xbc5e20d8	-0.013557635
64	0xbbe538a5	-0.006995278
65	0x3c758320	0.014984876
66	0x3c3afbca	0.01141257
67	0xbc041541	-0.008061708
68	0xbb9a3044	-0.0047054607
69	0xbc9ed36d	-0.019387925
70	0xbc9a5607	-0.01883985
71	0x3a620908	0.00086225616
72	0x3c86169b	0.016368201
73	0xbb330d2b	-0.002732108
74	0x3bbb9806	0.0057249097
75	0xbb7bc2cb	-0.0038415666
76	0xbb81c8b7	-0.0039606947
77	0x3c2752fb	0.010212655
78	0xbb167e44	-0.0022963444
79	0xbc38c079	-0.011276358
80	0x3bcde480	0.006283343
81	0x3b9e0774	0.004822666
82	0x3ba9927e	0.005174934
83	0x3b8de5b0	0.0043303594
84	0x3bab56f6	0.0052288724
85	0x38aa20f3	8.112369e-05
86	0xbc801dbf	-0.015639184
87	0x3b86ceea	0.0041140215
88	0x3c0ce6d8	0.008599959
89	0x3b3fec02	0.0029284959
90	0x3b15cd99	0.0022858141
91	0xbb1fbd5c	-0.0024374342
92	0x3bdf8db8	0.006822314
93	0xbb75a8fb	-0.0037484753
94	0xbc1aa2a0	-0.009438187
95	0xbba2ea05	-0.004971745
96	0x3b8c6a47	0.00428513
97	0x3b9a847f	0.004715502
98	0x3cbde456	0.023180168
99	0x3bba62fb	0.005688069
100	0x3c266cf6	0.010157814
101	0x3b7f0d50	0.0038917847
102	0x3c50054d	0.012696576
103	0x3bb54531	0.00553193
104	0xbc354ef2	-0.011066185
105	0x3c37aec0	0.011211097
106	0x3bbe28a3	0.005803184
107	0xbb8b228a	-0.0042460607
108	0x3c260b12	0.010134475
109	0xbbdd68eb	-0.006756892
110	0x3b4c509a	0.0031175972
111	0xbc10e533	-0.008843708
112	0x384a82a1	4.828221e-05
113	0x3bcc6e67	0.006238747
114	0x3b7a9af8	0.0038239341
115	0xbc5071d2	-0.012722449
116	0xb7c5c88c	-2.3577617e-05
117	0x3b09fa87	0.0021053867
118	0xbc5bd0d3	-0.013416487
119	0x3c38cc33	0.011279154
120	0x3b087365	0.0020820734
121	0xbbe5c942	-0.007012517
122	0xbb59fbe3	-0.0033261708
123	0xbbcb8f47	-0.0062121483
124	0x3b021414	0.0019848393
125	0x3ba9cb7b	0.0051817275
126	0x3bdce612	0.0067412937
127	0x3c65cb38	0.014025502

exp_avg f4 [128, 6]
0	0x36d4bc1e	6.339992e-06
1	0x35c97892	1.5010758e-06
2	0x38821cf4	6.204276e-05
3	0x37d7b223	2.5712949e-05
4	0x35f13c04	1.7973366e-06
5	0xb832bb02	-4.261267e-05
6	0x38897ea6	6.556259e-05
7	0xb6be0d94	-5.664022e-06
8	0xb77f3e6a	-1.5213716e-05
9	0xb7d22174	-2.5049529e-05
10	0xb6e3661e	-6.777015e-06
11	0xb7d2bdb8	-2.5122295e-05
12	0x3898c09b	7.2838004e-05
13	0x35d79e6f	1.6064859e-06
14	0xb8564744	-5.1087947e-05
15	0xb77df377	-1.5136661e-05
16	0x36014188	1.9260642e-06
17	0x380ca509	3.3532302e-05
18	0xb85b3e09	-5.2271444e-05
19	0x35a8544c	1.2541509e-06
20	0xb664c3a2	-3.408852e-06
21	0xb89eaed1	-7.566589e-05
22	0x35d40760	1.5797377e-06
23	0x3827d123	4.0010676e-05
24	0xb846b6a3	-4.7376972e-05
25	0x35899fc7	1.0253797e-06
26	0x38948afa	7.083076e-05
27	0x3849ca63	4.811062e-05
28	0x359e300b	1.17859e-06
29	0xb79b43aa	-1.8508948e-05
30	0xb928317f	-0.00016040167
31	0x371dae44	9.398504e-06
32	0xb8a9699c	-8.078219e-05
33	0x37fd23cc	3.017662e-05
34	0x373e23e6	1.1333241e-05
35	0xb68c974a	-4.1899375e-06
36	0xb795e8ae	-1.7870534e-05
37	0xb65b2570	-3.2655335e-06
38	0xb6df39fc	-6.652668e-06
39	0x350be390	5.211268e-07
40	0xb682983d	-3.892025e-06
41	0xb709f523	-8.222912e-06
42	0x38c52d08	9.40208e-05
43	0xb68a2cdc	-4.117943e-06
44	0x381b6463	3.7048372e-05
45	0xb81a17ee	-3.6738747e-05
46	0xb6a57f53	-4.9322057e-06
47	0xb785d918	-1.5955928e-05
48	0xb8f7ec8a	-0.00011821937
49	0xb7062f94	-7.9981e-06
50	0xb929d740	-0.00016197283
51	0x388c3836	6.68619e-05
52	0xb7210cd8	-9.599338e-06
53	0xb8131f76	-3.507683e-05
54	0xb88bd249	-6.667205e-05
55	0x36ae5da4	5.1965053e-06
56	0x380c498b	3.3447093e-05
57	0xb8a33e99	-7.7841054e-05
58	0x36d1442c	6.2366216e-06
59	0x37dc1229	2.62345e-05
60	0x3761fbd6	1.346968e-05
61	0xb6d925a0	-6.471484e-06
62	0xb792b71c	-1.7489823e-05
63	0xb804d582	-3.1670097e-05
64	0xb702748c	-7.7757395e-06
65	0x385a10cd	5.1990897e-05
66	0xb78bdcd8	-1.667293e-05
67	0xb60d69d8	-2.1072246e-06
68	0xb79bf5ff	-1.859199e-05
69	0x38658ed5	5.4730877e-05
70	0xb627148e	-2.4896904e-06
71	0xb783eb23	-1.5725911e-05
72	0xb7138439	-8.792668e-06
73	0x3647c494	2.9767734e-06
74	0x3654992f	3.1679626e-06
75	0xb8075409	-3.2264772e-05
76	0x366eb780	3.5571575e-06
77	0x3657ae64	3.2139005e-06
78	0x39379d04	0.00017510733
79	0x36828aac	3.8904454e-06
80	0xb596e338	-1.1242e-06
81	0x36953314	4.4464923e-06
82	0x369d42e0	4.68675e-06
83	0xb795a6d4	-1.783987e-05
84	0x39696e04	0.00022261596
85	0x369dfcbc	4.7083868e-06
86	0x396a5e24	0.00022351049
87	0xb8c8e6c5	-9.579727e-05
88	0x36bd84ca	5.6480976e-06
89	0x373aef1a	1.1142134e-05
90	0xb89eeaf6	-7.577792e-05
91	0x34a46608	3.0621618e-07
92	0x38d0b524	9.951953e-05
93	0x383880be	4.398892e-05
94	0x34abd198	3.2003732e-07
95	0x35055a80	4.9678056e-07
96	0x396faab8	0.00022856414
97	0xb74d011f	-1.2219213e-05
98	0x385cafec	5.2615927e-05
99	0xb8d71db7	-0.00010257534
100	0xb775bdc7	-1.4647324e-05
101	0xb75e4d78	-1.3250268e-05
102	0xb71e650f	-9.441063e-06
103	0x34b7b50c	3.4218135e-07
104	0xb89fcea3	-7.6202e-05
105	0x37f63573	2.9350374e-05
106	0x34dbf124	4.0967382e-07
107	0xb7834ea9	-1.5653046e-05
108	0x371b3be8	9.252668e-06
109	0xb6bf4dd4	-5.701304e-06
110	0xb884413c	-6.306401e-05
111	0x38dc5da4	0.000105078594
112	0xb6e648a4	-6.8629906e-06
113	0xb8ac46f3	-8.2148144e-05
114	0x38254620	3.9404375e-05
115	0x3641cb67	2.8877637e-06
116	0x3789aa31	1.6410924e-05
117	0x38a26f30	7.745472e-05
118	0x3668c956	3.4687887e-06
119	0xb7817e34	-1.5436766e-05
120	0xb833aad8	-4.2836036e-05
121	0xb69b3b3f	-4.626257e-06
122	0x3809283d	3.270082e-05
123	0xb81fd971	-3.8111062e-05
124	0xb6b9e520	-5.5401033e-06
125	0x360ca287	2.095623e-06
126	0x37aa035c	2.0267144e-05
127	0x35d36d16	1.5752473e-06
128	0x3780946c	1.5327903e-05
129	0x36f2c592	7.2351622e-06
130	0x35fd9d10	1.889568e-06
131	0xb820f10d	-3.837147e-05
132	0xb8ce6570	-9.84174e-05
133	0x36834822	3.9125016e-06
134	0x3882fca5	6.245942e-05
135	0x388471e8	6.315467e-05
136	0x369caa04	4.6689547e-06
137	0x37d2d7ae	2.5134384e-05
138	0xb96e8238	-0.00022745959
139	0x37ab0095	2.038506e-05
140	0xb88f8c22	-6.844873e-05
141	0xb8534380	-5.0369184e-05
142	0x37cd3a14	2.446495e-05
143	0x381fa068	3.8057944e-05
144	0x366139d4	3.3561273e-06
145	0x35ec0b4f	1.7586661e-06
146	0x388184e1	6.17595e-05
147	0xb88f6cb1	-6.839017e-05
148	0x360e0b2f	2.1166159e-06
149	0x384f9755	4.9493585e-05
150	0x38faaf4e	0.00011953582
151	0xb6881e16	-4.0566183e-06
152	0xb822413a	-3.8684557e-05
153	0x391bc78c	0.00014856289
154	0xb6a21b74	-4.831172e-06
155	0xb8c0729d	-9.176622e-05
156	0xb8da2b96	-0.000104031686
157	0xb6954f25	-4.4497597e-06
158	0xb8446c38	-4.6830828e-05
159	0x3836b081	4.3556563e-05
160	0xb6b33214	-5.3404456e-06
161	0x35feab38	1.8974306e-06
162	0xb80a179d	-3.2923755e-05
163	0xb4e92a10	-4.3430236e-07
164	0xb809fd0f	-3.2899025e-05
165	0x3866ce3d	5.5028348e-05
166	0xb5048065	-4.936067e-07
167	0xb835487d	-4.3221273e-05
168	0xb8b97173	-8.842619e-05
169	0xb6f94848	-7.429193e-06
170	0xb91e8b04	-0.00015119842
171	0x38856d17	6.362254e-05
172	0xb7155475	-8.900756e-06
173	0xb73ca016	-1.1242946e-05
174	0x38507be7	4.9706458e-05
175	0xb691c738	-4.344529e-06
176	0xb74f7d3a	-1.2367318e-05
177	0xb924eae2	-0.0001572776
178	0xb6aa7f81	-5.081238e-06
179	0x38bec959	9.09741e-05
180	0x36455d58	2.940962e-06
181	0xb6badff7	-5.569305e-06
182	0xb83688a0	-4.3519423e-05
183	0xb87db084	-6.0484293e-05
184	0xb6e054d4	-6.6855955e-06
185	0x360f665c	2.1368242e-06
186	0x3936fbd3	0.00017450684
187	0x37458381	1.1772733e-05
188	0x3a050314	0.0005074006
189	0xb985cf69	-0.0002552227
190	0x376cf8ff	1.412467e-05
191	0x38476c48	4.7546142e-05
192	0xb85995b0	-5.187624e-05
193	0x36f7b448	7.382161e-06
194	0x38855922	6.3585365e-05
195	0x38235c8e	3.8948427e-05
196	0x37132cbb	8.772297e-06
197	0xb881c7bb	-6.188402e-05
198	0xb7b9f0cd	-2.216585e-05
199	0xb5491dde	-7.49218e-07
200	0xb88a9858	-6.608729e-05
201	0x38009b88	3.0662428e-05
202	0xb56e16c1	-8.869502e-07
203	0x37a255ec	1.9351915e-05
204	0xb94120d2	-0.00018418141
205	0x3751c252	1.25026145e-05
206	0x38884884	6.4984924e-05
207	0x380a3577	3.2951557e-05
208	0x377b91da	1.4994725e-05
209	0xb89426f6	-7.064447e-05
210	0xb9844b7c	-0.00025233242
211	0xb6a48431	-4.90297e-06
212	0xb944e5e3	-0.00018777656
213	0xb80593ca	-3.184731e-05
214	0xb6c47e35	-5.8559476e-06
215	0x3827ab1a	3.9975253e-05
216	0x380f57fc	3.41758e-05
217	0xb63e98f6	-2.8401241e-06
218	0xb889274e	-6.53999e-05
219	0x38144daf	3.53583e-05
220	0xb663eebc	-3.3964598e-06
221	0xb7dc068a	-2.6229089e-05
222	0x38cc5e57	9.74505e-05
223	0x3703fbd6	7.866844e-06
224	0x38a68722	7.940667e-05
225	0xb91ee87a	-0.00015154658
226	0x371e4199	9.432807e-06
227	0x38b5a4df	8.661462e-05
228	0xb8c3f5f2	-9.3441355e-05
229	0x36b4b28c	5.3852036e-06
230	0xb73f38b6	-1.1397691e-05
231	0x3849464e	4.798761e-05
232	0x36d7a164	6.4262877e-06
233	0x37e2cd20	2.7036818e-05
234	0x386d13ce	5.6523648e-05
235	0xb59ed1c6	-1.183297e-06
236	0x37dd4265	2.637617e-05
237	0xb8dc4350	-0.000105029554
238	0xb5bc168f	-1.4013657e-06
239	0x36defece	6.6457787e-06
240	0xb90da641	-0.00013508742
241	0x36da1d46	6.500314e-06
242	0xb7860f08	-1.5981044e-05
243	0x37e11711	2.6832831e-05
244	0x3702f57f	7.805763e-06
245	0x368eb670	4.2531683e-06
246	0xb722fd60	-9.714946e-06
247	0x361d6a12	2.3456564e-06
248	0xb87f92fa	-6.093362e-05
249	0xb73178d4	-1.0578155e-05
250	0x364152da	2.8807467e-06
251	0xb886fba4	-6.43649e-05
252	0xb7bcd9a8	-2.25127e-05
253	0x369a192a	4.592487e-06
254	0x38fdc440	0.000121005345
255	0xb915873b	-0.00014260125

exp_avg_sq f4 [128, 6]
0	0x330bc436	3.2541912e-08
1	0x2faaead9	3.108969e-10
2	0x33376c44	4.2706475e-08
3	0x32ca303d	2.3537831e-08
4	0x2ff607f0	4.475278e-10
5	0x32c3aa79	2.277851e-08
6	0x332aec0a	3.9795886e-08
7	0x2fb4cf34	3.2889036e-10
8	0x3326c33b	3.8827448e-08
9	0x32c00b96	2.235701e-08
10	0x30020b91	4.731016e-10
11	0x32b5377e	2.1096408e-08
12	0x32b7f617	2.1415913e-08
13	0x2f28bd1f	1.53467e-10
14	0x32a0f6e7	1.873873e-08
15	0x32398c71	1.080035e-08
16	0x2f72eda3	2.2094197e-10
17	0x327a211e	1.4559445e-08
18	0x331bdd68	3.6290118e-08
19	0x30029e11	4.751835e-10
20	0x33602e0e	5.219595e-08
21	0x330b01ea	3.23652e-08
22	0x303be506	6.8355666e-10
23	0x331b702c	3.619077e-08
24	0x33321cfb	4.1470212e-08
25	0x3004c4df	4.830109e-10
26	0x334ec8ec	4.814585e-08
27	0x331effad	3.7019777e-08
28	0x303f1090	6.950893e-10
29	0x33037d0f	3.0614554e-08
30	0x32ea6968	2.7289119e-08
31	0x2fa36de8	2.972762e-10
32	0x32d9fd34	2.5377268e-08
33	0x32ac8988	2.0085977e-08
34	0x2feb0d45	4.275568e-10
35	0x32b3ec62	2.0945837e-08
36	0x32854c19	1.5517843e-08
37	0x2f7e8dcb	2.315154e-10
38	0x32ea0361	2.7242722e-08
39	0x328a9d0e	1.6136735e-08
40	0x2fb7525e	3.3346031e-10
41	0x32b134a6	2.0629454e-08
42	0x331959e2	3.5704836e-08
43	0x2fc06167	3.4993805e-10
44	0x3324ac63	3.834101e-08
45	0x32d57cf5	2.4853287e-08
46	0x3009d89a	5.014812e-10
47	0x33053d1d	3.1022058e-08
48	0x32938ef1	1.7178055e-08
49	0x2f0ab0cb	1.2613836e-10
50	0x32858e9c	1.5548089e-08
51	0x32501b72	1.2113434e-08
52	0x2f472040	1.8110402e-10
53	0x3245e2a3	1.151844e-08
54	0x33246bf6	3.8282415e-08
55	0x2fab2c6c	3.1136282e-10
56	0x33062452	3.123234e-08
57	0x32f2ad3d	2.8251288e-08
58	0x2ff63c73	4.479009e-10
59	0x3305560f	3.1044745e-08
60	0x32e3ce0e	2.651998e-08
61	0x2f6e8071	2.1691605e-10
62	0x32d74785	2.5061818e-08
63	0x328e0994	1.6535331e-08
64	0x2fab6e52	3.1183106e-10
65	0x32add7f6	2.0238058e-08
66	0x323b7a6a	1.0912666e-08
67	0x2eeea698	1.085258e-10
68	0x327714ff	1.4382066e-08
69	0x32220511	9.430793e-09
70	0x2f2b9ed0	1.5608781e-10
71	0x323b5a74	1.0905399e-08
72	0x324137c0	1.1246755e-08
73	0x2eb35ec2	8.15681e-11
74	0x322b225d	9.961323e-09
75	0x3215890b	8.704101e-09
76	0x2f00c42d	1.1711228e-10
77	0x31f6427f	7.167102e-09
78	0x32ae353a	2.028047e-08
79	0x2f11c5c6	1.3257936e-10
80	0x3282c0a9	1.5221604e-08
81	0x32278aba	9.752222e-09
82	0x2f51f140	1.9094148e-10
83	0x322e11a0	1.01321405e-08
84	0x337db07b	5.906666e-08
85	0x3007eca0	4.944898e-10
86	0x338e5890	6.6285e-08
87	0x33308d75	4.1106848e-08
88	0x3043a2e2	7.1172057e-10
89	0x3318e1be	3.559557e-08
90	0x32941b97	1.7242014e-08
91	0x2f76bbc0	2.2440272e-10
92	0x32dbaf12	2.5574568e-08
93	0x328b2968	1.620056e-08
94	0x2fb16762	3.226957e-10
95	0x32971d9f	1.7592184e-08
96	0x34126f90	1.3637896e-07
97	0x305b6f44	7.9829854e-10
98	0x339445ba	6.90447e-08
99	0x337528fb	5.708078e-08
100	0x309dd5d7	1.148403e-09
101	0x338b7b26	6.4950925e-08
102	0x32494a33	1.1716611e-08
103	0x2ee61416	1.0462757e-10
104	0x323ad429	1.0874865e-08
105	0x321603e2	8.732032e-09
106	0x2f256458	1.5042312e-10
107	0x3206cd4e	7.846507e-09
108	0x334d91e0	4.7862954e-08
109	0x2fc40e21	3.5662232e-10
110	0x32f15386	2.8094075e-08
111	0x32e88469	2.7068568e-08
112	0x300d0f2d	5.131707e-10
113	0x32f1698c	2.810409e-08
114	0x335fe2fc	5.2127675e-08
115	0x2fc48745	3.5748307e-10
116	0x3338c99a	4.3024194e-08
117	0x32ea0062	2.724136e-08
118	0x300d5590	5.1417093e-10
119	0x33177a5b	3.526871e-08
120	0x3291dcb4	1.6980586e-08
121	0x2f43b2e6	1.7798704e-10
122	0x328f01d5	1.6648224e-08
123	0x323b4ff2	1.090301e-08
124	0x2f8c6f89	2.5545102e-10
125	0x3277efe8	1.4431841e-08
126	0x32fccfc3	2.943114e-08
127	0x2f67fbfe	2.1098853e-10
128	0x32d1afbb	2.4410715e-08
129	0x328b3c55	1.6209166e-08
130	0x2fa6e2a1	3.0356254e-10
131	0x32b0e7bc	2.0594477e-08
132	0x327d2230	1.47343115e-08
133	0x2f151310	1.3558243e-10
134	0x325fdc01	1.30303315e-08
135	0x322f91c7	1.0219487e-08
136	0x2f5683ed	1.9510056e-10
137	0x32211776	9.376768e-09
138	0x344c448c	1.9023918e-07
139	0x30adf8a5	1.2658076e-09
140	0x33d5b616	9.951707e-08
141	0x33c4a4e7	9.156957e-08
142	0x30fa52ab	1.821339e-09
143	0x33dc1cfc	1.02498205e-07
144	0x32eeedb7	2.7814947e-08
145	0x2f5fd5ab	2.0357642e-10
146	0x32b76399	2.1349296e-08
147	0x327dbcb1	1.4769442e-08
148	0x2fa1172f	2.9302202e-10
149	0x32af3d30	2.0400506e-08
150	0x336c2248	5.497921e-08
151	0x3056a092	7.808093e-10
152	0x33e9515e	1.08647086e-07
153	0x335c968b	5.135966e-08
154	0x309a66f7	1.1234239e-09
155	0x3389fd1d	6.425601e-08
156	0x328a8f73	1.6130548e-08
157	0x2ee86264	1.0567616e-10
158	0x321928ca	8.9150465e-09
159	0x320172f6	7.534927e-09
160	0x2f272d8e	1.5204746e-10
161	0x32031045	7.628903e-09
162	0x32331bfc	1.0425534e-08
163	0x2ebe0656	8.641325e-11
164	0x32428ef6	1.1324792e-08
165	0x31e63b95	6.7006547e-09
166	0x2f08a80a	1.2428827e-10
167	0x31e50539	6.665371e-09
168	0x329ff8c4	1.8623162e-08
169	0x2f14f704	1.3548279e-10
170	0x329e0c68	1.8399263e-08
171	0x328d9b12	1.6485078e-08
172	0x2f568108	1.9509028e-10
173	0x324e7b65	1.2018835e-08
174	0x33e336bc	1.0580467e-07
175	0x3099cd65	1.1190592e-09
176	0x33f87e92	1.1571423e-07
177	0x33acfa70	8.0549285e-08
178	0x30dd6dbf	1.6111058e-09
179	0x33f3d9cd	1.1355187e-07
180	0x3320f9d8	3.7480135e-08
181	0x2f9cfd3a	2.8556163e-10
182	0x331e7308	3.6891862e-08
183	0x32a610bf	1.9332559e-08
184	0x2fe1b9da	4.1059317e-10
185	0x32ea5f16	2.7284425e-08
186	0x34d2d074	3.9267218e-07
187	0x315a2252	3.1742684e-09
188	0x34cac48f	3.7768447e-07
189	0x34725e5a	2.2572331e-07
190	0x319ccf94	4.5637965e-09
191	0x349bb316	2.9001302e-07
192	0x32dc8d23	2.5675552e-08
193	0x2f7f2f94	2.3209018e-10
194	0x32be397e	2.2145056e-08
195	0x32a17283	1.879494e-08
196	0x2fb77e32	3.3377173e-10
197	0x32b2dfab	2.082364e-08
198	0x32308dde	1.0276805e-08
199	0x2eb18cfc	8.074072e-11
200	0x3205b9e9	7.78389e-09
201	0x321bb1b7	9.062595e-09
202	0x2eff5454	1.1611037e-10
203	0x31f676e0	7.173057e-09
204	0x33b9ec95	8.657768e-08
205	0x301b3e14	5.647689e-10
206	0x3386152a	6.243711e-08
207	0x33352377	4.21746e-08
208	0x305f6b4c	8.1279405e-10
209	0x3347df12	4.653618e-08
210	0x340b1794	1.2953961e-07
211	0x30ef47d1	1.740995e-09
212	0x344d117d	1.9098475e-07
213	0x33f6fd2c	1.15013194e-07
214	0x312c1341	2.5040239e-09
215	0x341f0280	1.4808938e-07
216	0x32a816bd	1.9568114e-08
217	0x2f048913	1.2054029e-10
218	0x32608afa	1.3070116e-08
219	0x32374d9d	1.0669649e-08
220	0x2f3eb1dd	1.7343589e-10
221	0x32623fd7	1.3169447e-08
222	0x32f61363	2.8646985e-08
223	0x2f8e218c	2.5853486e-10
224	0x32f58f78	2.8586996e-08
225	0x32c2220c	2.2600055e-08
226	0x2fcc79d5	3.719395e-10
227	0x32a4c666	1.9182334e-08
228	0x326a49bf	1.3637361e-08
229	0x2ee61770	1.04633524e-10
230	0x325d7c39	1.2892138e-08
231	0x320058cb	7.47077e-09
232	0x2f259a8a	1.5061566e-10
233	0x32238456	9.517938e-09
234	0x325e9352	1.29555975e-08
235	0x2f69ebbf	2.127498e-10
236	0x3322f154	3.793805e-08
237	0x32849e9f	1.5438955e-08
238	0x2fa84a7a	3.061194e-10
239	0x32a3bb66	1.9060916e-08
240	0x339a4568	7.183809e-08
241	0x302cef65	6.2913436e-10
242	0x3397eaf1	7.074221e-08
243	0x3350de8a	4.8631172e-08
244	0x3078b33c	9.047658e-10
245	0x336bbbdd	5.4886062e-08
246	0x33586c47	5.0389897e-08
247	0x302d7b05	6.3111855e-10
248	0x336db49f	5.5345136e-08
249	0x33257b8a	3.8529414e-08
250	0x3079699a	9.073574e-10
251	0x333c1c71	4.379803e-08
252	0x33099311	3.2031554e-08
253	0x2f93b22b	2.686574e-10
254	0x32ff6f11	2.9736414e-08
255	0x3289fa6e	1.6062781e-08

exp_avg f4 [128]
0	0x36c9075a	5.9911226e-06
1	0xb7bd7fc2	-2.2590048e-05
2	0x36d76d2a	6.4202077e-06
3	0x36b0b0d8	5.265796e-06
4	0x3683d2c7	3.928642e-06
5	0x381e7340	3.777747e-05
6	0xb759a868	-1.2973418e-05
7	0xb789ea1c	-1.6440688e-05
8	0xb8063560	-3.19978e-05
9	0x37ae6379	2.0788737e-05
10	0xb7d96ceb	-2.5919135e-05
11	0xb70b3bca	-8.298966e-06
12	0x3746ee3f	1.1857191e-05
13	0x37830d10	1.56225e-05
14	0x379deea8	1.8826991e-05
15	0x358f2ef8	1.0668e-06
16	0xb84cc8d0	-4.882441e-05
17	0x35b748a0	1.3655699e-06
18	0xb7bfe736	-2.287664e-05
19	0x3741fd1f	1.1562631e-05
20	0xb79ae99c	-1.8467013e-05
21	0x36d3583e	6.2985628e-06
22	0x37828daf	1.5563184e-05
23	0x38ab05bc	8.1549835e-05
24	0x36ecbd53	7.0553883e-06
25	0xb78716df	-1.6103904e-05
26	0xb7955465	-1.7801483e-05
27	0xb5dcd5ec	-1.6453537e-06
28	0xb7f8e218	-2.9669187e-05
29	0xb78e14ec	-1.6937462e-05
30	0xb7baf158	-2.2285312e-05
31	0x38457a29	4.708223e-05
32	0x37f54a8c	2.924099e-05
33	0xb6466842	-2.9564985e-06
34	0x3851a435	4.9982413e-05
35	0xb7a3be82	-1.9519826e-05
36	0xb73df19e	-1.1321534e-05
37	0x3803e152	3.144268e-05
38	0x37b3b127	2.1420956e-05
39	0xb69cbd71	-4.671216e-06
40	0x37da43d4	2.601921e-05
41	0x37211a54	9.602478e-06
42	0x379a8138	1.8418403e-05
43	0xb7300f7c	-1.0494023e-05
44	0xb7b8e41e	-2.2040735e-05
45	0xb6fbda68	-7.5058088e-06
46	0x3622e1e4	2.4271367e-06
47	0xb85cf01c	-5.2675707e-05
48	0xb7354486	-1.0804395e-05
49	0xb74b5f7c	-1.2121975e-05
50	0xb5e1b448	-1.6816275e-06
51	0x37d56204	2.543722e-05
52	0x37ace54c	2.0610772e-05
53	0x37df6998	2.6632842e-05
54	0xb80fd778	-3.4294528e-05
55	0xb63c1b98	-2.8030245e-06
56	0x381a9402	3.6854304e-05
57	0xb78fe564	-1.7153747e-05
58	0x36c81124	5.96246e-06
59	0x382bacf4	4.0930652e-05
60	0x366a18e2	3.48832e-06
61	0x3844829e	4.685169e-05
62	0x376f3057	1.4256765e-05
63	0xb77020b1	-1.4312726e-05
64	0x3755ab7c	1.2735716e-05
65	0x376dc7bd	1.4172806e-05
66	0x37bf8995	2.2833041e-05
67	0x369df628	4.707621e-06
68	0xb82e7f63	-4.160347e-05
69	0x37da7bc0	2.604525e-05
70	0x3725f592	9.891943e-06
71	0x37e6dad5	2.7520038e-05
72	0xb782b8e5	-1.5583306e-05
73	0x3701ce92	7.737095e-06
74	0xb6e6e92c	-6.881679e-06
75	0xb66c2840	-3.519017e-06
76	0xb5b14e70	-1.3210356e-06
77	0x34829d28	2.4328733e-07
78	0x3783e879	1.572467e-05
79	0x3771ca3e	1.4411808e-05
80	0xb6d5a5d0	-6.367198e-06
81	0x37eec7df	2.8464883e-05
82	0x3791c814	1.7378516e-05
83	0xb80275fa	-3.110429e-05
84	0xb829a404	-4.044549e-05
85	0x376215ca	1.3475723e-05
86	0x37a28190	1.9372237e-05
87	0x3742cc30	1.1610842e-05
88	0xb78c9856	-1.6760237e-05
89	0xb8b46212	-8.601336e-05
90	0x36374617	2.7309923e-06
91	0x37b1c0b1	2.1189773e-05
92	0xb7ffa226	-3.0473875e-05
93	0x36e60f84	6.8563404e-06
94	0x37c01a47	2.290042e-05
95	0xb845995c	-4.7111287e-05
96	0x3744c03d	1.1727269e-05
97	0x371afa17	9.237344e-06
98	0xb7a89a14	-2.0098909e-05
99	0xb761e556	-1.34644415e-05
100	0xb50949d8	-5.1143934e-07
101	0xb7c898d1	-2.3913019e-05
102	0xb77790b2	-1.4756037e-05
103	0xb785f758	-1.5970014e-05
104	0xb7859f31	-1.5928965e-05
105	0x35975f98	1.1278198e-06
106	0xb79194dc	-1.7354665e-05
107	0xb730a3f0	-1.0528587e-05
108	0xb7669feb	-1.3746302e-05
109	0x3605966e	1.9906106e-06
110	0x37872b21	1.6113338e-05
111	0x3773274e	1.449308e-05
112	0xb71b6a38	-9.263451e-06
113	0xb65aa698	-3.2581502e-06
114	0xb7b20a7d	-2.1224138e-05
115	0x38164637	3.582818e-05
116	0x36a0b892	4.7898584e-06
117	0xb58a9580	-1.0325311e-06
118	0xb74a4852	-1.2056977e-05
119	0xb8b184d4	-8.464759e-05
120	0x365000b2	3.099482e-06
121	0xb7d1e658	-2.5022004e-05
122	0x36b4fae9	5.393628e-06
123	0x384be052	4.8607886e-05
124	0x37879080	1.6160542e-05
125	0xb758d2aa	-1.2923652e-05
126	0x370385a8	7.839328e-06
127	0x380e293a	3.3893833e-05
