actualgame/Assets/NewLocomotionBrain.onnx (onnx, 99286 bytes, 8 tensors)

network_body._body_endoder.seq_layers.0.weight f4 [128, 47]
000000 d2 87 86 3e 05 f8 8b 3e 99 4a e1 3d 42 4d 1a be
       0.26275498 0.2733766 0.110005565 -0.15068534
000010 11 aa 8f 3d 1c 42 3a 3e 46 2e 76 be e1 0f 24 3e
       0.070148595 0.18189281 -0.2404109 0.16021682
000020 cf dd 55 bd 6c 26 4f bc 8a ef 1b 3d 98 a0 cb be
       -0.052213486 -0.012643438 0.03807024 -0.3977096
000030 4a b8 35 3d e7 4f 22 3c 72 01 c2 bd 6a b3 ab 3d
       0.044365205 0.0099067455 -0.09472932 0.0838383
000040 7f ef 8f 3d bb b5 5a 3c 30 a0 9e bc 00 48 96 bd
       0.07028102 0.013348992 -0.019363493 -0.07337952
000050 46 1e 1d 3e 47 a1 c1 bb b8 67 86 bc 7d 21 96 3e
       0.1534358 -0.0059091183 -0.016406879 0.29322425
000060 92 f8 b2 3d d8 f2 7d bc 27 90 32 bd c4 be 0c 3e
       0.08738817 -0.015499793 -0.043594506 0.13744646
000070 35 04 0b bd 97 d8 35 3e 5d 39 bf bd b1 9a 83 3e
       -0.03393956 0.17758404 -0.09337113 0.25703958
000080 9f e2 57 3e 56 04 50 bd 0e 0c 91 3d 95 b5 9e be
       0.21082543 -0.050785385 0.070823774 -0.3099791
000090 c0 82 c0 be 46 a6 b2 be 56 98 cd 3d 52 d9 21 3c
       -0.37599754 -0.34892482 0.100388214 0.009878473
0000a0 94 5a 36 3d 74 31 be bc 6e 50 df 3d 72 64 55 3e
       0.044519976 -0.02321694 0.109040126 0.20839098
0000b0 90 76 36 bd 30 02 32 be a0 ad 45 3e e1 1d 26 3e
       -0.044546664 -0.17383647 0.19304514 0.16222335
0000c0 44 a9 8e be 98 dc 3f 3e 83 15 21 bd 64 d6 5d 3e
       -0.27863514 0.18736494 -0.039327156 0.21663815
0000d0 4b 00 b5 bd 7e 62 5a 3e 86 ed 35 3e ea 99 74 3d
       -0.088379465 0.21326634 0.17766389 0.059717096
0000e0 f8 0b 4d 3d 75 df 88 bc bb 93 ec 3c cd 73 82 3e
       0.050060242 -0.016708115 0.028879037 0.25478974
0000f0 ed 49 22 be 39 3f 77 3d 82 be 45 3d 6d 24 0f be
       -0.15848513 0.06036303 0.048277386 -0.13978739
000100 a7 ba 63 be d7 8f d6 bd a3 e1 10 be 89 e8 88 be
       -0.22239171 -0.10476654 -0.14148574 -0.2673991
000110 aa 2b 87 be 2f 87 ff bd 93 c9 e9 bd cf 98 35 3e
       -0.264005 -0.12476956 -0.114154 0.17734073
000120 ce f3 40 bd 2f 87 f0 3d 0d 62 13 3e 34 4b 62 bc
       -0.04710751 0.11744534 0.14392872 -0.013811875
000130 55 6c 55 3d bb a3 e4 bd fb 21 47 3c 0b 1d 20 bc
       0.052105267 -0.111640416 0.012154098 -0.009772549
000140 64 23 fe bd 3e 5d 0e bd 49 98 55 bc 1f 66 52 be
       -0.12409094 -0.03475689 -0.013036796 -0.20546769
000150 05 97 d3 bd 66 19 c7 bc cf 2d 12 be 10 7e 40 bd
       -0.10331539 -0.024304103 -0.14275287 -0.046995223
000160 e4 d9 77 bd 3f 27 b1 3d b3 d9 71 3e 52 b8 7a be
       -0.06051053 0.08650064 0.23618202 -0.24484375
000170 6c e5 9f bd 31 75 50 be eb 0d b0 3a d4 17 58 bd
       -0.078074306 -0.20357205 0.0013431882 -0.0527571
000180 b5 82 6e be 20 91 1e 3e 54 e7 2b 3e 33 ee 10 be
       -0.23292048 0.15485048 0.16787463 -0.14153366
000190 a2 34 c5 3d 65 2f a3 be 6c 83 88 3e 54 55 d6 bc
       0.096291795 -0.31872097 0.26662767 -0.026163734
0001a0 c9 a6 b2 3d dc db 91 3d 7d 54 06 3e 0a f9 92 3e
       0.08723218 0.07122013 0.13118167 0.28705627
0001b0 16 a0 91 3d f0 9d df 3c fe bf 12 3e 7d f5 1e be
       0.07110612 0.02729699 0.14331052 -0.15523334
0001c0 60 75 99 3d 16 40 f9 3d 5d 07 68 bd 69 c4 29 3e
       0.07493091 0.121704265 -0.056647647 0.16578831
0001d0 93 bb b8 bc ca a8 15 bd f6 c5 8e bd fe de 1a be
       -0.02255038 -0.036537923 -0.06971352 -0.15124127
0001e0 4c 38 14 be ad 30 a4 3c 67 f7 9d 3d 6a a2 5f be
       -0.144746 0.020042742 0.07713204 -0.218393
0001f0 71 5a 75 bb 3d d0 b4 3c bd da f9 3d 3a 4e 90 bd
       -0.003743794 0.022071952 0.12199924 -0.070461705
000200 05 f1 63 be 1b bd 55 3d fe 7e 17 be 43 75 1d 3e
       -0.2225991 0.0521823 -0.14794537 0.15376763
000210 4f e9 7f 3d 81 5c d2 bd d9 f7 a2 bd 84 bd 90 bd
       0.06247836 -0.1027155 -0.079574294 -0.07067397
000220 32 29 65 bd 6f 0c e0 bd 46 30 eb 3d 11 36 0d 3d
       -0.05594749 -0.109398715 0.11483817 0.03447539
000230 40 c2 7e 3d ae b8 1a 3e 29 ee 51 be 20 8b 0e 3e
       0.06219697 0.15109512 -0.20501007 0.1392026
000240 d1 e0 e2 bd ee 32 76 3d 10 b0 a4 3e 3c 1b a1 bd
       -0.110780366 0.060107164 0.32165575 -0.07866523
000250 d5 b3 82 3e c5 6c 96 3d 82 98 06 3e fd 5e 70 3e
       0.25527826 0.07344965 0.13144115 0.23473735
000260 59 45 6f bd 62 f5 ac 3d 7e c8 20 be d7 1a d0 bd
       -0.058415744 0.084452406 -0.15701482 -0.10161369
000270 54 c4 0e be 8c 59 52 3e 9a 15 b6 be 50 6d e2 3d
       -0.1394208 0.20541972 -0.35563356 0.11056006
000280 8c a5 d2 be cf 5c f8 3c 64 0f b5 bd 62 e5 f4 3a
       -0.41141927 0.030317692 -0.08840826 0.0018684084
000290 32 5d 77 be 37 2b 91 be 55 79 73 bd 7d 8a d2 bb
       -0.24156645 -0.28353283 -0.059441883 -0.0064252005
0002a0 1f c2 46 bd 20 84 a8 be 88 77 99 3d d6 80 2e 3d
       -0.048524972 -0.32913303 0.07493502 0.042603336
0002b0 af ce b6 bc ae 53 37 3d 4f a3 d4 3d dc ba 0d 3e
       -0.022315351 0.044757538 0.10382711 0.13840812
0002c0 e0 01 8a be d0 d6 4a 3e 45 82 84 3b c4 30 1f bd
       -0.26954556 0.19808507 0.0040438497 -0.038864866
0002d0 c2 5f 95 3d 58 8b 73 3e ed 8d 65 3d 72 fe 65 be
       0.07293655 0.23783624 0.056043554 -0.22460344
0002e0 0b d7 85 3d b3 0a 83 bd 1d a6 3c 3e 69 fd a7 be
       0.06535157 -0.06398525 0.18422742 -0.32810524
0002f0 ef 27 dc bd 82 d4 fc bd 1e 63 8f 3e 4e 3f cf 3e
       -0.10749804 -0.1234522 0.28005308 0.40477985
000300 05 f7 88 bc 4e fd 09 be 9a fb 32 bd 8a 99 96 3c
       -0.01671935 -0.13475534 -0.043696977 0.01838376
000310 29 c7 94 3e 74 1b 9d be 7d 91 db 3d b8 ef 28 be
       0.29058197 -0.30685008 0.10721109 -0.16497695
000320 3d aa 10 be a2 2b d0 3c cd 80 24 be 95 ab 86 3d
       -0.14127441 0.02541143 -0.16064759 0.065756954
000330 fd 3f 97 be 3e 87 15 be f7 72 24 3e 4a 03 ae 3d
       -0.29541007 -0.14602372 0.1605948 0.08496721
000340 2b f1 99 3c ac ec 67 3e 25 cc 55 3e e5 67 d7 3c
       0.018791756 0.22648877 0.20878656 0.026294658
000350 a3 94 ba 3b b1 2f bc 3c 1b 19 85 be 67 f9 41 be
       0.0056939884 0.02297196 -0.25995716 -0.18942796
000360 d6 62 0f bd 71 0f 45 be bb 37 4e 3e 9b 56 2e bd
       -0.035006367 -0.19244172 0.20138447 -0.042563062
000370 d3 97 55 3d be 7e 9b be 68 ed 95 3e 88 e0 1a 3e
       0.052146744 -0.30370134 0.2928269 0.15124714
000380 c9 9c 32 3d 3a 7d bf 3e be c6 5e 3e 54 a7 14 3d
       0.043606553 0.37400228 0.21755502 0.03629239
000390 ff eb 62 be ce 5c ae bd 2d 00 e5 bd 9b b1 3c 3e
       -0.22160338 -0.08513795 -0.11181674 0.18427126
0003a0 34 45 8c bd dd d4 56 3e ac 45 04 3e ca 0d e0 3d
       -0.06849137 0.20979638 0.12917203 0.1094013
0003b0 64 a7 fd 3d 84 8f 14 3e 2e c5 3d 3d b3 c8 df 3d
       0.12385443 0.14507872 0.046330623 0.10926952
0003c0 cf a4 f1 3d c2 2e 9f be a1 8f 94 bd 9f 46 d1 3d
       0.11799013 -0.3109036 -0.072539575 0.10218548
0003d0 3d ff 4b bd 89 77 c7 3c 8a 83 4e 3d cc ed c1 3c
       -0.04980396 0.024348991 0.050418414 0.02367296
0003e0 e6 63 36 be 29 4c 57 bd 84 b2 9e be 10 72 1a be
       -0.17811546 -0.052562866 -0.30995572 -0.15082574
0003f0 80 35 4d 3d 3e 5b 4c 3c fb 2c 95 3d fc bd 56 3e
       0.05009985 0.012472926 0.0728397 0.20970911

network_body._body_endoder.seq_layers.0.bias f4 [128]
000000 a3 7f 61 3b 4d 95 bf 3c ee 5c 50 bc f8 3e ac 39
       0.0034408353 0.023386622 -0.012717469 0.00032853312
000010 ac a8 45 3c 23 2d b8 bc 0c 69 51 3c 3a 07 e7 3c
       0.01206414 -0.02248246 0.012781393 0.028201688
000020 b9 2a 06 3a 45 ae c2 3b da da 13 bc c8 16 8b 3c
       0.00051180605 0.0059411847 -0.009024346 0.016978636
000030 06 a0 1f 3c b3 f8 f4 bb 37 64 af 3c be 39 d5 bc
       0.009742742 -0.0074759363 0.02141009 -0.02602851
000040 a8 db a2 bc 99 ad 27 3d 91 2d aa 3c 73 e1 4f 3b
       -0.01988013 0.04093704 0.02077368 0.0031720072
000050 3b 1c e3 3b f4 50 47 3c 7f ff 26 bb b6 b1 da bb
       0.0069308556 0.012165297 -0.0025481877 -0.006674017
000060 61 b0 33 3a 18 b8 69 3c 2a 0b 92 3c b2 61 12 3c
       0.00068545906 0.014265083 0.017827589 0.008934425
000070 03 9a c2 3c b3 20 dd 3c df d3 0e 3d 8a 1e 0f 3d
       0.02375508 0.026993131 0.034870025 0.034941234
000080 12 a1 56 3c 23 ae f8 bc cd d5 ed 3b 4a 3b d5 bc
       0.013099926 -0.030356472 0.007258153 -0.026029248
000090 23 2b 36 3d e3 d2 91 bc a5 8e 6a 3d 1d cb e7 3c
       0.044474732 -0.017800754 0.057264943 0.028295094
0000a0 5c 44 84 bc 83 90 0c 3d 30 03 a9 3c b9 e9 41 3c
       -0.016145878 0.034317505 0.020631403 0.011835509
0000b0 f5 6a 3e 3d 80 26 f3 3a b8 25 12 bb 48 05 07 3d
       0.04648872 0.0018550903 -0.0022300314 0.03296402
0000c0 cf 6a b4 3c 94 aa 26 3d f6 97 83 bc bb 4c 11 ba
       0.022023587 0.04069002 -0.016063672 -0.0005542745
0000d0 c3 d3 ac 3b ee dd 62 3c f8 c6 f2 3c d0 2f d5 3c
       0.0052742674 0.0138468575 0.029635891 0.026023775
0000e0 59 c8 26 3c 28 62 9e 3c ea e9 26 3c 2a 04 9e bb
       0.010179603 0.019333914 0.010187605 -0.0048222737
0000f0 66 79 97 3c cb d8 95 bc e4 db 96 bb 52 38 20 3d
       0.018490504 -0.018291852 -0.0046038497 0.03911621
000100 da 34 bb 3c 39 14 4d 3c 78 a8 33 3d 94 d2 0f 3d
       0.02285235 0.0125170285 0.043861836 0.035112932
000110 cc 80 c7 3b dd 13 bb 3c 02 d6 7f 3b 00 4a d6 3c
       0.006088352 0.02283662 0.003903747 0.026158333
000120 08 7e 90 3b dd 07 f2 3c 3b 89 2d bc ef a6 d0 3c
       0.0044095553 0.029544765 -0.0105918 0.025470225
000130 0d 3c e5 39 be b9 14 3d d1 cd 26 3d e4 cd cb bb
       0.00043723025 0.03630995 0.040723626 -0.0062196124
000140 c9 0e 75 3c e3 a5 c7 3c 35 e6 18 bc 64 fd 91 3c
       0.014957138 0.024371093 -0.009332229 0.017821021
000150 87 47 24 3d 6f e4 2e 3d 25 f4 a7 bb 32 3c 55 3c
       0.040107276 0.04269832 -0.00512554 0.01301484
000160 0a e2 07 bd 1e 8c b0 3c 2e 34 f2 3c 86 38 c8 3b
       -0.033174552 0.021551188 0.029565897 0.0061102537
000170 e7 e4 04 3d 01 50 ae 3c 94 e8 83 3c f6 52 90 3c
       0.03244486 0.021278383 0.016102113 0.017617684
000180 fa ab e2 3c 46 67 d8 bc 2d 7f 9f bc 9a a3 1f 3d
       0.027669895 -0.026416432 -0.019469822 0.038974382
000190 81 c3 4a 3c ef fa 1c bc e4 7f 7c 3a e8 76 d9 bb
       0.012375713 -0.009581312 0.00096320943 -0.006636489
0001a0 46 04 76 3c e4 f2 0f bc 95 c2 30 3c 61 05 ca 3c
       0.015015667 -0.008785937 0.0107885795 0.024660768
0001b0 b8 6f 98 3a 1e 86 66 bc a4 8b e2 bc 43 3a 15 3d
       0.0011629974 -0.014070062 -0.027654476 0.036432516
0001c0 6f 31 e3 3c 06 bf 3f 3d 96 41 a6 3b 4e 04 5a 3c
       0.027733533 0.046813034 0.0050737364 0.01330669
0001d0 35 97 cd ba d9 0d 9e 3c 69 4a 1a 3c ae ba 18 3d
       -0.0015685322 0.019293712 0.009417155 0.037287407
0001e0 5f 26 ce 3c 0b 78 62 3d 1d 6d a2 3c 16 02 3b bc
       0.025164781 0.055290263 0.01982742 -0.011414072
0001f0 53 50 9d 3c ff 34 ca bc 7d e6 02 bc f6 52 eb 3c
       0.01920334 -0.024683474 -0.007989523 0.028726082

network_body._body_endoder.seq_layers.2.weight f4 [128, 128]
000000 d6 de a5 bb f2 68 1e 3e 4b 3b a2 bd c5 35 6a bd
       -0.0050619645 0.15469721 -0.079214655 -0.057180185
000010 2e 26 92 bd 14 a5 53 3d 52 7a fb 3d 23 2a 83 bd
       -0.071361884 0.051671103 0.1227919 -0.06404521
000020 c7 bb ad bc 98 76 04 be 01 11 51 3d 4a 47 20 3e
       -0.021207703 -0.12935865 0.051041607 0.15652195
000030 67 ec 98 bd 8d d4 51 3d a9 87 22 be a7 f9 33 3c
       -0.07466965 0.051228095 -0.15872063 0.010984815
000040 c9 d7 14 bd dd 5f e3 bc d7 0a 84 3d 60 e2 0e 3c
       -0.0363386 -0.027755672 0.0644738 0.008720964
000050 39 a9 2c 3e 1c 9e e4 bc 98 c0 9e 3d d0 c2 6e 3b
       0.16861428 -0.027907424 0.07751578 0.0036432035
000060 10 dc e2 3c 96 c8 88 3d 4c af 15 3d c5 4a 03 3d
       0.027692825 0.06678884 0.03654413 0.032053728
000070 c8 72 13 bc 8e a4 87 bd 68 54 f2 3d a2 b4 99 3c
       -0.008999534 -0.06623183 0.118325055 0.01876289
000080 ef f1 8c 3d f2 a4 04 be 1d 91 9d 3d 89 0a ba 3d
       0.06882083 -0.12953547 0.07693694 0.09084041
000090 66 b3 44 3e bc 9d 2d bd a8 15 ee bc f3 44 99 3d
       0.1920906 -0.042386755 -0.02906306 0.07483854
0000a0 b6 c1 29 3e 23 1c 4a be cd b5 c3 3d 91 5a 46 3d
       0.16577801 -0.19737296 0.0955616 0.048426215
0000b0 d0 b1 18 bb 3d 99 2d bc 8a 1a 0a bd 0a 55 f9 bc
       -0.0023299344 -0.010595617 -0.033716716 -0.030436058
0000c0 b9 91 ff bd 19 da 50 3e 4d 1e b9 bd dd 9c a7 3c
       -0.12478966 0.20395698 -0.090389825 0.02046054
0000d0 fc 7b d2 bc 34 d1 3e bc 25 42 88 3d eb a7 8e 3d
       -0.025693886 -0.011646558 0.06653241 0.069656216
0000e0 07 73 95 bb 7b dc 85 bd 30 b6 a4 bd dd 16 6d 3d
       -0.0045608315 -0.06536194 -0.08042562 0.057883132
0000f0 43 e2 3c 3e 25 16 ae 3c 9e fe 9e 3d 1b 84 d9 3d
       0.18445687 0.021250794 0.07763408 0.106209
000100 b2 a0 a4 bd a2 60 63 3d 3e 00 04 be a1 9a a7 3c
       -0.08038463 0.055512078 -0.12890717 0.020459475
000110 57 e0 ad 3d 86 1c a2 3d e8 c8 7d be 0e d1 ba bd
       0.08490055 0.07915597 -0.24783671 -0.09121905
000120 85 7f 89 3c 7d 2a 50 3d ec a1 06 3d 87 8d eb bd
       0.016784439 0.05082177 0.032869264 -0.115016036
000130 fc ee 01 3e 15 11 1f ba 03 c1 d0 bd 13 a6 c4 bc
       0.12688822 -0.0006067914 -0.10193064 -0.024004972
000140 5b 13 8e 3c 01 eb 2d 3e aa bf 07 3c 67 39 61 3d
       0.017343214 0.16984178 0.008285442 0.054986384
000150 89 c0 24 be e6 2e b7 bd 5d 10 1d 3d 37 33 8c bd
       -0.16089071 -0.08944492 0.038345683 -0.06845706
000160 fb 0d 81 3d 8c c2 28 3d c4 8b b5 bd 7b ee e6 3c
       0.06301495 0.04120116 -0.08864549 0.028189888
000170 de e1 19 3e 2c 29 64 be 6c e6 3f bd 0b 6f 2f 3b
       0.15027568 -0.22281331 -0.046850607 0.0026769068
000180 ac ae 25 bd 8d 40 0b bc 3a 4b b8 bc f3 57 ec 3d
       -0.040449783 -0.008499277 -0.022496808 0.115402125
000190 42 ef 4e be db 39 f7 3c cf ed d0 bc 13 e1 16 3d
       -0.20208457 0.030178955 -0.025504021 0.03683574
0001a0 d8 f4 ca bc 11 a3 90 3e ef 62 5b bd cd be 3f bd
       -0.024774954 0.2824941 -0.053561147 -0.04681282
0001b0 28 aa ea 3d 25 1c 01 3e b3 66 ae bc f2 fa 9b bd
       0.11458236 0.12608393 -0.021289205 -0.076162234
0001c0 ca 33 eb 3d aa 42 98 3d 3e ce 0d bd 57 7d 9d bc
       0.11484487 0.0743459 -0.034620516 -0.019224806
0001d0 38 c4 36 be d7 80 08 be 51 e2 81 bd 07 7f 3e bd
       -0.17848289 -0.13330398 -0.063419946 -0.04650786
0001e0 26 92 b7 bd ee 13 d8 3c 1a d7 f6 bd 08 9e 9c bd
       -0.089634225 0.02637669 -0.12052746 -0.076473296
0001f0 92 ce b9 3d 44 38 e9 bc 51 71 5b bd 54 96 24 be
       0.09072603 -0.028469212 -0.053574864 -0.1607297
000200 6e 75 25 3d c8 42 90 bd a5 ca 2e 3c 40 da ab bd
       0.040395193 -0.070439875 0.010668431 -0.08391237
000210 e1 b1 73 3b 63 0e c0 bd cd 15 69 bd 91 d1 aa bc
       0.0037184882 -0.09377744 -0.056905556 -0.020851882
000220 11 aa c2 3b 80 f2 ad bd cf 4d 7f 3c b0 d1 b3 3c
       0.0059406837 -0.08493519 0.015582516 0.021950573
000230 ff 9b 28 3e c4 98 e2 3d ca 3c 97 bd c1 2e f2 3c
       0.16465758 0.11064294 -0.073846415 0.02956331
000240 f6 01 fb bd 0a dd 01 3d 73 44 51 3e 44 81 e3 3b
       -0.122562334 0.03170494 0.20436268 0.0069429
000250 bc fd c1 3c a4 6e 7a bd bc 01 fd 3d 1a 81 3e bd
       0.02368056 -0.06114067 0.123538464 -0.04650984
000260 4d ac 50 3b aa 6a af bd c6 f9 19 be 64 6c f3 3d
       0.003184098 -0.085652664 -0.15036687 0.11885908
000270 cc e8 1c bd 2f f2 55 3c e2 f8 62 bd 45 68 fb bc
       -0.03830795 0.013058229 -0.055413134 -0.030689368
000280 13 55 be bc a2 ca 83 3d 80 b4 62 bd ca 1b b3 bd
       -0.023233926 0.064351335 -0.05534792 -0.08745535
000290 09 24 10 3e 93 fc 3e 3b df bf 8c 3c 0d a7 06 bc
       0.14076246 0.0029142245 0.017181335 -0.008218539
0002a0 6f 83 da 3d dd 64 2a bc df 68 6a 3c 88 d5 86 3d
       0.106696 -0.010400024 0.01430723 0.065836966
0002b0 5c 70 b7 bc 40 11 96 3d fb c8 4f 3d c0 76 08 3e
       -0.022392444 0.07327509 0.05072878 0.1332655
0002c0 38 31 7b bd f9 21 0c be ed 85 42 bb 10 e4 0e 3d
       -0.061326236 -0.13684835 -0.0029681877 0.034885466
0002d0 18 d8 b0 3c f0 2d b0 3d 6a 71 e4 bd 27 04 c6 bc
       0.021587417 0.08602512 -0.111544445 -0.024171902
0002e0 6b 11 12 bc 12 8e 2a be 76 42 90 bd d4 be a1 bd
       -0.008915286 -0.16655758 -0.070439264 -0.07897726
0002f0 09 29 08 bd 3f cb d7 bd 21 f1 0c 3c 51 69 f5 bd
       -0.03324226 -0.10536813 0.0086024115 -0.11982978
000300 db 06 51 bc 31 43 e0 bd 16 e4 c4 3d a4 fc 0e bd
       -0.012757982 -0.10950316 0.096138164 -0.034908906
000310 41 40 c0 3c 0f 9e 14 3b 7d 6f ee bd f0 a3 15 3e
       0.023468139 0.0022677218 -0.116423585 0.14613318
000320 e9 37 d1 b9 15 78 1d be 1d 91 28 3e 97 34 29 bd
       -0.00039905243 -0.15377839 0.16461606 -0.04130992
000330 c2 a5 0f 3d ed a9 64 be c5 e4 ab bd f0 b0 c1 3d
       0.03507019 -0.22330447 -0.08393244 0.09457576
000340 13 50 32 3b 21 3c 1a bd 1e a6 8b bc 20 a5 a7 bd
       0.0027208372 -0.037655 -0.017046984 -0.08185792
000350 d8 30 6a 3d 11 9b bd bd 35 f8 c7 bd e6 8c 39 3d
       0.057175487 -0.09258092 -0.097641386 0.045300387
000360 d9 16 95 bd 1d 61 ad 3d 2f 83 c0 3d 80 b9 d7 bd
       -0.072797485 0.084657885 0.09400021 -0.10533428
000370 eb 9b aa 3b 08 69 d6 bd 70 43 44 be a3 8b 00 bd
       0.005206575 -0.10469252 -0.1916635 -0.031383168
000380 29 00 3e bd 4a ca 5b bc 38 81 0b 3d a9 4c 07 3d
       -0.04638687 -0.013414929 0.03405878 0.033032093
000390 a4 e1 ad 3d 92 7d 74 bd 80 a0 63 3d 7e d6 24 3e
       0.08490303 -0.059690066 0.055572987 0.16097447
0003a0 06 94 39 3d 58 a7 04 3e 90 8a dd 3c da 25 8d 3d
       0.04530718 0.12954462 0.02704361 0.06891985
0003b0 71 51 66 3d 80 44 9b 3d cc 90 ce bc 7e 90 11 bd
       0.056230012 0.07581425 -0.025215529 -0.03553819
0003c0 a2 4f c2 3c eb 50 cb 3c 21 0a 1d 3b 9c 67 2b be
       0.023719613 0.024818858 0.0023962336 -0.16738743
0003d0 25 22 1b bd 88 bc 0c be 81 f5 92 bb 90 e6 c6 3c
       -0.03787436 -0.13743794 -0.0044848328 0.024279863
0003e0 85 ca 83 bd aa f7 ad bd 75 30 5a 3e 6e ef 77 3e
       -0.06435112 -0.08494504 0.21307547 0.24212429
0003f0 aa af e3 bc f1 87 30 3c c5 3e f2 bd e0 76 48 bd
       -0.027793724 0.010774598 -0.118283786 -0.048941493

network_body._body_endoder.seq_layers.2.bias f4 [128]
000000 c7 89 40 3c 24 39 85 bb 60 cd ae ba f7 77 39 3c
       0.011751599 -0.0040656496 -0.0013336353 0.011320106
000010 40 13 99 bb 29 45 88 b8 61 6c 08 3d 14 b5 67 bb
       -0.004671484 -6.4978674e-05 0.033306483 -0.0035355734
000020 87 da 89 3c 45 cc 0e 3d eb 1d 74 bc 98 f3 bc 3c
       0.016827835 0.034862775 -0.014899711 0.023065373
000030 c0 17 b3 bb 85 5c 97 3c 80 37 ae 3b 2a d3 8c 3c
       -0.0054654777 0.018476734 0.0053166747 0.017190535
000040 2f 48 d0 3c 9c 3a a6 3c aa 3f 60 bb 28 bd 9f 3c
       0.025425045 0.020291619 -0.0034217634 0.019499376
000050 69 d9 c0 3c 40 3d 52 3b 1e ee e0 3b 28 7a 80 3c
       0.02354117 0.0032079965 0.0068643233 0.015683249
000060 67 4b 22 3c 9e 1d 85 3c 05 a5 f0 3c f8 fd 9e 3c
       0.009905673 0.016249474 0.029375562 0.019408211
000070 0d 46 c7 ba cd 4a 85 ba d0 aa 97 bb f5 b0 bf 3c
       -0.0015203372 -0.0010169387 -0.0046285167 0.02339981
000080 1b 9e 94 3c c5 de 4b ba 47 54 3b 3c 43 14 f1 3b
       0.018141797 -0.00077770307 0.0114336675 0.0073571517
000090 44 65 a3 3c 6d 95 04 3d f2 04 de 3a 3a 1a c2 3c
       0.019945748 0.032369066 0.001693873 0.023694146
0000a0 3a d8 00 3d 2b b5 9f 3c 46 6a be 3c 81 b5 83 3c
       0.03145621 0.019495567 0.023244034 0.016077759
0000b0 ea 4b 8a 3c 2e 6e 1a 3d b6 75 c6 3b 30 25 f4 3b
       0.016881902 0.03770273 0.0060565127 0.007450722
0000c0 a3 b2 5f 3c 11 8f 5c 3c b8 6b eb 3b b9 eb 90 3c
       0.01365343 0.013461844 0.007184472 0.017690526
0000d0 b9 4b b1 3b 7a 5f c3 3b bc 83 43 3c b5 cd de 3c
       0.005410638 0.0059623094 0.011933263 0.027197698
0000e0 4f d3 a2 3b 4d b3 de 3c 86 7f fa bb b2 87 a7 3c
       0.0049690376 0.027185107 -0.0076445965 0.020450447
0000f0 ab 69 f4 3c 63 c5 db bb d8 a4 39 b9 4b c0 ca 39
       0.029835543 -0.00670688 -0.00017704384 0.00038671712
000100 0a 82 05 3c 82 26 e5 3c 88 9a c2 3c f9 1b 5e 3c
       0.0081486795 0.027972464 0.023755327 0.013556474
000110 97 fd 15 3b 5d bb be 3c 25 e6 c2 3c 52 e7 9d bb
       0.0022886747 0.023282701 0.023791382 -0.0048188353
000120 d3 02 86 bb 9d d0 09 3d db 58 01 bc 3b e0 2c 3c
       -0.004089692 0.033646215 -0.00789472 0.010551508
000130 d3 5d a8 3c 51 57 73 3c 59 55 a5 3c 68 a1 f1 3b
       0.020552551 0.014852361 0.020182298 0.0073739775
000140 33 ff 21 3a 55 23 7f 3c 98 6e 98 3c c5 38 b2 3b
       0.000617969 0.015572389 0.018607423 0.0054388964
000150 81 e2 9c 3b 3a f2 62 3c e0 1a 4f 3c 82 b7 03 bb
       0.0047877436 0.013851697 0.012640685 -0.0020098393
000160 77 4e b4 3c 35 6a ec 3c e3 2e fc bb 02 f1 b1 3b
       0.022010071 0.028859237 -0.007696019 0.0054303417
000170 fe 9a d0 3c 9b 2d 9b 3c c7 88 bf 3c b0 32 93 3c
       0.025464531 0.018942645 0.02338065 0.017968506
000180 3e 15 8a 3b 9f 29 0f b8 d5 6c 9e 3c d0 a4 10 3c
       0.004213958 -3.413262e-05 0.019339005 0.008828357
000190 4c 38 f8 3b 2d af fd 3c 6d bf 12 bb 77 b5 12 3d
       0.0075750705 0.03096732 -0.002239193 0.03581759
0001a0 2c 98 af 3c 6c 2b c5 3c 78 6b 8d bb 14 66 e9 3b
       0.021434866 0.024068557 -0.00431579 0.0071227644
0001b0 5c 00 44 3d 60 b8 24 3d a6 25 94 3c c6 14 7b 3c
       0.047851905 0.040214896 0.018084358 0.015324777
0001c0 e6 74 35 3c 97 9b 7f bc e6 cb df 3c 10 bd a0 3c
       0.011075234 -0.01560106 0.027318906 0.019621402
0001d0 8c 76 38 3d 5d d0 a6 3b 05 fc ec 3c c3 cc 41 bb
       0.04503493 0.005090757 0.028928766 -0.002957151
0001e0 93 89 4e 3c 48 c7 4e 3c 4a a5 1a 3d 1e da 10 3d
       0.012606042 0.012620755 0.03775529 0.035364263
0001f0 07 c7 be 3b ce 58 4a 3c 13 e2 3f 3c 1b 16 9f bb
       0.0058220658 0.012350274 0.011711615 -0.00485493

action_model._continuous_distribution.log_sigma f4 [1, 2]
000000 72 60 22 bd 2c cd 49 bc
       -0.03964276 -0.012316983

action_model._continuous_distribution.mu.weight f4 [2, 128]
000000 b8 13 7e bd cd 57 06 3c 77 f0 10 bd 88 7f a1 3d
       -0.062030524 0.008199644 -0.035385575 0.07885653
000010 d6 85 f0 3c ef 47 1d bd d9 c8 df 3c 1d 5e fa ba
       0.029360693 -0.03839868 0.027317451 -0.0019101534
000020 4b 57 bd bc 89 ae dd 37 03 4b 66 bb d0 86 97 bb
       -0.023112914 2.6426527e-05 -0.0035139925 -0.004624225
000030 c9 bf bc 3c e9 a6 1e bd d7 a9 6f bd d4 8d 93 bc
       0.023040669 -0.038733397 -0.05851158 -0.018011965
000040 5a 86 7d 3d 4e 06 0f bd c6 d6 92 3c 6e d5 5a bd
       0.061895706 -0.034918122 0.017924678 -0.0534262
000050 ea 80 87 3d be b3 26 3c 99 36 81 3d 12 18 23 3d
       0.06616385 0.01017469 0.06309242 0.039817877
000060 5a e7 92 3d 21 65 25 bd 95 f4 16 3d 03 bd 0d bd
       0.07173033 -0.040379647 0.036854345 -0.034604084
000070 53 3a 12 bd c4 04 78 3b bf d2 3c 3c 56 73 b0 bd
       -0.035700154 0.0037844637 0.011524855 -0.086157486
000080 29 36 93 3b 05 46 4b bc 43 c6 3b bd a0 e9 6f bd
       0.0044925404 -0.012406831 -0.045843374 -0.05857241
000090 80 f4 d9 bb b9 53 e2 bc 5a 45 4c 3b 1d 52 98 bc
       -0.006651461 -0.027627813 0.0031169266 -0.018593842
0000a0 a4 b3 a0 3d 3d 36 15 3d dd 70 24 bb ce 3a 93 3d
       0.07846764 0.03642868 -0.0025091686 0.071889505
0000b0 a4 0e a2 bc 0f c8 7f 3c 87 86 24 bd db 31 34 bd
       -0.019782372 0.0156116625 -0.040167358 -0.04399286
0000c0 cb 93 89 bd 54 34 ed bb 2e c9 19 3d 4b c4 25 3d
       -0.067176424 -0.007238904 0.037545376 0.040470403
0000d0 9d 16 34 bd e5 ec 16 3b a6 54 8d bc 8a 2b 98 3d
       -0.04396688 0.0023029384 -0.017252278 0.074301794
0000e0 89 2b f9 bc 60 45 9d 3d 03 0d cd 3c 32 31 49 3d
       -0.030416267 0.07679248 0.025030619 0.049119182
0000f0 1a 8f b6 bd 06 0e e5 3b 01 0d de 3c 3a 8a f1 bc
       -0.08914013 0.006990197 0.02710581 -0.029484857
000100 fb ac 23 3d 53 d5 b3 3c 96 27 eb bc e6 eb 24 3d
       0.03995989 0.021952307 -0.0287054 0.040264033
000110 60 17 dc 3c d2 56 bd 3d 22 f3 01 3b 56 03 82 3b
       0.026866615 0.09245075 0.0019828756 0.003967683
000120 83 3d 99 bc 9a 62 04 bc e6 77 02 3d f0 57 9b bd
       -0.018706089 -0.008080149 0.031852625 -0.07585132
000130 ae 07 3e bd 79 8d 1d bc f3 82 5f bb b6 a5 4f bd
       -0.046394043 -0.009616249 -0.0034105151 -0.050695144
000140 f1 de ec 3c 29 61 bb 3c 51 64 82 3d 30 78 82 bd
       0.0289149 0.022873478 0.0636679 -0.0637058
000150 22 9d 85 3c ae 77 26 3d 6d df 5e bd 3a 7a a6 bb
       0.016310278 0.04064148 -0.054412294 -0.0050804885
000160 64 a9 23 3d 79 9c c2 3d 9f 01 fa bb 27 c3 00 bd
       0.039956465 0.09502501 -0.007629588 -0.03143611
000170 ed 4c 23 3d 43 b9 18 3d 4e 22 9f 3d e4 28 6c 3d
       0.039868284 0.037286054 0.07770215 0.057656184
000180 4a a0 84 3c d3 62 0c 3d 80 ca 8d 3d 3e 49 73 3c
       0.016189713 0.034273934 0.069233894 0.014849005
000190 ae ae 8f bd 8b 50 4e 3d 29 91 fc 3b 80 e4 da 3c
       -0.070157394 0.05036978 0.007707734 0.026720285
0001a0 fa 65 fa 3c cb 2c 63 3d cc db 98 3c f3 2e d9 bc
       0.030566204 0.05546264 0.018659495 -0.026511645
0001b0 8e e9 5f 3d d0 0c 9a 3d 94 e4 f9 bc bc df 8c bd
       0.054666094 0.07521975 -0.030504502 -0.068786114
0001c0 f4 44 5f bc 80 4c 85 3c 13 45 e1 bd 8e 1a ae bc
       -0.01362728 0.01627183 -0.10999503 -0.021252897
0001d0 da 3f 0b bc 02 74 30 bd 52 41 22 3d e3 0f 0a bc
       -0.00849911 -0.043079384 0.039613076 -0.008426639
0001e0 93 c6 56 bd 5c 71 e0 bc 95 70 76 3c 47 46 95 3c
       -0.05243547 -0.027397804 0.01504149 0.018221987
0001f0 8f a5 a4 bc 24 78 e6 bc ac cc 59 bd a1 00 9c bc
       -0.020098476 -0.02813346 -0.053173706 -0.019043269
000200 ec 09 91 bc af 51 06 bc 06 29 48 bd 20 43 df bb
       -0.017704926 -0.008198186 -0.048867248 -0.006813422
000210 f0 28 4c bc 55 84 f7 bc 2c d8 81 3d ca f4 31 bd
       -0.012460932 -0.030214468 0.0634006 -0.04344634
000220 b6 c7 a0 3c 5f d9 90 3d 5f a0 cf bc b2 67 21 3d
       0.01962648 0.0707271 -0.025345026 0.039405532
000230 6a 40 1e bd 12 af 8c bd cf 09 73 bd c9 71 54 3d
       -0.03863565 -0.068693295 -0.059335526 0.051866326
000240 e3 97 ae bb 1c a0 23 3d b6 6a 50 bd b2 6b 46 bb
       -0.005328165 0.039947614 -0.050883017 -0.0030276594
000250 92 fb a5 3c 31 69 0a 3c 6c 74 16 bd 20 f4 9e b7
       0.02026156 0.008447931 -0.036732122 -1.8948747e-05
000260 57 b2 0a bd d4 59 ad bd c3 32 c1 3d 92 79 e3 3c
       -0.033861484 -0.08464399 0.0943351 0.02776793
000270 eb 3d fe bb 5b ce 40 3c ec cd e8 bc d5 59 42 3b
       -0.007758846 0.011767949 -0.028418504 0.0029655595
000280 88 25 41 3d 71 25 5d bd 1e 95 e1 b7 4c 43 10 bd
       0.047154933 -0.053990785 -2.6891528e-05 -0.03522043
000290 4e db c2 3c d7 db 8e 3d b8 70 0b 3c d6 87 05 3d
       0.023786213 0.06975525 0.008510761 0.032600246
0002a0 31 00 db 3c 42 2b cc 3c 27 d0 5f 3d ba bb bd bb
       0.02673349 0.02492297 0.05464187 -0.005790201
0002b0 53 9b 52 3d 9c 06 92 3d 2d 42 a8 bb c3 4c fb bc
       0.05141766 0.07130167 -0.005134842 -0.030676251
0002c0 b4 a4 a3 3c f1 74 21 3d 43 39 23 3d 82 0e ed 3c
       0.019975998 0.039418165 0.03984953 0.028937582
0002d0 6e 59 84 bd fb 93 83 3c 6e e3 23 3d ac 49 96 3c
       -0.0646237 0.016061774 0.040011816 0.018345676
0002e0 7b d4 d9 bc fe 25 ba b7 45 da ec bc 82 0a 3e 3d
       -0.026590576 -2.219062e-05 -0.028912673 0.04639674
0002f0 58 c7 7f 3c 22 2c 32 bd f9 df da bc 0c d5 84 bd
       0.015611492 -0.04349912 -0.026718127 -0.06485948
000300 4d 15 cb bb 51 a4 82 3d 96 55 6b 3d 62 8e 96 3c
       -0.0061976076 0.06378997 0.057454668 0.01837844
000310 97 32 fd bc 11 fa d1 3c 98 66 85 3d 9f 3c 09 bd
       -0.030907912 0.025631936 0.06513709 -0.03350508
000320 61 bf 19 bd f8 cb 75 3d b3 38 86 bb 4e 4d 72 bd
       -0.03753603 0.060008973 -0.0040961145 -0.059155755
000330 78 34 2d 3d 18 b8 ea 3c 29 fc 46 3d 9e ce 82 bc
       0.042286366 0.028652236 0.048580322 -0.015967663
000340 bb 77 9c 3c f3 5a f3 3c d4 61 00 3d 56 0f b2 bc
       0.01910006 0.029706454 0.031343296 -0.021735828
000350 36 84 bc 3c 48 c1 9a 3c cd 5c c5 3b 79 a8 9f bd
       0.023012262 0.018890992 0.0060230256 -0.077958055
000360 64 37 b6 3c 43 46 0d bb 89 8f 97 bc 35 c4 1b bd
       0.02224321 -0.0021556772 -0.01850106 -0.038028914
000370 2a bc a0 3d 79 f7 2c 3c ac 10 32 3d b3 78 d4 3c
       0.078483894 0.010557049 0.04347293 0.02593646
000380 77 65 1b 3c ac 92 e2 3a 45 a2 42 3c 5c 25 db 3c
       0.00948464 0.0017286143 0.011879508 0.026751213
000390 95 77 fd bb d3 14 7e 3d af c5 d7 bc 44 11 72 3d
       -0.0077352026 0.06203158 -0.02633938 0.059098497
0003a0 54 c4 cb 3c 7f 7f 0a 3d a3 8a 11 3c 48 4a 35 3c
       0.02487389 0.033812996 0.008883151 0.011065073
0003b0 f9 af 05 3d 7e 9e 3c 3c f8 5b 4f 3d 0a 33 f7 3c
       0.032638524 0.011512397 0.050624818 0.030175705
0003c0 d5 17 1b 3d 72 79 17 bb 27 9d 97 bc 62 93 18 3d
       0.037864525 -0.0023113159 -0.018507553 0.03724993
0003d0 9e ca 42 3d b3 e6 72 bd 65 d5 ab bc fd 1b 39 bd
       0.047556512 -0.059302043 -0.020975778 -0.045192707
0003e0 10 4c 2c bc ab 39 5d bd 66 60 ea 3c 41 d0 36 3d
       -0.010516182 -0.054010075 0.02861042 0.0446322
0003f0 95 dd 78 bd 6d b6 ad 3c fd 20 ac 3c d3 79 b4 bc
       -0.060758192 0.021205151 0.021011824 -0.022030747

action_model._continuous_distribution.mu.bias f4 [2]
000000 d2 98 9a ba 30 c2 3d 3c
       -0.0011794812 0.011581942

action_model._discrete_distribution.branches.0.weight f4 [1, 128]
000000 d1 ee 96 bc 2b 9a 17 3a 4f d3 ef bb 86 1f 33 3c
       -0.018424423 0.00057831657 -0.007318891 0.010932809
000010 e2 18 f0 bb 0a 36 f2 bb 0d 79 8f ba c8 be 95 bc
       -0.007327185 -0.007391696 -0.001094611 -0.018279448
000020 8b 67 e9 3b 8f 8b 69 ba db 81 51 3b b0 de b6 bb
       0.007122939 -0.00089090405 0.003196827 -0.0055807456
000030 e3 3d 42 b9 2f d6 f6 3b 63 11 26 3c 35 63 68 3b
       -0.00018524336 0.007532857 0.010135981 0.0035459523
000040 cd a1 65 bb 9f d6 f9 3b 4d f7 7d 39 45 ac a3 bb
       -0.0035039068 0.007624462 0.00024220087 -0.0049949014
000050 47 50 c0 bb 7b e5 3a 3b dd 53 31 bc 80 8c 84 bb
       -0.005868945 0.0028518129 -0.010823217 -0.004045069
000060 e3 d0 79 bb 5f b5 8b 3b 12 01 ef bb 6f 2b 8e 3b
       -0.003811889 0.0042635645 -0.0072938288 0.004338674
000070 cf 90 dc 3a db 3e f8 bb 47 85 99 3b cf 68 b6 ba
       0.0016827824 -0.0075758523 0.0046850774 -0.0013916733
000080 85 59 5d 3c eb 27 e2 3a 83 d3 fc 3b 42 e4 03 3b
       0.013510113 0.0017254328 0.007715644 0.0020125066
000090 93 bc c6 ba d9 61 8c bc c6 76 03 bc ef 6d 1f 39
       -0.0015162401 -0.017136501 -0.008023923 0.00015204375
0000a0 67 80 8b bb 73 20 d9 3a da 80 f0 3a 42 7e b5 ba
       -0.00425725 0.0016565457 0.0018348948 -0.0013846832
0000b0 4a 67 72 3c 62 34 cf 3b 97 34 57 3a cd c1 3e bc
       0.014795134 0.006323383 0.00082094356 -0.011642885
0000c0 bf 05 73 bb bd 6c 03 3c 78 53 ed bc f2 78 41 3c
       -0.0037082282 0.008021531 -0.028970465 0.011808621
0000d0 c2 bd f5 b8 4d 5d d2 bb a0 ce 61 3c 5b e1 21 3b
       -0.000117178555 -0.0064198137 0.013782173 0.0024700973
0000e0 f9 7d 9f 3c 47 c7 b2 b9 1c c9 3c 3b df 03 ea bb
       0.019469248 -0.0003409928 0.0028806394 -0.0071415748
0000f0 5f 20 ae 3b 9f fe 73 bb 3f 44 eb bb e9 9b 13 3b
       0.0053139175 -0.0037230623 -0.0071797664 0.002252335
000100 ff e8 3c 3b 90 16 6b 39 18 4b 58 bb ab cc c8 bb
       0.00288254 0.00022419752 -0.0033003744 -0.006127914
000110 83 81 f5 bb ef 90 b9 3b 97 aa 30 bc b7 0d e5 bb
       -0.0074922456 0.0056630294 -0.010782859 -0.0069901603
000120 13 3d 95 bb b7 f1 9f 3a d2 b1 ab 3a 08 26 f6 3b
       -0.0045543998 0.0012202774 0.0013099259 0.007511858
000130 ad fd 65 3c 47 2a 0a 3c 6d 1f 7e 3b ee 7a 84 3b
       0.014037532 0.008432931 0.0038776055 0.0040429747
000140 c5 0f d9 bb 88 f6 e7 3b 5e 79 1e bb b7 99 2e 3b
       -0.0066241943 0.0070789494 -0.0024181227 0.0026641914
000150 8e 8a c6 ba 4b 50 42 3c 03 21 07 3b 89 19 87 3c
       -0.0015147494 0.011859964 0.0020619042 0.016491668
000160 b3 32 6c bb fd 79 da 39 aa 38 db bb 5b 70 34 bb
       -0.0036040961 0.0004167109 -0.0066901045 -0.002753279
000170 df 6c fb ba ce fe 0c ba d5 3a 3a 39 9a af 68 ba
       -0.0019182226 -0.0005378545 0.00017760259 -0.00088762643
000180 ad 91 97 bc 03 de aa 39 3d 04 36 bc 2f b3 80 3c
       -0.01850208 0.00032590338 -0.011109409 0.015710441
000190 7d d0 d5 3b d7 8e 06 3b a2 09 41 3b a1 4b 85 bc
       0.006525098 0.0020531917 0.0029455204 -0.016271414
0001a0 25 6e d7 bb 4a 23 c7 ba f4 cd 2e bc fd aa 15 3a
       -0.0065744095 -0.0015193012 -0.01066922 0.0005709378
0001b0 7a 45 d9 bb 42 f1 f6 3b 25 c0 b3 3b e3 b7 4c b7
       -0.0066305967 0.0075360844 0.005485552 -1.2202162e-05
0001c0 83 54 dc 3b 6a 64 74 3c 29 04 02 bc 5c d0 08 3a
       0.006723942 0.014916519 -0.007935562 0.0005219036
0001d0 63 92 3e ba d3 30 45 3c 6a 60 02 3c 0f 66 3d bc
       -0.0007269738 0.012035566 0.007957557 -0.011559977
0001e0 45 5d 76 3c de a7 b1 3a 6f 6f 15 bc b8 94 e6 3b
       0.015036886 0.0013554057 -0.009120806 0.0070367716
0001f0 2c 49 33 bb 49 1e 36 bc 8f ca 07 bc 2e 31 05 3b
       -0.0027356846 -0.011115619 -0.00828804 0.0020323503
