actualgame/results/=PelletGrabberRun3/Agent Controller/checkpoint.pt (torch, 443874 bytes, 33 tensors)

network_body._body_endoder.seq_layers.0.weight f4 [128, 6]
0	0xbf3cf9bd	-0.7381857
1	0xbf25f4f3	-0.6482689
2	0xbf09ae42	-0.5378152
3	0x3eb2058a	0.3476985
4	0xbef8a7ab	-0.4856542
5	0xbe0c2f24	-0.13689858
6	0x3d2d0095	0.042236883
7	0x3f2799ac	0.6546886
8	0x3e4d42cc	0.20045012
9	0xbec92956	-0.3928935
10	0x3f19a987	0.60024303
11	0xbe662e05	-0.22478493
12	0x3de38c17	0.111107044
13	0x3eaaba1e	0.3334512
14	0x3de198a6	0.110154435
15	0x3efdb5bb	0.49552712
16	0x3df42508	0.11921126
17	0xbe15e9c0	-0.1463995
18	0xbef97233	-0.4871994
19	0x3f325dd1	0.696744
20	0xbf1cd6fc	-0.6126554
21	0x3f32b7c0	0.6981163
22	0x3f538389	0.8262258
23	0xbe31b756	-0.17355093
24	0xbe6a30c3	-0.22870164
25	0xbe4bfe98	-0.19921339
26	0x3ef9fd17	0.48825905
27	0x3f6816e2	0.90659916
28	0xbf4b3186	-0.7937244
29	0xbe73f4f2	-0.23823908
30	0x3e9d13ee	0.30679268
31	0xbeabbed4	-0.33544028
32	0xbde4946a	-0.1116112
33	0x3ee33191	0.44373754
34	0xbe405bfd	-0.1878509
35	0x3d396b62	0.045268424
36	0x3f245927	0.64198536
37	0xbe08f0cc	-0.13373107
38	0x3ea3b806	0.31976336
39	0xbeb8a3d7	-0.360625
40	0x3e3df54c	0.18550605
41	0x3df650d1	0.12027133
42	0x3e333bfc	0.17503351
43	0x3d00ba13	0.031427454
44	0x3e340e39	0.1758355
45	0xbebb9f26	-0.36644858
46	0x3d91d381	0.07120419
47	0xbc50bd43	-0.012740436
48	0xbf0eb5e1	-0.55746275
49	0x3ebe3e79	0.37157038
50	0xbe5d31a3	-0.21600966
51	0x3f5669a2	0.8375493
52	0x3e027cef	0.12742971
53	0xbe94f098	-0.29089808
54	0x3a87fb14	0.001037451
55	0x3dde63f2	0.10858907
56	0xbed3d97a	-0.4137686
57	0x3f09c2d5	0.53812915
58	0x3f018484	0.5059283
59	0xbd9680b0	-0.07348764
60	0x3f271fc4	0.65282845
61	0xbedf9f7b	-0.4367636
62	0x3f36020e	0.71096885
63	0xbf05f10c	-0.52320933
64	0x3ea837fd	0.32855216
65	0xbe5f6b21	-0.2181821
66	0x3ddc14e6	0.107461736
67	0x3ed2b905	0.41156784
68	0xbda2c85c	-0.07948372
69	0x3ee203eb	0.44143614
70	0xbf237fb0	-0.6386671
71	0xbeb2ea0f	-0.34944198
72	0x3ecddefd	0.4020919
73	0xbed6d942	-0.4196263
74	0xbedab0b2	-0.42712933
75	0xbe00692d	-0.12540121
76	0x3fa585e5	1.2931486
77	0x3e0c5f3c	0.13708204
78	0xbeb1286a	-0.34601146
79	0x3cfc1e01	0.030776026
80	0x3e77a733	0.24184875
81	0x3e6702f9	0.22559728
82	0x3ee27025	0.44226184
83	0x3eec3e77	0.46141407
84	0xbd7470dd	-0.059677947
85	0xbf3a746c	-0.72833896
86	0x3d8217e2	0.063522115
87	0xbf00b17d	-0.50270826
88	0xbe821174	-0.2540394
89	0xbdf7ef2d	-0.12106166
90	0xbe96c3d2	-0.29446274
91	0xbeddc6e0	-0.43315792
92	0x3f9e0ac0	1.2347031
93	0xbebc9417	-0.36831734
94	0xbdf1155c	-0.11771652
95	0x3ec4fb71	0.38473085
96	0x3eefc93f	0.46833226
97	0xbdbfe29b	-0.093693934
98	0x3e24be26	0.16088161
99	0xbebdae48	-0.3704703
100	0x3f5463ab	0.8296458
101	0x3e8ebf77	0.2788045
102	0xbece2c79	-0.40268305
103	0x3eea5f22	0.45775706
104	0x3e965a06	0.29365557
105	0xbe05c89b	-0.13064806
106	0xbe5d3a10	-0.2160418
107	0x3da16b56	0.07881801
108	0xbe23712a	-0.15961137
109	0xbee0919e	-0.43861097
110	0x3ef6bbd6	0.48190182
111	0xbee111ef	-0.43958995
112	0xbf90ffc9	-1.132806
113	0x3e34aaf3	0.17643337
114	0xbec7d502	-0.390297
115	0x3eaf2289	0.34206036
116	0xbef86ce6	-0.48520583
117	0xbe6920fd	-0.2276649
118	0xbe838419	-0.2568672
119	0xbe822300	-0.25417328
120	0xbdac9ebb	-0.08428713
121	0xbe047c47	-0.12938033
122	0xbd973fe9	-0.07385237
123	0xbe146dca	-0.14495006
124	0x3eca936e	0.39565605
125	0x3ead3346	0.3382818
126	0xbe0e96f5	-0.13924773
127	0x3ee512a3	0.4474078
128	0x3f35e5df	0.7105388
129	0xbdfe59f2	-0.124194995
130	0x3ae73676	0.0017640132
131	0x3f025541	0.5091134
132	0x3d700ab9	0.058603976
133	0xbdcfd6d3	-0.10148396
134	0x3e51d911	0.2049296
135	0xbe5258fe	-0.2054176
136	0xbce44326	-0.02786405
137	0xbdd2d49c	-0.10294458
138	0xbd8fa7f9	-0.0701446
139	0x3e8b21b4	0.2717415
140	0x3e3d4aeb	0.1848561
141	0xbf25513d	-0.64577085
142	0xbeaacbe9	-0.33358696
143	0xbec7dedc	-0.39037216
144	0xbf3394d3	-0.7014896
145	0x3b9619e0	0.0045807213
146	0xbdd175c8	-0.10227543
147	0x3ea4e070	0.32202482
148	0xbe8ced65	-0.27524868
149	0xbf4934b5	-0.7859605
150	0x3cb7d920	0.0224424
151	0x3d84486e	0.06459127
152	0x3f24276d	0.6412266
153	0xbf5258c6	-0.8216671
154	0xbd0b65bd	-0.034032572
155	0x3f160a05	0.5860904
156	0x3f8aaba2	1.0833628
157	0x3d236b44	0.03989722
158	0x3ea75552	0.32682282
159	0x3ec0ab6a	0.3763078
160	0xbe9ef1f9	-0.31043985
161	0xbe4f1ef5	-0.20226653
162	0x3c422828	0.011850394
163	0x3ecafc08	0.3964541
164	0xbd382ed2	-0.044966526
165	0x3f4bea3b	0.7965428
166	0xbf676a12	-0.90396225
167	0x3f34034e	0.7031754
168	0xbe38b903	-0.18039326
169	0xbce9914c	-0.028511666
170	0xbe2713e6	-0.16316184
171	0xbecda31d	-0.40163508
172	0xbe85f5be	-0.2616405
173	0x3e9499e2	0.29023653
174	0x3ec496cb	0.38396296
175	0x3f2e874e	0.6817521
176	0x3e115666	0.14193115
177	0x3f19fc1b	0.6015031
178	0xbf18fdf2	-0.5976249
179	0x3effed5c	0.49985778
180	0x3ea6cfb5	0.32580343
181	0xbe4c876c	-0.19973534
182	0x3e360725	0.17776163
183	0xbf401489	-0.75031334
184	0x3f9d6153	1.2295326
185	0xbe4b0d81	-0.1982937
186	0x3eaea906	0.3411333
187	0x3d9bdf1f	0.07610916
188	0x3edf5ffe	0.43627924
189	0xbe94a6cd	-0.2903351
190	0xbe53685a	-0.20645276
191	0x3e6b7538	0.22993934
192	0xbca669a1	-0.02031404
193	0x3f1e9d54	0.61958814
194	0xbda0c6a4	-0.07850388
195	0xbed4d273	-0.4156681
196	0x3ead7f96	0.33886403
197	0x3eff9e29	0.49925354
198	0xbe52e9d3	-0.2059701
199	0x3f059969	0.5218721
200	0x3f30a764	0.6900542
201	0x3f2a1c91	0.6644984
202	0xbd23a449	-0.039951596
203	0xbe9ca425	-0.30593982
204	0x3ef7b7b5	0.48382345
205	0x3f87c922	1.0608256
206	0xbeabda65	-0.3356506
207	0x3d934c5d	0.071922995
208	0xbe3d118d	-0.18463726
209	0xbe533b6e	-0.2062814
210	0xbe532350	-0.2061894
211	0xbef1a4a6	-0.4719593
212	0x3e0d8a4f	0.13822292
213	0xbea84d95	-0.3287169
214	0xbe95a9b3	-0.29231033
215	0x3e9b8d53	0.3038126
216	0xbe56c93d	-0.20975204
217	0x3f232e16	0.63742197
218	0x3eb322ce	0.3498749
219	0x3eed5de6	0.463607
220	0xbdc801d1	-0.097659715
221	0xbf33d990	-0.7025385
222	0x3ec32fec	0.381225
223	0x3dbe12ac	0.09280905
224	0xbea2d9a2	-0.31806666
225	0xbea431f3	-0.32069358
226	0x3f464c82	0.7746049
227	0x3dc676a0	0.09690595
228	0xbc8a6427	-0.01689346
229	0x3ec5a302	0.38600928
230	0xbf198290	-0.5996485
231	0xbf38a7e0	-0.72131157
232	0x3e46ab4b	0.1940128
233	0x3d85ed05	0.065393485
234	0x3e60cbe4	0.21952778
235	0x3e9cee1f	0.30650422
236	0xbe472b90	-0.19450212
237	0x3efcb81b	0.4935921
238	0x3f6a63b3	0.9155838
239	0xbf31b47d	-0.6941603
240	0xbe6472e2	-0.2230945
241	0x3e9be697	0.30449364
242	0x3e4de4d9	0.2010683
243	0xbe519dee	-0.20470402
244	0x3ec8d948	0.39228272
245	0x3e917f56	0.28417462
246	0x3f1bc5e6	0.60848844
247	0x3e4d6400	0.20057678
248	0xbed9dc92	-0.42551094
249	0xbedd51a7	-0.43226358
250	0x3ea73b65	0.32662502
251	0xbf23b312	-0.63945115
252	0xbe790bab	-0.24320857
253	0x3e54406f	0.20727704
254	0x3ece1617	0.40251228
255	0x3f84a95a	1.0364182

network_body._body_endoder.seq_layers.0.bias f4 [128]
0	0xbbec2842	-0.0072069475
1	0x3c0dd672	0.008657085
2	0x3c17a946	0.0092566665
3	0xbc331ed3	-0.010932642
4	0x3c2d4372	0.010575162
5	0x3bcb24df	0.0061994637
6	0xbaf2e4fd	-0.0018531379
7	0x3c268803	0.010164264
8	0xbc284775	-0.010270943
9	0x3c222fc9	0.009899088
10	0x3c1fd223	0.00975469
11	0xb99d817e	-0.00030041853
12	0xbbeb085a	-0.0071726264
13	0xbc005e11	-0.007834927
14	0xbc4b550b	-0.012410413
15	0xbb91736c	-0.004438808
16	0x3c50c571	0.012742386
17	0xbc75961a	-0.0149894
18	0x3c146065	0.009056185
19	0x3c2e81d4	0.010651071
20	0xbaf316e6	-0.0018546253
21	0x3b53db62	0.0032326807
22	0xbb88ed5c	-0.004178686
23	0xbc5b432f	-0.013382717
24	0x3a66e67c	0.00088081486
25	0xbbd0f725	-0.006377118
26	0x3c4e1b01	0.01257968
27	0x3aed1fee	0.0018091181
28	0xbc954c59	-0.018224882
29	0xbbd07ae7	-0.0063623074
30	0x3bc752e3	0.006082879
31	0xbc03d9b8	-0.008047514
32	0xbc5b06de	-0.0133683365
33	0x3c18e8ef	0.009332879
34	0x3c234def	0.009967311
35	0xbab16cdd	-0.0013536472
36	0xbb8da7f5	-0.0043230006
37	0x3c20cc29	0.009814301
38	0x3b5674c6	0.003272341
39	0x3c2eb4d9	0.010663235
40	0x3c360de3	0.011111709
41	0x3b9665c6	0.004589769
42	0x3c045b9c	0.008078482
43	0xbc70879f	-0.014680772
44	0xbc30ee4d	-0.010799003
45	0xbc457fe0	-0.012054414
46	0x3c4b4c57	0.012408338
47	0x3c30619d	0.01076546
48	0x3c3ac7d4	0.011400182
49	0xbc8723bf	-0.016496537
50	0x3bc8eb5c	0.0061315726
51	0x3c1f67cc	0.009729337
52	0x3c303eb6	0.010757139
53	0xbc562135	-0.013069441
54	0xbbf22529	-0.0073896837
55	0xbad1b8e0	-0.0016000532
56	0x3c20580f	0.00978662
57	0x3c4bfa6a	0.01244984
58	0x3c401e84	0.0117260255
59	0x3c224935	0.009905149
60	0xbb144d0a	-0.0022628927
61	0x3c1e49c0	0.009661138
62	0x3994d8c5	0.00028390266
63	0xbb96a9c9	-0.0045978767
64	0xbc01b42b	-0.007916491
65	0x3c6c20aa	0.014412085
66	0x3c45052b	0.012025158
67	0x3b22239c	0.0024740463
68	0x3c24eb1e	0.010065822
69	0x3c273606	0.010205751
70	0x3c2c83f2	0.010529505
71	0xbc1235d6	-0.008923968
72	0xbc49dc0e	-0.0123205315
73	0xbc1f32b3	-0.0097166775
74	0xbb3de980	-0.0028978288
75	0x3c11b73d	0.008893785
76	0x3c2eacbf	0.010661303
77	0x3c2e57b9	0.010641032
78	0x3c24e293	0.010063785
79	0xbc6fc316	-0.014633914
80	0x3a45c5c7	0.0007544425
81	0xbb06d007	-0.0020570771
82	0xbc22898e	-0.009920491
83	0x3bd43940	0.0064765513
84	0x3c1fb3db	0.009747471
85	0x3bdbfed0	0.0067137256
86	0x3af931c7	0.0019012027
87	0x3c29120f	0.010319247
88	0xbbd31ba0	-0.006442502
89	0xbc1ac6bd	-0.009446797
90	0x3c7ae34f	0.015312984
91	0x3b3604ee	0.0027773934
92	0x3c10377a	0.008802289
93	0xbc5cb5aa	-0.013471046
94	0xbb070c45	-0.0020606678
95	0xbab5b8c6	-0.0013864271
96	0x3bcd0be0	0.006257519
97	0x3abe2ce3	0.0014509227
98	0xbc481651	-0.012212352
99	0x3c4f98e3	0.012670728
100	0xbc242d83	-0.010020616
101	0x3c136d9c	0.008998301
102	0x3c66107a	0.014042014
103	0x3a7d97cc	0.00096738036
104	0x3c287ce6	0.010283684
105	0xbb8ce51e	-0.004299774
106	0xbc4170ef	-0.011806711
107	0xba0494cf	-0.00050575746
108	0xbc21a200	-0.009865284
109	0xbae74445	-0.0017644247
110	0xba3aea30	-0.00071302336
111	0xbc36a6fe	-0.0111482125
112	0xbc3255b2	-0.010884689
113	0x3a95a30f	0.0011416393
114	0x3b8ae98b	0.0042392663
115	0xbc24bceb	-0.010054807
116	0x3c5b406a	0.013382057
117	0xbc1fbd66	-0.009749746
118	0x3b30b623	0.002696403
119	0x3c6d0503	0.014466527
120	0x3c33d6cd	0.0109765055
121	0xbc479001	-0.012180329
122	0xbbe52576	-0.006992991
123	0x3c719193	0.01474418
124	0x3c0f35a5	0.008740817
125	0x3c420390	0.01184167
126	0x3c36ad28	0.011149682
127	0x3c1c67ac	0.009546202

network_body._body_endoder.seq_layers.2.weight f4 [128, 128]
0	0xbdb1b9d9	-0.08678026
1	0x3d579f68	0.052642256
2	0xbb0e24d9	-0.0021689443
3	0x3de10ade	0.10988401
4	0x3dba2bf1	0.090904124
5	0xbdb29f8e	-0.08721839
6	0xbd650580	-0.05591345
7	0x3d2c93a0	0.042132974
8	0x3dea1159	0.1142909
9	0xbe44bc7d	-0.19212528
10	0xbdd54a45	-0.104145564
11	0xbd892829	-0.06697113
12	0x3d1bf603	0.038076412
13	0x3c977c40	0.018491864
14	0xbca6bb9b	-0.02035313
15	0x3c9b8765	0.01898546
16	0x3d3140b6	0.043274604
17	0x3dc64f65	0.09683112
18	0x3d35296b	0.044228952
19	0x3df1b1fb	0.11801525
20	0xbcf44149	-0.029816287
21	0xbe130ece	-0.14361116
22	0x3d22f564	0.039784804
23	0x3c403fee	0.011733992
24	0x3c3d262e	0.011544747
25	0xbccf28af	-0.025287954
26	0x3e8e95c0	0.27848625
27	0x3c647af0	0.013945326
28	0x3d8857f5	0.066574015
29	0xbc8882fc	-0.01666402
30	0x3d6591be	0.056047194
31	0x3e0add75	0.13561042
32	0xbd8c9ad8	-0.068654716
33	0x3def7e84	0.11694053
34	0xbbf7c37e	-0.0075611463
35	0x3d8c58fc	0.0685291
36	0xbde4f073	-0.111786745
37	0x3d8eaf5b	0.0696704
38	0xbcfcfb58	-0.030881569
39	0xbaab35ec	-0.0013062335
40	0x3e1be9db	0.15225928
41	0x3d149ed4	0.036284283
42	0xbdc63cc9	-0.096795626
43	0x3c366c10	0.011134163
44	0xbe335eb3	-0.17516594
45	0x3dab2a25	0.08357648
46	0x3d8d296e	0.06892668
47	0x3d6cc059	0.057800625
48	0x3c92033b	0.017823806
49	0x3d910cab	0.07082494
50	0xbd0d5ef6	-0.03451439
51	0xbd9911b4	-0.0747408
52	0x3c50147d	0.012700197
53	0xbd8fd111	-0.07022298
54	0xbe199620	-0.14998674
55	0xbd72e7e4	-0.05930318
56	0xbdfbc512	-0.122934476
57	0xbdd3084b	-0.10304316
58	0xbddd8036	-0.1081547
59	0xbdd5c419	-0.10437793
60	0x3cf5b949	0.029995577
61	0x3dd991b6	0.10623495
62	0xbe3cdeb6	-0.18444332
63	0xbe26fc1d	-0.16307111
64	0xbc6f82ee	-0.014618618
65	0xbdb769f4	-0.08955756
66	0x3d653d52	0.055966683
67	0x3d193abc	0.03740953
68	0x3ce4d612	0.027934108
69	0xbcab4aa8	-0.020909622
70	0xbcd11cd2	-0.025526438
71	0x3d92ad28	0.07161933
72	0x3d8cdd3e	0.06878136
73	0xbcce9ef5	-0.025222281
74	0xbcbfa3d7	-0.023393555
75	0x3e018a90	0.12650514
76	0x3dfd533c	0.12369391
77	0xbe743008	-0.23846447
78	0xbe110e01	-0.14165498
79	0x3ddf462d	0.10902057
80	0xbd42ba43	-0.047540914
81	0x3dab0884	0.083512336
82	0xbd22b8bd	-0.03972696
83	0x3c94b531	0.018152805
84	0xbc87f388	-0.016595617
85	0x3d88fcc3	0.066888355
86	0x3d8124a4	0.06305817
87	0x3d2df8bb	0.042473536
88	0xbde36247	-0.11102729
89	0x3d9464d1	0.07245792
90	0xbd6c3f24	-0.057677403
91	0x3e076116	0.13220629
92	0xbba95fda	-0.005168897
93	0xbd2043b3	-0.039127063
94	0xbd325bc0	-0.04354453
95	0x3d26ed71	0.040753786
96	0xbd5b4456	-0.053531967
97	0x3e04a5e2	0.12953904
98	0xbdbbfc9a	-0.09179039
99	0x3d923bb4	0.07140294
100	0xbd462b99	-0.04838142
101	0x3d8718d4	0.065965325
102	0xbd5788af	-0.052620586
103	0x3cdcc1cf	0.026947884
104	0xbd4453d6	-0.047931515
105	0xbd57094e	-0.052499108
106	0x3d4312cd	0.04762535
107	0x3c400258	0.011719309
108	0xbd1b775a	-0.03795562
109	0xbd1d7a29	-0.03844658
110	0x3d8cbcf3	0.06871977
111	0xbd8a5e8e	-0.06756316
112	0x3cf33ef4	0.029693104
113	0xbaea8269	-0.0017891648
114	0x3dadb119	0.08481044
115	0xbd14efdd	-0.036361564
116	0xbde17690	-0.11008942
117	0xbe368bd7	-0.17826782
118	0xbdda4e09	-0.10659415
119	0xbd37f35c	-0.04490982
120	0x3d65d60a	0.056112327
121	0xbd8e15dd	-0.06937764
122	0x3dd171a1	0.10226751
123	0xbda1024a	-0.07861765
124	0x3bba25c8	0.0056807734
125	0xbdfbde14	-0.122982174
126	0xbd8371d1	-0.06418193
127	0xbddfb413	-0.10923018
128	0x3c30f763	0.010801169
129	0x3cc3ec71	0.023916455
130	0x3d5de422	0.054172643
131	0x3cd04ee8	0.02542825
132	0x3d254d6f	0.04035705
133	0xbdadeed2	-0.08492817
134	0xbcbc7c70	-0.023008555
135	0xbe4a8457	-0.19777046
136	0x3e68a143	0.22717766
137	0xbe20911f	-0.1568036
138	0x3b2db561	0.0026505815
139	0x3afd245d	0.0019313205
140	0xbe4fb887	-0.20285235
141	0xbd862a07	-0.06550985
142	0xbe426e35	-0.18987353
143	0xbce69962	-0.02814931
144	0xbc499884	-0.012304429
145	0x3db45d17	0.08806818
146	0xbe28e981	-0.16495325
147	0xbe05b420	-0.13056993
148	0x3cbca3ae	0.023027267
149	0x3c717d78	0.014739387
150	0xbc22874e	-0.009919954
151	0xbd01fd00	-0.03173542
152	0x3d2cf695	0.042227346
153	0xbd5307cb	-0.051521104
154	0x3ce62803	0.028095251
155	0xbe2de220	-0.16980791
156	0x3cba5995	0.022747794
157	0xbe21b7d5	-0.15792783
158	0xbe2069fc	-0.1566543
159	0x3c0f0546	0.008729285
160	0xbdc7d8da	-0.09758158
161	0x3d53e841	0.051735166
162	0x3d9f4532	0.0777687
163	0x3c4f6517	0.012658379
164	0x3c4270e7	0.011867738
165	0xbd8c84d2	-0.06861271
166	0xbd87132e	-0.06595455
167	0x3caf6b98	0.02141361
168	0xbd6b5368	-0.05745259
169	0x3d214b09	0.0393782
170	0x3ccd30cc	0.025047682
171	0xbe11a056	-0.1422132
172	0xbd1fa00d	-0.038970996
173	0xbdc7e053	-0.09759583
174	0x3d0e02e0	0.03467071
175	0x3d8254c2	0.063638225
176	0xbd88b301	-0.06674767
177	0xbdc1cab6	-0.09462492
178	0xbd65e2de	-0.05612456
179	0x3cdf2a26	0.027241778
180	0x3cfcd391	0.030862601
181	0xbe1c827f	-0.15284155
182	0x3ba1016b	0.004913499
183	0xbdd30364	-0.10303381
184	0x3d81135f	0.06302523
185	0xbdd7cbd3	-0.10536923
186	0xbd287240	-0.041124582
187	0xbd590004	-0.05297853
188	0x3d8a1a8f	0.06743347
189	0xbda66e0a	-0.08126457
190	0x3da8a0c3	0.08233788
191	0x3ccf2c34	0.025289632
192	0xbdbf2304	-0.093328506
193	0xbda50d45	-0.080591716
194	0x3d1599be	0.036523573
195	0x3cef7872	0.029232237
196	0x3d380204	0.044923797
197	0xbcef266f	-0.029193131
198	0x3d1dba51	0.038507763
199	0x3dfde161	0.12396503
200	0xbcc22fc3	-0.023704415
201	0xbdd01b63	-0.101614736
202	0x3e2310c9	0.15924372
203	0x3dad3227	0.084568314
204	0x3d8fc186	0.070193335
205	0xbda73907	-0.08165174
206	0x3d3a1d30	0.04543799
207	0xbc7d5684	-0.015462521
208	0x3cbb79e2	0.022885267
209	0xbcb5b19c	-0.022179417
210	0xbe0034a4	-0.12520081
211	0xbda1f0fe	-0.07907294
212	0xbb5988f2	-0.0033193198
213	0x3d136c77	0.035992112
214	0xbba31010	-0.00497628
215	0xbdf714e8	-0.120645344
216	0xbdfbe523	-0.12299564
217	0x3d948171	0.072512515
218	0xbd152042	-0.036407717
219	0xbe2ec311	-0.170666
220	0x3d4fa08a	0.05069021
221	0xbd386743	-0.045020353
222	0xbd403df8	-0.046934098
223	0xbc839273	-0.016061043
224	0xbd07bcb0	-0.03313893
225	0x3de23d83	0.11046889
226	0xbe0ea49c	-0.13929981
227	0xbd334ec5	-0.043776292
228	0x3d132ec8	0.035933286
229	0xbc96c1ba	-0.018402923
230	0x3d8d7d9f	0.06908726
231	0x3db94fce	0.09048425
232	0xbbeb1b87	-0.0071749124
233	0xbe0637dc	-0.13107246
234	0xbe71ba6f	-0.23606275
235	0xbcfc0ab4	-0.030766822
236	0xbd20e1c2	-0.0392778
237	0x3dd70ada	0.10500117
238	0xbda56af8	-0.08077043
239	0x3e37faea	0.1796681
240	0xbe4cd430	-0.20002818
241	0x3dc1e4f5	0.09467498
242	0x3d6a46af	0.057196315
243	0xbd8184d3	-0.06324162
244	0x3d00ed22	0.031476147
245	0x3cdbfaa7	0.026852919
246	0x3d8aa983	0.06770613
247	0x3cef87ea	0.029239614
248	0x3bd389de	0.006455644
249	0xbcbc5f36	-0.022994619
250	0xbd075ca7	-0.033047345
251	0x3d0fda47	0.035120275
252	0x3d9891cc	0.074496835
253	0x3dc795e8	0.09745389
254	0x3d49c7bf	0.04926276
255	0x3cf02375	0.029313782

network_body._body_endoder.seq_layers.2.bias f4 [128]
0	0xbc1e51c8	-0.009663053
1	0xbbeadacc	-0.007167196
2	0x3aa82059	0.0012827023
3	0xbc0bdd94	-0.008536715
4	0x3b77a76c	0.0037789
5	0xbc25f689	-0.010129579
6	0xbc3d5019	-0.011554741
7	0xbc434b19	-0.01191976
8	0x3be8730e	0.0070937937
9	0x3a1471e7	0.0005662725
10	0x3b1580ab	0.0022812288
11	0x3c446944	0.011987988
12	0x3c3c7d74	0.01150452
13	0x3b50cbf6	0.0031859851
14	0x3c1fc4a1	0.00975147
15	0x3c0a630a	0.008446464
16	0x3bf31f7b	0.0074195242
17	0x3b4c30eb	0.0031157087
18	0x3c2f716f	0.010708197
19	0x3c3170a4	0.010830078
20	0x3c4a3b3c	0.012343224
21	0xbc16bc42	-0.009200158
22	0x3c091b53	0.008368331
23	0x3a239a57	0.0006240955
24	0xbbab1ecc	-0.005222177
25	0xbc1f8432	-0.009736108
26	0x3c13b52f	0.0090153655
27	0xbb9dfa8b	-0.004821127
28	0xba4c501e	-0.0007793921
29	0xbba65400	-0.0050759315
30	0x3c12d800	0.008962631
31	0xbbd9c307	-0.0066455635
32	0x3c12a31c	0.008950021
33	0xbc05c6da	-0.008165086
34	0xbc268f9c	-0.010166075
35	0x3c108532	0.008820819
36	0x3c4c387a	0.012464637
37	0x3c40f2b0	0.011776611
38	0x3c1e12ad	0.009648007
39	0x3c18555b	0.009297694
40	0x3c237d52	0.009978609
41	0x3c3a2103	0.01136041
42	0xbb226ff8	-0.0024785977
43	0xbbcf681c	-0.0063295495
44	0x3b78e5e9	0.0037978834
45	0x3b6f475d	0.0036511042
46	0x3c14ea42	0.009089055
47	0x3b93ea72	0.004514032
48	0x39365e14	0.0001739192
49	0xbbb6c09c	-0.00557716
50	0x3bfad665	0.0076549524
51	0xbb924e06	-0.0044648675
52	0x3c1e1f65	0.00965104
53	0xbbe895d5	-0.0070979395
54	0xbb57836f	-0.0032884737
55	0xbb3d44db	-0.0028880152
56	0xba8e18af	-0.0010841097
57	0xbba12d28	-0.004918713
58	0xbb92158d	-0.0044581355
59	0xbae53eca	-0.0017490026
60	0x3c1537c2	0.009107532
61	0xbb8997c7	-0.0041990015
62	0xbbd1859e	-0.0063941022
63	0xbba37334	-0.0049880985
64	0x3bd7133e	0.006563573
65	0xbc3b656e	-0.011437757
66	0xba384059	-0.00070286315
67	0x3a0ff3c7	0.0005491343
68	0xbc064ea0	-0.008197457
69	0xbbb3105f	-0.005464598
70	0x3bd5e24a	0.00652722
71	0x3b197886	0.0023417785
72	0xba259288	-0.00063160853
73	0xbb8ec83d	-0.0043573664
74	0xbc68bd10	-0.014205232
75	0xbc1d3466	-0.009595012
76	0x3b5c64ff	0.0033629534
77	0xbc1cf6cb	-0.009580324
78	0xbbe77507	-0.0070635113
79	0xbc0c5fe0	-0.00856778
80	0xbbf2c6df	-0.007408961
81	0xbb8b99ed	-0.0042602927
82	0x3c4e47d7	0.01259037
83	0x3bca3d6d	0.0061718733
84	0x3ba98d64	0.005174326
85	0xba9f0dd3	-0.0012134857
86	0x3baf9048	0.005357776
87	0x3c334a7d	0.010943052
88	0xbabe3a09	-0.0014513145
89	0x3c284e77	0.010272614
90	0x3b939c31	0.0045047035
91	0x3b1c35c1	0.002383575
92	0x3bcf6520	0.0063291937
93	0x3bce348b	0.0062928847
94	0x3c4dcf1e	0.012561588
95	0x3b871bf7	0.0041232067
96	0x3bf10f18	0.0073565356
97	0xbc347d05	-0.011016135
98	0xbb49625c	-0.0030728793
99	0x3bdca9bb	0.0067341006
100	0x3b008591	0.0019610862
101	0x3c25e960	0.010126442
102	0x3bfaf6bd	0.007658808
103	0x3c031026	0.007999456
104	0x3c2b0d66	0.010440206
105	0x3bca6b28	0.006177325
106	0x3b910e36	0.004426743
107	0x3c34aca9	0.0110274935
108	0xbaabdabc	-0.0013111453
109	0x3aa823fa	0.0012828105
110	0xb909021b	-0.00013066122
111	0x3bccf928	0.0062552877
112	0x3ae09f9c	0.0017137411
113	0x3bec75ee	0.0072162068
114	0xbc2d7ff5	-0.010589589
115	0x3c12abb6	0.008952072
116	0x3bee05b3	0.007263863
117	0x3c468f55	0.012119134
118	0x3be1f81b	0.0068960316
119	0x3a74267c	0.0009313596
120	0x3c3ff638	0.011716418
121	0xbc1334e3	-0.008984777
122	0xbc0ed7f3	-0.0087184785
123	0x3c13a708	0.009011991
124	0x3bb9a013	0.0056648343
125	0x3c017b77	0.0079029715
126	0xbc16d7c5	-0.009206717
127	0xba7f57b0	-0.00097405445

action_model._continuous_distribution.mu.weight f4 [1, 128]
0	0x3833dacf	4.2880707e-05
1	0x3a42f5eb	0.00074371573
2	0xbc780430	-0.015137717
3	0xbae504ab	-0.0017472705
4	0xbc8da105	-0.017288694
5	0xbad3710f	-0.0016131717
6	0xbb9cd2a9	-0.004785855
7	0xbca0dda2	-0.019636933
8	0xbd229188	-0.03968957
9	0xbcb781ed	-0.02240082
10	0x3d0a6ce5	0.033795256
11	0x3d214b10	0.039378226
12	0x3cabde51	0.020980032
13	0xbd279b64	-0.040919676
14	0x3cfc6f87	0.0308149
15	0xbca5599b	-0.020184329
16	0x3d6101ac	0.054933235
17	0x3c1c03b4	0.009522367
18	0xbd295456	-0.041340195
19	0xbc8a27bd	-0.016864652
20	0xbd0d6b01	-0.034525875
21	0xbb0acacd	-0.0021178008
22	0x3c8c1ecc	0.017104529
23	0xbcb72bce	-0.022359755
24	0x3adbdf20	0.001677487
25	0x3c8a9872	0.016918395
26	0x3d044f1e	0.032302015
27	0xbc58289f	-0.013193279
28	0xbcd8cba3	-0.026464289
29	0x3b0f0cca	0.0021827691
30	0x3ccb62d6	0.024827402
31	0xba937490	-0.0011249948
32	0xbc5b7366	-0.013394212
33	0xbad0b8b8	-0.0015924191
34	0xbac70507	-0.0015183993
35	0x3d0ec96b	0.034860056
36	0xbd27cea4	-0.040968552
37	0xbd025638	-0.031820506
38	0xbcf32529	-0.029680805
39	0xbce78aa4	-0.028264351
40	0x3ccfa66e	0.025347915
41	0x3d093978	0.033502072
42	0x3940bfe4	0.00018382032
43	0x3b25e353	0.0025312498
44	0xbbe4e08c	-0.006984776
45	0x3c1848be	0.009294687
46	0x3c4962bc	0.0122916065
47	0xbcab912f	-0.020943252
48	0xbc877022	-0.016532961
49	0xbc125aee	-0.008932812
50	0x3c60602b	0.013694803
51	0xbc30c95b	-0.010790194
52	0x3c72480b	0.014787684
53	0x38416cd8	4.6116154e-05
54	0xbc8b8be0	-0.017034471
55	0xbba59ca5	-0.005054074
56	0xbc0a279a	-0.008432293
57	0x3bd30e84	0.0064409394
58	0x3b9639e8	0.0045845397
59	0x3b93928c	0.0045035537
60	0xbc862567	-0.016375257
61	0x3bd38b65	0.006455826
62	0x3a7a595b	0.0009550058
63	0xba2ec657	-0.0006667128
64	0x3cbbdf98	0.022933766
65	0x3bcec1c4	0.0063097198
66	0xbc8f4513	-0.017488992
67	0xbd0de09b	-0.03463803
68	0x3a94d758	0.0011355681
69	0x3c581364	0.013188217
70	0x3cf703c1	0.030153157
71	0x3b189de3	0.0023287467
72	0xbbe4b4c8	-0.0069795586
73	0xbb341907	-0.0027480738
74	0x3cb3039c	0.021852307
75	0x3cba7b4b	0.022763869
76	0x3c024b8a	0.00795258
77	0x3b0958a2	0.002095737
78	0x3d000589	0.03125528
79	0x3b1bdc26	0.0023782342
80	0x3b6b09fc	0.0035864105
81	0x3a369992	0.0006965633
82	0xbcda18a6	-0.026623081
83	0x3cce4c7e	0.025182959
84	0x3cb8bf94	0.02255229
85	0xbc368de9	-0.011142232
86	0x3c7b6ad2	0.015345292
87	0xbce83e15	-0.028349916
88	0x3c90a208	0.017655388
89	0x3d1004a9	0.035160694
90	0x3c4ae25e	0.012383072
91	0x3c504197	0.01271095
92	0xbcb5569e	-0.022136029
93	0x3cb4e5b3	0.022082185
94	0xbd0f5a1a	-0.034998037
95	0xbc06e80f	-0.008234038
96	0xbd683a6d	-0.056696344
97	0xbc2895f8	-0.010289662
98	0x3bc74b1f	0.006081953
99	0xbcb3a2ce	-0.021928217
100	0xbced8550	-0.028994232
101	0xbc88a51e	-0.016680297
102	0x3cbec8f9	0.02328919
103	0x3cb2d431	0.021829696
104	0x3ca4dbc8	0.020124331
105	0x3bde54b5	0.006785
106	0x3c179220	0.0092511475
107	0xbca8f1da	-0.020623136
108	0xbc7cc88a	-0.015428672
109	0xbc0b031b	-0.008484627
110	0x3c122fbf	0.008922516
111	0x3c500992	0.012697594
112	0xbc44cb5c	-0.012011375
113	0x3c50a880	0.012735486
114	0x3b7cedaf	0.003859382
115	0xbcd7a4bf	-0.026323674
116	0xbc8ea1e1	-0.017411174
117	0x3d2cbb89	0.042171035
118	0x3cec45af	0.028841821
119	0xbc550c5f	-0.013003438
120	0x3ccab4c1	0.024744393
121	0xbd02674d	-0.031836797
122	0xbb91f3e3	-0.0044541224
123	0xbcc2da89	-0.023785846
124	0x3cdbdd71	0.02683899
125	0x3cb138e4	0.021633573
126	0xba70ab76	-0.0009180823
127	0x3bb40e37	0.0054948586

action_model._discrete_distribution.branches.0.weight f4 [1, 128]
0	0xbbcbc037	-0.006217982
1	0x3a0f0183	0.00054552424
2	0xbc132bf5	-0.008982648
3	0x3cbb3397	0.022851748
4	0x3bbbd8d7	0.0057326364
5	0xbc23a46b	-0.009987931
6	0x3b197410	0.0023415126
7	0xbbaf9738	-0.005358603
8	0x3c8a8895	0.01691083
9	0xbbb68593	-0.0055701225
10	0x3aee6f52	0.0018191135
11	0xbb0a2df3	-0.0021084517
12	0x3a1b9095	0.0005934325
13	0x3bf0f710	0.007353671
14	0xbc41f16b	-0.011837344
15	0xbbb9fd9a	-0.0056759836
16	0xbbb05674	-0.0053813998
17	0x394e1dff	0.00019656865
18	0x3b8226a5	0.003971892
19	0x3ad06c7b	0.001590147
20	0x3c6cb303	0.014446977
21	0xbbfd73b3	-0.0077347397
22	0xbbb5fb73	-0.0055536567
23	0x3c2fccfc	0.010730024
24	0xbc6843e7	-0.014176345
25	0xbc8eb05f	-0.017418085
26	0xbc1cf50b	-0.009579907
27	0xbb89ba3a	-0.004203108
28	0xbbc88de3	-0.00612043
29	0x3afc14b7	0.0019232248
30	0xbc91f66c	-0.017817698
31	0xbbea7e63	-0.0071561798
32	0xbbe3f6c7	-0.0069569084
33	0xbc8e603c	-0.017379873
34	0x3ad9077f	0.001655802
35	0xbc1495ee	-0.009068949
36	0xbbe15920	-0.0068770796
37	0xba8bb737	-0.0010659461
38	0xbc1c1285	-0.0095259
39	0xbc816c33	-0.015798664
40	0x3bb76d07	0.005597714
41	0xbbc318aa	-0.005953868
42	0x3bd7ead7	0.0065892744
43	0x3bd016ca	0.006350373
44	0xbc975135	-0.01847134
45	0xbbfb0c73	-0.007661396
46	0x3c3334dd	0.010937897
47	0xbc265c1e	-0.010153798
48	0x3b9b6be2	0.0047430852
49	0x3c715bca	0.014731357
50	0x3c8f3e5a	0.017485786
51	0x3bcce612	0.0062530125
52	0x3c7270d8	0.014797412
53	0xbbfe2ae3	-0.0077565773
54	0xbc756b50	-0.014979199
55	0xbb47792e	-0.003043722
56	0xbb834aaf	-0.0040067057
57	0xbbb84660	-0.0056236237
58	0xbbe12382	-0.006870688
59	0x3be500f8	0.006988641
60	0x3b1afbc5	0.0023648601
61	0xbb838273	-0.0040133535
62	0x3c1f2b8d	0.009714973
63	0xbb670407	-0.0035250203
64	0xb9cc9f47	-0.00039028583
65	0xbc55eaed	-0.013056499
66	0xbb4c99a8	-0.0031219516
67	0x3bba5c46	0.0056872694
68	0x3b870cd9	0.0041214046
69	0xbbd9ce4f	-0.0066469084
70	0xb92e98f8	-0.00016650918
71	0x3c0bbfff	0.008529662
72	0xbb3cd8a9	-0.0028815663
73	0xbc5f702d	-0.013637585
74	0x3c138d59	0.009005868
75	0x3b2a9c75	0.0026033197
76	0x3c22d95b	0.009939517
77	0xbc45b14f	-0.012066199
78	0x3b64f937	0.0034938583
79	0xbc321afb	-0.01087069
80	0xbc395c3d	-0.011313495
81	0xb9e9d980	-0.00044603273
82	0xbc96f181	-0.018425705
83	0xbc4488a4	-0.011995468
84	0x3a931066	0.0011220097
85	0x3c6ad303	0.014332536
86	0x3caa5167	0.020790769
87	0xbbf852f7	-0.0075782496
88	0x39b1a228	0.00033880887
89	0xbce89870	-0.028393
90	0x3b7df7a7	0.0038752349
91	0xbc6291e2	-0.0138287265
92	0xbaace3cf	-0.0013190451
93	0x3be421f7	0.0069620567
94	0xbc1a1923	-0.009405407
95	0x3bd69b50	0.0065492764
96	0xbb96ae13	-0.004598388
97	0xbb9e902d	-0.0048389644
98	0xbc8816ba	-0.0166124
99	0xbbdfb9b8	-0.0068275593
100	0x3b6d4d22	0.0036209305
101	0xbb0cff35	-0.002151442
102	0xbc89f246	-0.016839158
103	0x3a737542	0.0009287187
104	0xbc28572b	-0.010274689
105	0xbc49eb69	-0.012324193
106	0x3b809d0e	0.0039249724
107	0xbc8b8e87	-0.017035736
108	0x3c42976a	0.01187692
109	0xbc38148f	-0.01123537
110	0xbb274791	-0.0025524835
111	0x37a63cfd	1.9817142e-05
112	0x3c22564d	0.009908271
113	0x3bfbe28b	0.007686918
114	0xbc2bf76d	-0.010496003
115	0x3c1f3885	0.009718065
116	0xbb984975	-0.0046474286
117	0x3cb48807	0.02203752
118	0x3ba27c9b	0.004958702
119	0xbb6de2ab	-0.0036298435
120	0x3b884073	0.0041580736
121	0x396aa08a	0.00022375784
122	0x3a0c8a8f	0.0005361223
123	0xbb47ece7	-0.0030506195
124	0x3b7fc26d	0.00390258
125	0xbc4051a2	-0.011738213
126	0xbc30c5d9	-0.010789358
127	0xbc005344	-0.007832352

exp_avg f4 [128, 6]
0	0xb80d6da7	-3.371914e-05
1	0xb72bc284	-1.02376835e-05
2	0x2dc1a3c4	2.2014286e-11
3	0xb9437fb2	-0.0001864422
4	0xb74e82be	-1.2308998e-05
5	0x00000000	0.0
6	0xb59ede30	-1.1836582e-06
7	0xb5e6ea6f	-1.7204565e-06
8	0x2ed2af9b	9.580888e-11
9	0xb827567e	-3.9896455e-05
10	0xb60cb6a7	-2.0967943e-06
11	0x00000000	0.0
12	0x394e8cb9	0.00019698114
13	0x37f33efa	2.8997183e-05
14	0xaf0f9352	-1.3058113e-10
15	0x39f732b3	0.00047149285
16	0x38121207	3.4825902e-05
17	0x00000000	0.0
18	0x3877d53d	5.9087983e-05
19	0x31bc0b80	5.4728275e-09
20	0xae62c177	-5.1558282e-11
21	0x35c85cd0	1.4928173e-06
22	0xb239d080	-1.0815825e-08
23	0x00000000	0.0
24	0x3a093375	0.0005233803
25	0x38bccd21	9.002747e-05
26	0xafc65aa3	-3.6080391e-10
27	0x3abe423d	0.001451559
28	0x38e2ccaa	0.000108146414
29	0x00000000	0.0
30	0x38cfa244	9.9007535e-05
31	0x37841057	1.5743235e-05
32	0xae924684	-6.6518374e-11
33	0x39868b7a	0.0002566239
34	0x379e9825	1.8905916e-05
35	0x00000000	0.0
36	0xb948ce7f	-0.00019150412
37	0xb7989203	-1.8187804e-05
38	0x2f7553fb	2.2312456e-10
39	0xb9a021cc	-0.0003054276
40	0xb7b77814	-2.1871216e-05
41	0x00000000	0.0
42	0x3820f922	3.8378996e-05
43	0xb5c3e4c0	-1.4595207e-06
44	0x2f0708b0	1.2281265e-10
45	0xb624062e	-2.4441501e-06
46	0xb5f1d982	-1.8019202e-06
47	0x00000000	0.0
48	0x3866b3e3	5.5003806e-05
49	0x369cce73	4.673196e-06
50	0xadfe49a8	-2.8909167e-11
51	0x38d7b804	0.000102862745
52	0x36bc2626	5.6072777e-06
53	0x00000000	0.0
54	0x39ab2aaf	0.00032647463
55	0x386a5795	5.5871515e-05
56	0xaf7eee21	-2.3185766e-10
57	0x3a6a38c5	0.0008934851
58	0x388cbe84	6.7112065e-05
59	0x00000000	0.0
60	0xb916ec7d	-0.00014393213
61	0xb77c3c45	-1.5034403e-05
62	0x2f910e82	2.6385655e-10
63	0xb91fa3b0	-0.000152244
64	0xb797ce71	-1.8096734e-05
65	0x00000000	0.0
66	0x392f9801	0.00016745926
67	0x37c34560	2.3278117e-05
68	0xaee6d48f	-1.0496947e-10
69	0x39c8056e	0.00038151018
70	0x37ea7f6e	2.7954313e-05
71	0x00000000	0.0
72	0xb8852c33	-6.350167e-05
73	0xb68b067c	-4.1432777e-06
74	0x2d6fc362	1.3628961e-11
75	0xb7970ce2	-1.8006602e-05
76	0xb6a5ea22	-4.94464e-06
77	0x00000000	0.0
78	0xb6f687a5	-7.3471624e-06
79	0x36a49d86	4.905919e-06
80	0xae24d005	-3.747404e-11
81	0x3756bb68	1.2799028e-05
82	0x36c5cabd	5.8946594e-06
83	0x00000000	0.0
84	0x36ef9cc2	7.141004e-06
85	0x363f829d	2.8537245e-06
86	0xad789d06	-1.4132034e-11
87	0x37266adc	9.919251e-06
88	0x3665a7e5	3.4221387e-06
89	0x00000000	0.0
90	0x38271643	3.9836636e-05
91	0x3670b294	3.5866733e-06
92	0x2e0bfa56	3.1827284e-11
93	0x388cae30	6.708165e-05
94	0x369002bb	4.2918523e-06
95	0x00000000	0.0
96	0x381b5d88	3.7041988e-05
97	0xb7297352	-1.0100035e-05
98	0x2f3ff46d	1.7458186e-10
99	0xb7f6c291	-2.9416087e-05
100	0xb74c5faf	-1.2181626e-05
101	0x00000000	0.0
102	0xb79cd1e0	-1.869438e-05
103	0xb3d7e576	-1.00534564e-07
104	0xadaf6ac1	-1.9942605e-11
105	0xb829e760	-4.0508225e-05
106	0xb3f5d368	-1.1447156e-07
107	0x00000000	0.0
108	0x38412b40	4.6055065e-05
109	0xb6321cec	-2.6540902e-06
110	0x2f57d806	1.9630883e-10
111	0x385028bc	4.9629e-05
112	0xb658e43f	-3.2319365e-06
113	0x00000000	0.0
114	0x38463e3d	4.7264843e-05
115	0xb6780db6	-3.696286e-06
116	0x2f3766d1	1.6680281e-10
117	0x3860b584	5.357481e-05
118	0xb6961eb9	-4.473925e-06
119	0x00000000	0.0
120	0xb6c9e3a8	-6.0167695e-06
121	0xb6eace6a	-6.997773e-06
122	0x2f0b49af	1.2668154e-10
123	0xb8904fb6	-6.8813024e-05
124	0xb70d7653	-8.431804e-06
125	0x00000000	0.0
126	0xb7fe8b7a	-3.0344108e-05
127	0xb6e7a8b5	-6.9039766e-06
128	0x2ed62dd9	9.7397375e-11
129	0xb8f40d14	-0.00011637263
130	0xb70b75ac	-8.312443e-06
131	0x00000000	0.0
132	0x36a5b40a	4.9383425e-06
133	0xb5b8b058	-1.3760391e-06
134	0x2e6730a0	5.2566507e-11
135	0xb7ee9b90	-2.844425e-05
136	0xb5e0ad95	-1.673982e-06
137	0x00000000	0.0
138	0x37e85c73	2.7699605e-05
139	0x3628c189	2.5146603e-06
140	0x2ea64da6	7.562599e-11
141	0x37deec19	2.6574404e-05
142	0x3648be8c	2.9913235e-06
143	0x00000000	0.0
144	0xb8098f8c	-3.2797034e-05
145	0xb718d125	-9.108601e-06
146	0x2e4c29f5	4.6421495e-11
147	0xb9174717	-0.00014426965
148	0xb737cc6e	-1.09552475e-05
149	0x00000000	0.0
150	0x37bf7691	2.2824186e-05
151	0xb575641a	-9.141528e-07
152	0x2ee271de	1.0297517e-10
153	0x37c40683	2.3368053e-05
154	0xb59691b4	-1.1218276e-06
155	0x00000000	0.0
156	0x39b0c779	0.00033717955
157	0x38890220	6.533065e-05
158	0xaf80ca63	-2.342687e-10
159	0x3a8884db	0.001041557
160	0x38a497c8	7.848401e-05
161	0x00000000	0.0
162	0x39656071	0.00021875069
163	0x3820b010	3.8310944e-05
164	0xaf268295	-1.5144004e-10
165	0x3a22ef48	0.0006215465
166	0x3841043b	4.6018726e-05
167	0x00000000	0.0
168	0xb7a92de9	-2.0167749e-05
169	0x360fae17	2.1409994e-06
170	0x2db7ed01	2.0909942e-11
171	0xb7554ba4	-1.2713401e-05
172	0x362c7a6c	2.5701256e-06
173	0x00000000	0.0
174	0x390e627c	0.00013578864
175	0x37d97531	2.5922987e-05
176	0xaec8f344	-9.13816e-11
177	0x39db2f00	0.00041805953
178	0x38029dc0	3.114133e-05
179	0x00000000	0.0
180	0x38726488	5.7790923e-05
181	0xb5d92218	-1.6177682e-06
182	0x2f31a7b8	1.6157642e-10
183	0x38c263c4	9.269224e-05
184	0xb604cc83	-1.9788574e-06
185	0x00000000	0.0
186	0xb8e333c7	-0.00010833848
187	0xb73e0890	-1.1326876e-05
188	0x2f146916	1.3497856e-10
189	0xb93afd22	-0.00017832642
190	0xb7647287	-1.36165245e-05
191	0x00000000	0.0
192	0x37a5f953	1.9785633e-05
193	0x360a36a0	2.0595398e-06
194	0x2e7dfb65	5.7748823e-11
195	0xb7bea957	-2.272862e-05
196	0x3623aad4	2.4388328e-06
197	0x00000000	0.0
198	0x39bfbf47	0.00036572872
199	0x3870fcec	5.745601e-05
200	0xaf8cd6ac	-2.5618385e-10
201	0x3a733a2b	0.0009278382
202	0x3890b8ba	6.900863e-05
203	0x00000000	0.0
204	0x3977cb39	0.00023631462
205	0x381b3068	3.699996e-05
206	0xaf449cf5	-1.7881858e-10
207	0x3a1c91f3	0.0005972676
208	0x383a632e	4.4438224e-05
209	0x00000000	0.0
210	0x37b6c48f	2.178762e-05
211	0xb613e03e	-2.2035233e-06
212	0x2ebbb9b2	8.5367616e-11
213	0xb30b21c0	-3.2394155e-08
214	0xb63334d4	-2.6703829e-06
215	0x00000000	0.0
216	0x392e7e4e	0.00016640985
217	0x37f0582e	2.8651291e-05
218	0xaf08de77	-1.2448163e-10
219	0x39ec06f1	0.000450186
220	0x3810570b	3.441334e-05
221	0x00000000	0.0
222	0xb786e5c8	-1.6081045e-05
223	0xb7508b5f	-1.2430216e-05
224	0x2f800655	2.3287564e-10
225	0xb8f87b98	-0.00011848583
226	0xb77b8faa	-1.4994215e-05
227	0x00000000	0.0
228	0x386a7e60	5.5907643e-05
229	0xb61ade29	-2.3077102e-06
230	0x2f54610f	1.931577e-10
231	0x387b4c95	5.9914386e-05
232	0xb63d4afc	-2.8206841e-06
233	0x00000000	0.0
234	0x39e3b7a2	0.0004343363
235	0x389f4070	7.593713e-05
236	0xafa2bb4a	-2.9600705e-10
237	0x3aa0a7af	0.0012257005
238	0x38bf4f64	9.1223774e-05
239	0x00000000	0.0
240	0x386ba705	5.6183915e-05
241	0xb6e7f7b8	-6.9131747e-06
242	0x2f771162	2.2470695e-10
243	0x373186e8	1.0581432e-05
244	0xb70c4a89	-8.362004e-06
245	0x00000000	0.0
246	0x38b91682	8.82568e-05
247	0xb53702da	-6.817696e-07
248	0x2e19d220	3.49748e-11
249	0x385f5ae9	5.325201e-05
250	0xb56464df	-8.5083406e-07
251	0x00000000	0.0
252	0x393441cd	0.0001719065
253	0x3809b75e	3.283412e-05
254	0xaee16125	-1.0249072e-10
255	0x3a0cf885	0.00053776085

exp_avg_sq f4 [128, 6]
0	0x335ed933	5.1885944e-08
1	0x2f579e36	1.9610344e-10
2	0x21528bf9	7.133602e-19
3	0x348016c2	2.3858416e-07
4	0x2f9a4cd5	2.806703e-10
5	0x00000000	0.0
6	0x33606f41	5.225525e-08
7	0x2ffa710f	4.5555068e-10
8	0x20ecf39e	4.0141167e-19
9	0x345621a5	1.9942543e-07
10	0x3033eb58	6.5454264e-10
11	0x00000000	0.0
12	0x34131831	1.3699243e-07
13	0x31360983	2.6489893e-09
14	0x21662970	7.7981873e-19
15	0x351073ec	5.381287e-07
16	0x3182c177	3.8054924e-09
17	0x00000000	0.0
18	0x32a01392	1.8635351e-08
19	0x2f8eac09	2.5951888e-10
20	0x2140f6a2	6.5378546e-19
21	0x339ddd2c	7.351113e-08
22	0x2fcce5c3	3.727064e-10
23	0x00000000	0.0
24	0x35b6d2c5	1.3621399e-06
25	0x32def8e3	2.5957382e-08
26	0x23718264	1.30922475e-17
27	0x36c8aebb	5.980806e-06
28	0x33201910	3.7275697e-08
29	0x00000000	0.0
30	0x32f5b9ad	2.860619e-08
31	0x30293f8b	6.157214e-10
32	0x20105300	1.2224737e-19
33	0x33ecba73	1.1023521e-07
34	0x307329fc	8.846255e-10
35	0x00000000	0.0
36	0x34b54238	3.3762058e-07
37	0x308c4da4	1.0208407e-09
38	0x22561400	2.9012996e-18
39	0x358965b5	1.0236896e-06
40	0x30ca2c14	1.4709962e-09
41	0x00000000	0.0
42	0x33be237b	8.854018e-08
43	0x30b80e29	1.3391787e-09
44	0x2019fbf7	1.3042972e-19
45	0x34cb760e	3.7897593e-07
46	0x3104267b	1.9230402e-09
47	0x00000000	0.0
48	0x335e8f3b	5.181867e-08
49	0x300ea926	5.1899673e-10
50	0x221cdaa4	2.125769e-18
51	0x341b9975	1.4491327e-07
52	0x304d4b0d	7.468522e-10
53	0x00000000	0.0
54	0x34e49f99	4.2584432e-07
55	0x320a9166	8.065717e-09
56	0x2217b8d1	2.0562157e-18
57	0x3602575f	1.9422366e-06
58	0x3246f747	1.1581341e-08
59	0x00000000	0.0
60	0x34df715c	4.1619467e-07
61	0x30d5f2c0	1.5566783e-09
62	0x228a4d90	3.7487097e-18
63	0x35a74dac	1.2465075e-06
64	0x31198965	2.234253e-09
65	0x00000000	0.0
66	0x3381b189	6.039324e-08
67	0x30b2a446	1.2997894e-09
68	0x2044eec2	1.6680844e-19
69	0x3477529f	2.3033725e-07
70	0x3100502b	1.8672022e-09
71	0x00000000	0.0
72	0x329b370a	1.8069404e-08
73	0x301e139c	5.750793e-10
74	0x20ce1bdb	3.491619e-19
75	0x341771ac	1.4104324e-07
76	0x30629c5d	8.2440527e-10
77	0x00000000	0.0
78	0x324038ba	1.1188769e-08
79	0x2e4e6763	4.6930803e-11
80	0x20901695	2.4409492e-19
81	0x33195275	3.5698083e-08
82	0x2e9481f0	6.753342e-11
83	0x00000000	0.0
84	0x329b58a2	1.808468e-08
85	0x2f2d92be	1.5786392e-10
86	0x214e73f3	6.994897e-19
87	0x3369d584	5.444373e-08
88	0x2f79c585	2.2716591e-10
89	0x00000000	0.0
90	0x321893aa	8.881139e-09
91	0x2fe1a5f8	4.104519e-10
92	0x1f11e927	3.0897803e-20
93	0x32dfa338	2.603484e-08
94	0x30222c4a	5.8998195e-10
95	0x00000000	0.0
96	0x347d8ac5	2.3612945e-07
97	0x311473ae	2.160259e-09
98	0x21a083ae	1.0876877e-18
99	0x35834dff	9.78296e-07
100	0x3155422e	3.1033198e-09
101	0x00000000	0.0
102	0x322f074b	1.0187999e-08
103	0x2f017085	1.1772457e-10
104	0x20ccccf6	3.4694576e-19
105	0x32fd843c	2.951321e-08
106	0x2f3a02e6	1.6917631e-10
107	0x00000000	0.0
108	0x349ffcfc	2.9800128e-07
109	0x3180bef9	3.7470014e-09
110	0x2202baf0	1.771725e-18
111	0x357d6a10	9.4404186e-07
112	0x31b920dc	5.3879443e-09
113	0x00000000	0.0
114	0x34a757a8	3.1169952e-07
115	0x318a1437	4.0186268e-09
116	0x22a0acdd	4.3551113e-18
117	0x35852e35	9.92272e-07
118	0x31c69dc4	5.7804943e-09
119	0x00000000	0.0
120	0x33f7ec7e	1.15448515e-07
121	0x302c7bf0	6.274936e-10
122	0x20ab8d58	2.906206e-19
123	0x34ddf2b8	4.134106e-07
124	0x30783e63	9.031053e-10
125	0x00000000	0.0
126	0x338b3705	6.4827e-08
127	0x2f89ca26	2.506379e-10
128	0x2092d4cf	2.4874187e-19
129	0x348826be	2.5360163e-07
130	0x2fc66517	3.608782e-10
131	0x00000000	0.0
132	0x3264915e	1.3304399e-08
133	0x2f0a3a44	1.2571727e-10
134	0x207dd76a	2.1501208e-19
135	0x335b5986	5.1071332e-08
136	0x2f46b249	1.8071335e-10
137	0x00000000	0.0
138	0x32d97a2d	2.5317684e-08
139	0x2ffebcd8	4.6336512e-10
140	0x201bcb16	1.3196206e-19
141	0x33a27578	7.56508e-08
142	0x303717b6	6.660871e-10
143	0x00000000	0.0
144	0x338a4b7f	6.4398584e-08
145	0x2f42e4e9	1.7725522e-10
146	0x21555152	7.2274834e-19
147	0x3493ccf1	2.7529998e-07
148	0x2f8ba118	2.5398417e-10
149	0x00000000	0.0
150	0x336febd1	5.5860998e-08
151	0x3039ea93	6.763596e-10
152	0x202fc9d9	1.4889862e-19
153	0x34317c37	1.6529599e-07
154	0x3085b65b	9.728852e-10
155	0x00000000	0.0
156	0x353aba1a	6.9561213e-07
157	0x326d4196	1.3810128e-08
158	0x2302dfc0	7.094695e-18
159	0x36606637	3.3438098e-06
160	0x32aa51b9	1.9827768e-08
161	0x00000000	0.0
162	0x341be26d	1.4517873e-07
163	0x315f1f43	3.2468541e-09
164	0x20cb4876	3.4437488e-19
165	0x353f86d7	7.134926e-07
166	0x31a02ba7	4.6615756e-09
167	0x00000000	0.0
168	0x31f830fc	7.223319e-09
169	0x2f1276f0	1.3320878e-10
170	0x2103c04e	4.463904e-19
171	0x32edb00b	2.7670486e-08
172	0x2f52a487	1.915784e-10
173	0x00000000	0.0
174	0x3338de95	4.3043276e-08
175	0x308fe00f	1.0468301e-09
176	0x1fe320b7	9.619236e-20
177	0x3485d85a	2.4930597e-07
178	0x30ce5ba6	1.5014521e-09
179	0x00000000	0.0
180	0x3438395b	1.7157201e-07
181	0x313863a1	2.6832156e-09
182	0x2112d880	4.975326e-19
183	0x350d32fb	5.260078e-07
184	0x31848b90	3.857572e-09
185	0x00000000	0.0
186	0x33ab229a	7.969102e-08
187	0x2f982444	2.7674407e-10
188	0x20a27230	2.751943e-19
189	0x347c082a	2.3472299e-07
190	0x2fdb3b06	3.9877807e-10
191	0x00000000	0.0
192	0x32b0d9ab	2.058808e-08
193	0x2fa13129	2.932066e-10
194	0x2101f20a	4.4027236e-19
195	0x33968424	7.0089555e-08
196	0x2fe7ade0	4.21422e-10
197	0x00000000	0.0
198	0x34fdb3df	4.7255796e-07
199	0x32109f30	8.418098e-09
200	0x221fc22b	2.165131e-18
201	0x3602184f	1.938566e-06
202	0x324fbb55	1.209158e-08
203	0x00000000	0.0
204	0x3474ca47	2.2797859e-07
205	0x31739073	3.5443264e-09
206	0x21b03cf0	1.1942354e-18
207	0x35742945	9.095714e-07
208	0x31af0523	5.0937543e-09
209	0x00000000	0.0
210	0x3383196d	6.104788e-08
211	0x303921f3	6.735085e-10
212	0x203819da	1.559396e-19
213	0x347101e2	2.2445559e-07
214	0x3085146d	9.682829e-10
215	0x00000000	0.0
216	0x33a9d26c	7.907951e-08
217	0x30c7372e	1.4494839e-09
218	0x202c71ab	1.4606576e-19
219	0x34c32d08	3.6354345e-07
220	0x310ef56a	2.0803221e-09
221	0x00000000	0.0
222	0x34b07a41	3.2871506e-07
223	0x3112fbaf	2.1388862e-09
224	0x21d13b22	1.4178043e-18
225	0x35ae1382	1.2969688e-06
226	0x31531328	3.071543e-09
227	0x00000000	0.0
228	0x3477c6ec	2.3076035e-07
229	0x3151c864	3.0527412e-09
230	0x210f5cbb	4.857301e-19
231	0x354a9204	7.5463345e-07
232	0x3196cd30	4.3889017e-09
233	0x00000000	0.0
234	0x357769bb	9.216853e-07
235	0x329a3e67	1.7956337e-08
236	0x231a064e	8.349692e-18
237	0x368c37d2	4.1788235e-06
238	0x32dd75d6	2.5781372e-08
239	0x00000000	0.0
240	0x34de6e3b	4.1430926e-07
241	0x31a3ad00	4.763592e-09
242	0x223b39b4	2.5373774e-18
243	0x35c6a445	1.4799958e-06
244	0x31eb6340	6.8506836e-09
245	0x00000000	0.0
246	0x3306683a	3.12941e-08
247	0x301a4a6d	5.613064e-10
248	0x2176651c	8.348186e-19
249	0x33ca3b1f	9.417112e-08
250	0x305dee1e	8.0737717e-10
251	0x00000000	0.0
252	0x33d1128b	9.735694e-08
253	0x3149751a	2.9315914e-09
254	0x21590e39	7.3541283e-19
255	0x3514dcad	5.545542e-07

exp_avg f4 [128]
0	0xb82c179e	-4.102999e-05
1	0xb6ea85be	-6.989313e-06
2	0x38f3735f	0.000116086325
3	0xb31add40	-3.6057145e-08
4	0x39bcffe1	0.000360488
5	0x38842973	6.301971e-05
6	0xb898e40f	-7.290404e-05
7	0xb6c98aad	-6.006411e-06
8	0x379cca77	1.869093e-05
9	0x396a92d9	0.00022370684
10	0xb87d02bc	-6.0322447e-05
11	0x38c36a2e	9.318102e-05
12	0xb78a431b	-1.648213e-05
13	0x37a4d39b	1.964886e-05
14	0x373f613f	1.1407129e-05
15	0x37700497	1.4306183e-05
16	0xb82a4fb7	-4.06054e-05
17	0xb4ccdae0	-3.8157214e-07
18	0xb734be37	-1.0773124e-05
19	0xb77a3351	-1.4913109e-05
20	0xb7ebc534	-2.8106013e-05
21	0xb7e86eca	-2.7708145e-05
22	0xb6bb3b49	-5.579936e-06
23	0x37274968	9.971067e-06
24	0xb8192a5c	-3.6517493e-05
25	0xb67af2af	-3.7394163e-06
26	0x39892928	0.0002616134
27	0x3920d8da	0.00015339573
28	0x370fbb56	8.567082e-06
29	0x38d9b195	0.000103804436
30	0xb6dd54d3	-6.596188e-06
31	0xb83e5f70	-4.5388413e-05
32	0x370863b5	8.1294465e-06
33	0x397133e0	0.00023002876
34	0x391b52a7	0.00014812742
35	0xb71556ac	-8.901272e-06
36	0x38f09111	0.000114711125
37	0xb851a268	-4.9980736e-05
38	0xb71dbe99	-9.402306e-06
39	0x399f6cd2	0.0003040792
40	0xb7e9d188	-2.7873335e-05
41	0xb63e5426	-2.8361187e-06
42	0x3909e0fc	0.00013149151
43	0xb700b5fe	-7.671768e-06
44	0xb877d1c1	-5.9084738e-05
45	0xb917adca	-0.00014465224
46	0xb6839998	-3.921985e-06
47	0xb808247c	-3.2458905e-05
48	0x389d9b3f	7.51526e-05
49	0x3740c007	1.1488802e-05
50	0x38006830	3.061461e-05
51	0x38b60297	8.678919e-05
52	0x39844b0a	0.0002523291
53	0xb902e27b	-0.00012482137
54	0xb662926e	-3.3761858e-06
55	0x38814575	6.164137e-05
56	0x378d0d7e	1.6814793e-05
57	0xb7087582	-8.133591e-06
58	0x36be480a	5.6708277e-06
59	0x388b5689	6.644155e-05
60	0x36fcacd7	7.5303064e-06
61	0x391e4b0d	0.00015096013
62	0x385ef536	5.3157295e-05
63	0xb89115ad	-6.918176e-05
64	0x35d9cfee	1.6228275e-06
65	0xb729d319	-1.0122335e-05
66	0xb681888c	-3.8603957e-06
67	0x384ea7dc	4.927056e-05
68	0xb6fb3660	-7.486713e-06
69	0x398d5731	0.00026958578
70	0x38f1eafd	0.000115355455
71	0x389c6e7c	7.459239e-05
72	0xb8166da7	-3.586491e-05
73	0x36a63f33	4.954543e-06
74	0xb5ffc490	-1.9056188e-06
75	0xb63dffd3	-2.8312104e-06
76	0xb7150fb4	-8.884748e-06
77	0x38b92ca0	8.8297995e-05
78	0x37c3d1c1	2.3343486e-05
79	0xb6a9324c	-5.042448e-06
80	0xb83a2120	-4.4376706e-05
81	0xb6dd4f70	-6.595561e-06
82	0x35d32294	1.5730789e-06
83	0xb8288a71	-4.0183255e-05
84	0x379b5f08	1.8521692e-05
85	0xb78373dc	-1.5670368e-05
86	0x36eb00c1	7.0036335e-06
87	0x38b1a436	8.4706044e-05
88	0xb6f4c2b1	-7.2944317e-06
89	0x369fef9a	4.7664626e-06
90	0xb8301c3d	-4.198797e-05
91	0x38e1eefc	0.000107733504
92	0xb839d0c4	-4.4301865e-05
93	0xb8705692	-5.7301084e-05
94	0x3800d412	3.0715084e-05
95	0x375cd178	1.3161793e-05
96	0x38479a34	4.758891e-05
97	0xb5b3aa03	-1.3386019e-06
98	0x36f53db3	7.3087517e-06
99	0xb7dd92ca	-2.6413607e-05
100	0xb7fe3b4f	-3.0306777e-05
101	0x38957427	7.126509e-05
102	0xb73f2d53	-1.139504e-05
103	0xb7fdc418	-3.0251264e-05
104	0xb7be322a	-2.2673124e-05
105	0x368686d2	4.0092064e-06
106	0xb6c6edbe	-5.9285367e-06
107	0x37f75698	2.9485018e-05
108	0xb9086796	-0.0001300856
109	0xb7c8bc21	-2.3929462e-05
110	0x38611f51	5.3673346e-05
111	0xb7b21886	-2.1230673e-05
112	0x36553a1a	3.1773293e-06
113	0x38ba0a4c	8.871089e-05
114	0x392228d0	0.00015464728
115	0x38843c9a	6.3055384e-05
116	0xb7e23ed5	-2.6970558e-05
117	0xb8ee890e	-0.00011374253
118	0x35d1ec9f	1.5640579e-06
119	0xb6cd0280	-6.109767e-06
120	0x3942f54d	0.00018592663
121	0x373ab69f	1.1128984e-05
122	0x38366f54	4.3495864e-05
123	0x3927dd9b	0.00016008916
124	0x37b53078	2.1599451e-05
125	0x3936a7f3	0.00017419439
126	0x368b83d9	4.157872e-06
127	0xb6c34be4	-5.8202877e-06

exp_avg_sq f4 [128]
0	0x31564e40	3.1185579e-09
1	0x31f9e34f	7.272696e-09
2	0x33359ae2	4.228321e-08
3	0x318e4a3a	4.1411825e-09
4	0x34de5bad	4.1417425e-07
5	0x3228dd2a	9.829174e-09
6	0x328c65b7	1.63444e-08
7	0x32b78abf	2.1367098e-08
8	0x320e9093	8.29836e-09
9	0x340a2bb2	1.2868148e-07
10	0x32d53ed6	2.4825038e-08
11	0x32b23673	2.0746688e-08
12	0x321d5e5b	9.160057e-09
13	0x304e42aa	7.50371e-10
14	0x312d73d1	2.5240647e-09
15	0x31e13d79	6.5553505e-09
16	0x331418a3	3.4481342e-08
17	0x31012cab	1.8797361e-09
18	0x33808fb7	5.986606e-08
19	0x3389ed91	6.422773e-08
20	0x322c6436	1.0034503e-08
21	0x3189c632	4.009757e-09
22	0x3109fbcd	2.0079256e-09
23	0x31fe4b9a	7.400968e-09
24	0x3141edf9	2.8220468e-09
25	0x3239b627	1.0809834e-08
26	0x346c8df7	2.2030859e-07
27	0x335e7581	5.1795272e-08
28	0x31124799	2.1286495e-09
29	0x328f4ddd	1.66828e-08
30	0x33381724	4.2861885e-08
31	0x31983e4f	4.430866e-09
32	0x31a0e36f	4.682469e-09
33	0x34104216	1.3435087e-07
34	0x3373155b	5.659727e-08
35	0x3238d53a	1.0758692e-08
36	0x32c68dbf	2.3114692e-08
37	0x33129472	3.4128284e-08
38	0x3351724b	4.8765553e-08
39	0x3499cab9	2.864597e-07
40	0x33a376b5	7.611872e-08
41	0x321a1e3c	8.970854e-09
42	0x3348b6d4	4.673241e-08
43	0x30ed7eb2	1.7280029e-09
44	0x32fd3939	2.9479098e-08
45	0x33dee46c	1.037923e-07
46	0x34276b4f	1.5592126e-07
47	0x330f8474	3.3415247e-08
48	0x328c022e	1.6299136e-08
49	0x318ea496	4.151455e-09
50	0x31904d04	4.1997072e-09
51	0x323ef660	1.1115475e-08
52	0x3467ace8	2.1576454e-07
53	0x339240b6	6.810426e-08
54	0x32556225	1.2420547e-08
55	0x31f1162a	7.016543e-09
56	0x330d211f	3.2859244e-08
57	0x33a2b671	7.576899e-08
58	0x31e88eeb	6.7683366e-09
59	0x32e71885	2.690309e-08
60	0x31769a23	3.5885328e-09
61	0x338edca0	6.652522e-08
62	0x319535e2	4.3425965e-09
63	0x3249ac97	1.1738982e-08
64	0x30f3f63d	1.7750562e-09
65	0x3277829b	1.44069885e-08
66	0x3427dd59	1.5633613e-07
67	0x32386506	1.073318e-08
68	0x328f75b1	1.670091e-08
69	0x3445f889	1.8437471e-07
70	0x33963578	6.994645e-08
71	0x321a0b6b	8.966576e-09
72	0x323fe56d	1.1169829e-08
73	0x326ce566	1.3789167e-08
74	0x322662f3	9.68497e-09
75	0x33bc7282	8.775261e-08
76	0x318f258f	4.1661177e-09
77	0x3348696d	4.6662013e-08
78	0x3241e7fd	1.1286827e-08
79	0x3084fabb	9.675526e-10
80	0x321cf5ed	9.136312e-09
81	0x2f7fdf2c	2.3271401e-10
82	0x317c7eea	3.6742969e-09
83	0x329aabb1	1.8006036e-08
84	0x33218983	3.76108e-08
85	0x30fc697a	1.8365391e-09
86	0x3047772d	7.256514e-10
87	0x3291db69	1.6979998e-08
88	0x329f7698	1.8563966e-08
89	0x31004e95	1.867112e-09
90	0x335ac464	5.0935697e-08
91	0x32bf41b5	2.2265207e-08
92	0x33275fcb	3.896984e-08
93	0x31ca3180	5.8846013e-09
94	0x313fce32	2.7911367e-09
95	0x30e66ccc	1.6765624e-09
96	0x31be53d4	5.539258e-09
97	0x314b42e2	2.9578406e-09
98	0x3227d4cb	9.769063e-09
99	0x32e74fac	2.692817e-08
100	0x3119fbaf	2.2407496e-09
101	0x324ad6dc	1.1806801e-08
102	0x32c454a7	2.2855899e-08
103	0x318e04a3	4.133271e-09
104	0x309fa946	1.1616883e-09
105	0x330388e8	3.062533e-08
106	0x3282eeda	1.5242609e-08
107	0x30d8b8a5	1.5768548e-09
108	0x3381637d	6.0251274e-08
109	0x323a2ed7	1.0837275e-08
110	0x320d4261	8.222373e-09
111	0x32b2ce86	2.0815843e-08
112	0x31766e22	3.5860315e-09
113	0x323151bc	1.032134e-08
114	0x3360b513	5.231875e-08
115	0x3227416d	9.7355555e-09
116	0x324ffff8	1.2107186e-08
117	0x33811117	6.010139e-08
118	0x328e3f88	1.6559866e-08
119	0x33abd202	8.001008e-08
120	0x33dcd756	1.0283718e-07
121	0x31ab1ce3	4.980039e-09
122	0x31a3fcf1	4.7726805e-09
123	0x33a4687c	7.655851e-08
124	0x31a5df38	4.827509e-09
125	0x3405b6a9	1.2453042e-07
126	0x341b2db2	1.4452124e-07
127	0x33183113	3.543489e-08
