actualgame/results/NewLocomotionRun4/Agent Controller/Agent Controller-61717.onnx (onnx, 78254 bytes, 8 tensors)

network_body._body_endoder.seq_layers.0.weight f4 [128, 6]
000000 e2 d6 4a bf 49 69 ce bd 1a d1 6a 3e ed b4 b1 be
       -0.79234135 -0.10078675 0.22931328 -0.34708348
000010 6d 54 4b 3f f9 d4 97 3e b8 20 c5 bd 87 87 26 3e
       0.794257 0.29654673 -0.09625381 0.16262637
000020 23 90 a5 3e 8c f2 1e 3e 2c ad c8 bd 35 b0 ef be
       0.3233653 0.15522212 -0.09798655 -0.46814123
000030 e0 8c ae be b0 52 0c be fc 22 59 3e bc 80 01 3f
       -0.34091854 -0.13703418 0.21204752 0.5058706
000040 a2 21 0e bf 3c c2 a2 3f 59 b7 1e bd 8b 88 11 bb
       -0.5552007 1.2715526 -0.038749073 -0.002220663
000050 40 5f 8f bf 66 fe b6 3e 0d 78 92 3e 54 48 ad be
       -1.1200943 0.35740966 0.28607216 -0.33844244
000060 a0 50 ec 3d 98 da 63 3e 17 1f a4 3e 19 06 a2 3d
       0.115388155 0.22251356 0.3205497 0.07911319
000070 d9 df 29 3d 05 57 b3 3e 17 9e 82 bd 3b b2 61 bd
       0.041473243 0.35027328 -0.063778095 -0.055101614
000080 a1 ba 5f be 42 ff 08 3f 15 8f fb be e9 38 b6 3c
       -0.21848537 0.5351449 -0.491326 0.022243934
000090 42 4b e2 be 16 11 4c bf b6 bf 7f be 76 2e 29 be
       -0.44198042 -0.7971357 -0.24975476 -0.1652163
0000a0 a0 48 26 3e 75 f1 f9 3e 41 95 e6 be 6f 3a b4 be
       0.16238642 0.4881703 -0.45035747 -0.3520083
0000b0 e1 ac 6f be 27 17 1d bf 0e 84 97 3e 40 37 07 bf
       -0.23405792 -0.6136345 0.29592937 -0.5281868
0000c0 15 49 78 be bf 88 8d 3d 8a 43 8c 3f ad 91 c1 3e
       -0.24246629 0.06910848 1.0958111 0.37806454
0000d0 ec fe c0 3e f0 d0 53 3e 26 03 ab bb 3e 5c 00 bf
       0.3769449 0.20685172 -0.005218881 -0.5014075
0000e0 e9 a3 fa bb 20 c0 67 bc 12 2d 83 be 0c 82 f5 be
       -0.007648934 -0.014144927 -0.25620323 -0.4795078
0000f0 e2 fd 64 3e 13 80 03 bf de 90 e9 3e 72 20 0d be
       0.22362474 -0.513673 0.45618337 -0.13781908
000100 e8 84 75 3e 10 bc 6e 3e db ef 01 be 54 ec 36 3c
       0.23976481 0.23313928 -0.12689154 0.011164743
000110 d6 db 21 bf 82 8f 27 3f 43 b8 cf 3e 13 5b a0 3e
       -0.6322607 0.6545335 0.40570268 0.31319484
000120 63 b5 d6 be 2e 14 8b be a2 6a 76 3d 55 de 89 3e
       -0.41935262 -0.27163833 0.060160287 0.26927438
000130 00 55 b6 3d 42 c5 4b 3f e3 c0 6c bf 5d ac d0 3e
       0.08902931 0.79597867 -0.9248182 0.40756503
000140 dd a9 cb bc 6c 69 cf be b4 a1 1c bf 47 c1 89 3e
       -0.02486127 -0.40510118 -0.6118424 0.2690527
000150 98 24 7a be 35 ea 35 be 63 2f 96 3d 75 fc 9e 3e
       -0.24428022 -0.17765124 0.07333257 0.31051984
000160 de 4d f5 be 80 ea bb be 39 ef 67 3f 97 80 05 3f
       -0.4791097 -0.36702347 0.905994 0.5214934
000170 b5 d1 1f 3e da 7e 9a be 41 96 02 3f 27 95 d7 3d
       0.1560734 -0.30174905 0.5101052 0.105264954
000180 83 a6 16 3e 16 60 3b bf 14 0a ae be d7 00 0c 3f
       0.14711957 -0.7319349 -0.33992064 0.5468878
000190 b1 93 39 3f 17 3b d0 bd d2 69 86 3e a2 84 98 be
       0.72490984 -0.101675205 0.2625261 -0.2978869
0001a0 38 4e 91 bf 4b 82 2c be 4b 22 06 3f a3 7f 85 be
       -1.1351995 -0.16846578 0.52396077 -0.26073942
0001b0 2f 1f 91 3e 56 15 9e be ee 7a ba be a1 86 9e bd
       0.28344104 -0.30875653 -0.36421913 -0.07740522
0001c0 8f b1 29 bf be 95 bd bd db b8 ea 3e 9c 10 bb be
       -0.6628656 -0.09257077 0.4584416 -0.3653611
0001d0 67 47 80 bf 07 7d c6 be 42 39 69 3e c6 ed 2e be
       -1.002179 -0.38767263 0.22775748 -0.17082891
0001e0 cf 08 4c be f4 9a f5 3d 1e b7 35 bf 96 05 24 3d
       -0.19925235 0.119924456 -0.7098254 0.04004439
0001f0 5a c8 6e 3d 3d 6c d5 be 18 2b 8e 3e 31 dd c9 3d
       0.05829654 -0.41684142 0.27767253 0.09856642
000200 6e 46 07 bf 56 ee a7 3e c6 2a ed 3e a3 4e 38 3d
       -0.5284184 0.32799023 0.46321696 0.04499687
000210 14 03 88 3d 27 50 19 3f 9d 19 a5 bd 2b a1 45 bf
       0.06641212 0.5988793 -0.08061526 -0.7719905
000220 8d 1d 3d be 9b 25 96 be 01 0b 22 3d b5 b1 f1 3d
       -0.18468304 -0.29325566 0.039561275 0.11801473
000230 77 52 60 3e 7e 66 0a bf 64 33 55 be ef 7c 06 3f
       0.21906458 -0.5406264 -0.20820385 0.52534384
000240 11 89 91 be 1b 43 f7 bd 59 6b 69 3f ea 5f a4 bd
       -0.28424886 -0.12073346 0.91179425 -0.08026107
000250 d8 ab e4 3d 21 89 35 be ba a6 f8 3e c4 5b 81 be
       0.11165589 -0.17728092 0.48564702 -0.25265324
000260 be db bb 3d a1 50 00 bc 1f 5d 99 be f4 6f bd be
       0.09172772 -0.007831723 -0.29953858 -0.36999476
000270 24 86 13 3e 52 0e fe be 9a f7 33 3f d8 64 ef 3e
       0.1440664 -0.496203 0.70299685 0.46756625
000280 e0 c5 92 3c 93 f2 08 3f f2 da b5 be 8d c5 b1 3e
       0.01791662 0.5349514 -0.35518605 0.34721032
000290 d7 6f 9e 3e 8b 44 e7 bd e0 66 28 3d da 43 15 3e
       0.30944702 -0.112923704 0.041113734 0.14576665
0002a0 51 e5 de 3b 0b b3 aa be e5 b2 45 bf fe 1b e7 3d
       0.006802239 -0.33339724 -0.77226096 0.11284636
0002b0 63 47 9e bd 65 ae 3a 3f 56 cb 56 3e ad 50 10 3f
       -0.0772846 0.72922355 0.20976004 0.563731
0002c0 8b 94 92 be 18 89 12 3e 27 b5 26 3f cc 31 c7 be
       -0.28628954 0.1431011 0.65120167 -0.3890518
0002d0 73 dc 1b bf 93 ff 66 3e 37 b0 a9 be 4d a7 ad bd
       -0.60883254 0.22558431 -0.33142254 -0.08479176
0002e0 33 52 d0 be 67 0e 83 bd f8 73 e8 be 53 b7 81 bd
       -0.40687713 -0.063992314 -0.45400977 -0.063337944
0002f0 e0 98 cc be c1 62 3f be 42 bb ab be 1d 58 bf 3e
       -0.39960384 -0.18690015 -0.33541304 0.37371913
000300 8c 8b 42 bf ce c1 28 3f 8e 4e ac 3e a1 c4 7b 3f
       -0.7599418 0.6592072 0.33653682 0.98346907
000310 f4 c2 a6 3e f1 ac 85 bd 65 f5 06 be d9 2c 64 be
       0.32570612 -0.065271266 -0.13179548 -0.22282733
000320 0e 4b 3d be 18 e3 93 be e3 3c 82 bd c4 be 46 3f
       -0.18485662 -0.28884196 -0.063592695 0.77634835
000330 e3 7a 17 3f dc 3b 38 3f eb 78 16 3f e8 40 da 3e
       0.59171885 0.7196634 0.58778256 0.42627645
000340 03 0d a2 be 87 61 17 3c 61 b7 ec 3e 3c 31 4a 3e
       -0.31650552 0.009239561 0.46233657 0.19745344
000350 5e bb 15 bd 66 a7 5a be 33 03 5e bf 22 f6 c9 be
       -0.03655564 -0.2135292 -0.8672363 -0.39445597
000360 8e f5 dd be cb 86 d1 be 76 40 f2 3e d8 db 11 be
       -0.43351406 -0.4092315 0.47314805 -0.1424402
000370 98 68 44 3f 3b a4 f4 3a 45 4f 5a be 43 1b bc 3e
       0.767221 0.0018664667 -0.21319301 0.3673955
000380 07 31 37 be 68 65 01 3e 97 63 99 be a6 ee 0e 3f
       -0.17889796 0.1263634 -0.29958794 0.558329
000390 9f 0c f6 3d d3 a1 82 3e 6d 03 ec 3b 50 d2 a9 bd
       0.12014126 0.25514087 0.007202557 -0.08292067
0003a0 f4 45 11 bf e4 1f 23 3d 86 7d 9e be 87 8e d4 bd
       -0.56747365 0.039825335 -0.30955142 -0.103787474
0003b0 8d d9 bd bd 70 26 cf 3e ac 72 c1 bd b8 09 99 3e
       -0.0927001 0.40459013 -0.094457 0.29890227
0003c0 8e 69 25 3d 02 89 35 bf 97 39 16 3f 16 16 95 be
       0.040383868 -0.7091218 0.58681625 -0.29118413
0003d0 37 b5 07 bf 7b 40 b6 be d9 c1 14 3f 6f 0c 64 bc
       -0.53010887 -0.3559607 0.5810829 -0.01391898
0003e0 10 ad e8 3e 7f f7 bc 3e 08 32 4e be 8a af f6 3e
       0.45444536 0.36907575 -0.20136273 0.481808
0003f0 37 eb 75 be 84 5a e3 be d3 66 fe 3e 8d d0 61 be
       -0.24015509 -0.44404995 0.49687824 -0.22052212

network_body._body_endoder.seq_layers.0.bias f4 [128]
000000 4f f3 bd ba c8 6e f7 bb 23 27 10 3c 72 8c d6 bb
       -0.0014492067 -0.007551048 0.008798393 -0.006547504
000010 85 0e f8 3b 09 13 a2 bb 33 19 6d bc 7b 2d 04 bb
       0.0075700902 -0.004946117 -0.01447134 -0.002016871
000020 0d 6f 32 3c bf 8f 55 bb af f2 de 3a e8 4c 86 bb
       0.010890734 -0.00325869 0.0017009581 -0.0040985234
000030 83 a7 18 bb c5 46 4e 3b 10 f0 f7 bb e6 4f aa ba
       -0.0023293204 0.0031475287 -0.0075664595 -0.0012993782
000040 7e 41 77 3b 5b 5e 27 bb 1a 75 99 3b 3f 93 3e bb
       0.0037728245 -0.0025538418 0.004683149 -0.0029079465
000050 e5 c6 f0 bb 39 28 66 3b 2f a1 f6 3b dc 67 5c 3b
       -0.007347929 0.003511919 0.007526539 0.003363124
000060 b1 b6 9a 3b 8d 0a ff bb b6 32 ba 3b d8 0c 88 bb
       0.0047214855 -0.00778324 0.0056823147 -0.0041519217
000070 03 70 c4 3a a2 ef 82 3b fd 24 40 3a d7 d4 f8 bb
       0.0014986995 0.0039958516 0.00073297304 -0.007593732
000080 de 66 cc 3b 97 ea 1e 3b 42 fe 01 bb 95 1b b9 bb
       0.0062378487 0.0024248713 -0.0019835387 -0.00564904
000090 83 ce d6 3a 09 32 87 ba f3 c1 bd 3a 1c e2 20 3c
       0.001638845 -0.0010314594 0.0014477357 0.009819534
0000a0 cf 2d 8b bb 01 50 e7 38 32 bb 5c ba 7a 63 3a bb
       -0.004247404 0.0001102984 -0.0008420228 -0.002844064
0000b0 59 96 4f ba 7a 09 06 bc 52 7a a6 3a 19 be 07 bb
       -0.0007918827 -0.00818097 0.0012701249 -0.0020712672
0000c0 56 6b ff 3a f6 17 bc 3a 34 4b 81 3a 67 48 c0 3b
       0.0019486945 0.0014350403 0.0009864331 0.005868006
0000d0 3c fc 09 3c 7d 6d 53 bb 08 2e 12 3c c2 c4 6f bb
       0.008421954 -0.0032261305 0.0089221075 -0.0036585783
0000e0 36 07 88 3a ac b3 7e 3b 52 66 c0 ba 72 e7 c6 bb
       0.0010378126 0.0038864417 -0.0014678931 -0.006070071
0000f0 09 d8 fa 3a 91 e6 0c bc e4 83 83 bb 88 8b ba ba
       0.001913787 -0.008599893 -0.0040135253 -0.0014232257
000100 c1 ad e8 ba 00 a1 cb 3b ab f7 d9 ba 6f 3b 97 3b
       -0.0017751978 0.006214261 -0.0016629597 0.0046152393
000110 87 1c 59 3a 72 d4 7a 3a fc ce 7e 3b 45 1e 31 3c
       0.0008282144 0.00095684 0.0038880697 0.0108104395
000120 d8 e4 91 3b 5b df 8e bb 3b 84 23 bc 07 d6 87 3b
       0.004452329 -0.004360122 -0.009980257 0.004145387
000130 36 66 08 3c 37 97 1e bc 90 2b fa b9 82 ec a6 3a
       0.00832515 -0.009679607 -0.00047716172 0.001273528
000140 57 83 4a 3a 6e 36 1f 3b 81 b3 8c bb ee 32 48 bb
       0.00077252596 0.0024293917 -0.0042938595 -0.0030547935
000150 c8 22 a5 39 a5 64 b7 3b 32 81 30 bc 18 92 69 b9
       0.00031497166 0.0055967146 -0.01077299 -0.00022275036
000160 eb 7a 31 bb f7 88 18 bc 2a f2 23 bc 7f e9 17 bb
       -0.0027081321 -0.009309999 -0.010006467 -0.0023179946
000170 25 7f 27 3c 9d 42 16 bc 77 e6 b6 3b 1f d5 02 bb
       0.010223185 -0.009171155 0.005581673 -0.0019963456
000180 8e 10 b8 3b f1 d9 a5 3b d6 3a 5e bb 50 16 b0 3a
       0.005617208 0.005061381 -0.003390958 0.0013434384
000190 62 f5 ab bb d2 33 e5 bb b4 3d 9f 3a 0f 98 e7 bb
       -0.005247758 -0.006994703 0.0012149126 -0.0070676873
0001a0 a9 b6 ff bb 9f 90 ad bb 43 5c 13 3b f0 e5 32 bc
       -0.007803757 -0.005296781 0.0022485412 -0.010919079
0001b0 b0 af 16 bc 0d fe f8 bb e7 12 af bb 88 9f b8 3b
       -0.009197161 -0.0075986446 -0.0053428295 0.005634252
0001c0 e8 0e 29 bb e8 59 fc bb 76 3f 9e 3b a0 7b 38 3b
       -0.0025796238 -0.0077011473 0.0048293425 0.0028149858
0001d0 85 ee 1d 3c c2 b1 b0 bb b0 68 0e 3c 58 c6 b4 bb
       0.009639387 -0.005392284 0.008691952 -0.0055168085
0001e0 34 d9 ee bb 04 87 68 ba df c1 b4 bb 3d 82 3d bc
       -0.007289076 -0.00088702166 -0.0055162753 -0.011566696
0001f0 3a 78 92 3a 27 68 9e ba 99 7c c4 3b 62 99 1f 3b
       0.0011174746 -0.0012085483 0.0059962985 0.0024352898

network_body._body_endoder.seq_layers.2.weight f4 [128, 128]
000000 0b 6c ae bd d0 10 ce 3d 5f 38 7c bd 5d 4e d7 3c
       -0.08516701 0.100618005 -0.061577197 0.026282484
000010 8d 28 f4 3c 55 71 ac 3d 27 48 17 3e 5c ae fc bd
       0.029804492 0.08420054 0.14773618 -0.12337944
000020 d2 1c da 3d c1 55 de bd 7e ac 2f bc 81 85 64 3d
       0.10650028 -0.108562 -0.010722278 0.05579138
000030 c9 99 cb 3d 6f 2f 66 3d cc 4f f6 bb 46 6c 3c be
       0.099414416 0.05619758 -0.0075168367 -0.18400678
000040 e6 3c 49 bd 5d fc 21 3e 1d 78 23 be 6a b9 a9 bd
       -0.049130343 0.15818925 -0.15963788 -0.08287318
000050 33 0c 7a 3e cb a6 dc bd 5e f3 34 3e 03 ac e8 bd
       0.24418716 -0.10774001 0.17670962 -0.11360934
000060 60 cf 36 bd 56 c6 d4 bd 40 37 f0 bc 21 37 b9 bd
       -0.044631362 -0.10389392 -0.02932322 -0.09043718
000070 11 2b 91 bd 85 4e 39 3d 8e cf 14 3d 7f 37 68 3c
       -0.070882924 0.045240898 0.036330752 0.014173388
000080 83 27 a2 bc f8 b2 5d bd 5f e6 9f 3d 96 54 c2 bd
       -0.019794231 -0.054125756 0.07807612 -0.0948879
000090 e8 8b 83 bd e9 be a6 3d f4 f8 5e 3d 80 f5 cf bd
       -0.064231694 0.08141882 0.05443664 -0.10154247
0000a0 ef 24 de 3d d8 80 67 3e 2a a3 da bd 7c a2 ca bb
       0.10846888 0.22607744 -0.10675652 -0.0061839204
0000b0 06 00 4a bd 8f 1d 43 bd ed d2 ed 3b ff 2b 31 bd
       -0.04931643 -0.04763561 0.0072578103 -0.04325485
0000c0 9b 2e cc bd 0e ad e5 ba 39 86 eb bc a0 a1 ec bd
       -0.09969827 -0.0017522888 -0.028750526 -0.11554265
0000d0 ed ec 0a 3a 41 a7 3a bd 26 bf d8 bc 5e af e5 3d
       0.0005299587 -0.045569662 -0.026458334 0.11215089
0000e0 47 d8 44 be ca 9f 84 bd c7 97 b2 3d 62 fd 0b 3d
       -0.19223128 -0.0647579 0.087203555 0.03417719
0000f0 68 4c 61 bd 9a da 95 3d 32 01 bd 3d 04 2a e0 3d
       -0.055004507 0.073170856 0.092287436 0.10945514
000100 e5 81 58 bd 51 2f dd 3c 44 a5 9c 3d 22 9b 5f 3c
       -0.052858252 0.027000101 0.076487094 0.013647826
000110 30 8d 0d bd 01 9e a7 3d 42 74 7e 3b 06 1f 16 3c
       -0.034558475 0.08184434 0.003882662 0.00916267
000120 46 37 9b ba 07 81 77 3c 9d 01 f9 3d 5e 7f b6 bb
       -0.0011842034 0.015106446 0.12158511 -0.0055693826
000130 e6 d7 23 bc af 31 2a 3e ef 96 64 3c 78 d9 d9 3c
       -0.010000205 0.16620515 0.013952001 0.026592955
000140 d3 77 92 3c d4 26 2d 3c 70 c3 89 bc af 53 43 3d
       0.017879402 0.010568339 -0.016816825 0.04768723
000150 22 71 9f 3d 44 1b 06 3e cf 0c 0c 3e 4e c7 c3 3d
       0.0778525 0.13096339 0.13676761 0.09559499
000160 e9 e9 2d 3e d9 25 8f 3a 17 ce fa bd 89 39 3e bd
       0.16983761 0.0010921314 -0.1224634 -0.04644159
000170 f5 1e bd 3d fd 6b 40 bd 69 b4 56 3d 74 fb 3f 3e
       0.0923442 -0.046977986 0.052418146 0.18748266
000180 bb d5 0e be 0e 90 00 bd 13 df 69 3e 0d 59 de bd
       -0.13948719 -0.03138738 0.22839002 -0.10856829
000190 fd c6 01 be f7 eb 75 bd a4 53 85 bd 53 5c 13 3e
       -0.12673564 -0.060039487 -0.06510094 0.14390688
0001a0 61 74 01 3c bc 81 0c be 51 58 29 3e 22 c2 24 bd
       0.007901282 -0.13721365 0.16537596 -0.040224202
0001b0 ed e3 ae bd 1b 54 96 3c 0e 12 6e 3d ce cd cb 3d
       -0.08539567 0.018350651 0.058122687 0.099513635
0001c0 8b 62 4e 3c 79 e7 97 3c a6 69 4f bc d3 7f 18 bd
       0.012596737 0.018542992 -0.012659466 -0.037231278
0001d0 d3 c1 23 3e 11 23 2c bd 38 64 a7 bd c9 bf cf 3d
       0.15991907 -0.04202563 -0.08173412 0.10144002
0001e0 a7 8a 5f bd 04 a2 62 bc 69 a8 94 3c 43 5b 34 3b
       -0.05457559 -0.013832573 0.01814671 0.0027520217
0001f0 ee 9b 95 bd d6 82 8a bd f8 7c 27 3e 20 9f 31 bd
       -0.07305132 -0.06763236 0.16356266 -0.043364644
000200 3d ac c3 3d 34 0c 2b 3c f3 38 1b bc 30 44 4a bd
       0.09554336 0.010439921 -0.009474027 -0.049381435
000210 23 38 a1 bc 86 8b 89 bd f0 85 a4 bd 64 e1 99 3c
       -0.019680088 -0.06716065 -0.08033359 0.018784232
000220 d0 63 d2 3d 2f 50 92 3d 97 86 2b 3c 8a ae 0f bd
       0.10272944 0.071442 0.0104691 -0.035078563
000230 08 e9 ea bd a4 5a 8b 3d 7a d6 88 bc fc 25 12 bd
       -0.114702284 0.06804398 -0.016703833 -0.035680756
000240 2d aa be bd b8 e7 1a 3e fe 91 5a be 28 7b 07 3e
       -0.09309802 0.15127456 -0.21344754 0.13230574
000250 8d e9 5a 3c 8a a9 d3 bd 17 d1 99 3d 4b 34 62 ba
       0.013361347 -0.103350714 0.07510584 -0.0008629008
000260 bf 68 4e be 64 69 a5 3c 5e 20 1d 3d b2 56 4a 3c
       -0.20157145 0.020191856 0.038360946 0.012349771
000270 a4 f8 96 3d c4 e8 38 3d fd c5 36 bc fe e7 63 3d
       0.07371643 0.045143858 -0.0111556025 0.055641167
000280 3e 4a aa bd c2 d3 05 bd df d0 93 3d b2 fb aa 3d
       -0.08314942 -0.03267265 0.072175734 0.08348788
000290 5c 61 a7 bd 6f be 17 be 6a 99 73 bd 00 0c 3b bd
       -0.08172867 -0.14818738 -0.05947248 -0.04566574
0002a0 63 84 aa bc 15 5b 27 3d 91 a5 ec bd 98 8a 10 be
       -0.02081508 0.040858347 -0.11555017 -0.1411537
0002b0 b4 4e f4 3d ef 7c a7 3d 85 b8 00 bd a6 7c 59 3d
       0.11929074 0.08178126 -0.03142597 0.05309739
0002c0 f3 0f 9b 3c b6 4d 3c 3d bd 36 ea bd 07 04 8a 3d
       0.018928504 0.04597255 -0.11436222 0.067390494
0002d0 2a 96 06 3e 6f 69 a5 3d bf 39 92 3d dc 06 25 be
       0.1314322 0.080767505 0.071399204 -0.16115898
0002e0 f0 3b 94 3d 4a 09 48 3c 73 1e 09 be 40 a6 61 bd
       0.07237995 0.012209246 -0.13390522 -0.05509019
0002f0 82 ee 99 bd a7 f9 60 bc 58 85 09 3e 3b ab 1d 3d
       -0.07516195 -0.013731397 0.13429773 0.038493376
000300 85 d6 bc 3c 03 93 dc bd 67 2b 71 bc 17 3e ff bc
       0.02305151 -0.10770228 -0.014719821 -0.031157536
000310 68 c9 c4 bb ec 2e ff bc ee 18 1f bd 63 77 ea 3d
       -0.006005455 -0.031150304 -0.038842134 0.114485525
000320 e5 f8 0d be 07 59 3e 3d 74 23 26 be 93 98 9c 3c
       -0.13864477 0.04647162 -0.16224462 0.019115722
000330 15 c5 32 3d e4 71 b1 3c 1c 26 5a 3c 41 21 c2 3d
       0.043644983 0.021660753 0.01331475 0.09478999
000340 df ab b5 3d 11 5d 13 3c 94 59 0b bc 5d c5 35 3e
       0.088706724 0.008994357 -0.008505244 0.1775107
000350 26 1d 82 bd 27 da 8b bd 00 85 8b bd 95 5b db bd
       -0.06353216 -0.06828719 -0.06812477 -0.10710827
000360 b1 9f ff bc d7 f1 bc bd e4 6b f8 bd d2 d5 e9 3c
       -0.031204076 -0.09225815 -0.121299535 0.02854434
000370 2e ce bf 3d c1 82 a5 bd 25 c7 76 bd 95 b8 0c 3c
       0.093654975 -0.0808158 -0.060248513 0.00858893
000380 cf 3f 55 bd 8e c8 26 3d 5d 95 e2 bc f5 ec 8c bd
       -0.052062806 0.040718608 -0.027659113 -0.068811335
000390 0c d3 a4 bd b3 d2 32 3d 9e fd 50 bd 9e aa 8a bd
       -0.080480665 0.04365797 -0.05102312 -0.06770824
0003a0 11 37 cc 3c 4b 43 ba 3d 49 99 29 3d ef e1 5f bd
       0.024928601 0.09094866 0.04140595 -0.054658826
0003b0 1c 91 ca bc 6e 43 c9 bc 2c f2 a3 3c e0 5b 14 3d
       -0.024727397 -0.024568286 0.020012937 0.03622043
0003c0 53 c1 90 bd bc 90 01 bc 4a 1e ed bc 37 79 a8 bd
       -0.07068124 -0.0079080425 -0.028945107 -0.08226245
0003d0 ef 82 89 3c 1e e9 71 3c df 06 ad bd 96 a6 0d 3d
       0.016786067 0.014765052 -0.08448576 0.034582697
0003e0 f5 7b 24 bd a4 2f 3b 3d 74 c4 15 bd ed 85 a9 bc
       -0.040157277 0.04569973 -0.036564305 -0.020693744
0003f0 aa 4b 67 3d 37 80 42 bd b0 a8 55 3d 74 5f b7 3d
       0.056468643 -0.047485556 0.052162826 0.08953753

network_body._body_endoder.seq_layers.2.bias f4 [128]
000000 01 c0 f8 bb 3f 48 40 3c c0 04 12 bc 8a 64 86 bb
       -0.007591248 0.011735975 -0.008912265 -0.0041013407
000010 bc 77 c0 3b 2d 61 93 3a 9c 41 0e 3c 39 a9 da bb
       0.0058736484 0.0011244171 0.008682635 -0.006673005
000020 18 ef f2 ba 7c 34 88 bb c9 14 12 3c ed dd 87 bb
       -0.001853439 -0.0041566473 0.008916088 -0.0041463287
000030 f6 39 95 3a f7 40 5c bb 9a 73 d2 3b 8b 78 a9 bb
       0.0011385072 -0.0033608058 0.006422472 -0.0051718405
000040 c4 5f f5 3b 69 f4 05 3c d2 09 0a bb cc 97 c1 bb
       0.007488223 0.008175948 -0.0021062982 -0.005907988
000050 95 18 f5 3a 44 d7 60 bc db a0 cc 3a e8 35 fe bb
       0.0018699343 -0.013723198 0.0015611904 -0.007757891
000060 a1 0e 83 ba 79 82 4b b8 2d 03 1a bc 4a cc 0d 3c
       -0.0009998867 -4.8520484e-05 -0.009400171 0.008654663
000070 2c 99 23 bc e6 9b dd bb 3f db 51 3b ec af f9 3a
       -0.0099852495 -0.0067629693 0.003202155 0.0019049621
000080 95 77 ec bb 47 56 82 ba a3 83 03 3c 2f fa ba bb
       -0.0072164037 -0.0009943926 0.00802699 -0.0057060937
000090 7a e3 e5 bb 2f cc a0 bb f6 f2 bd 3b d6 60 8c bb
       -0.0070156427 -0.004907153 0.0057967855 -0.0042840047
0000a0 b4 c0 00 3c b1 98 6c ba 4e 25 75 3b 2e 0f 0a bc
       0.007858444 -0.00090254383 0.0037406269 -0.008426471
0000b0 34 1d f4 bb 37 04 1b 3b ac c1 d2 bb 73 3a 7e 3b
       -0.0074497703 0.0023653635 -0.006431779 0.0038792163
0000c0 09 66 d6 bb 81 ec d6 3b 44 76 34 3c 22 47 5f 3b
       -0.0065429253 0.006558955 0.011014525 0.0034069498
0000d0 cc bb c6 bb 99 60 f0 ba 79 03 12 3c 41 58 15 3c
       -0.0060648676 -0.0018339335 0.008911961 0.00911528
0000e0 ba 3c f8 bb 8e 96 24 3c 35 e0 19 bc bc 0d cd 3b
       -0.0075755985 0.010045661 -0.009391834 0.006257741
0000f0 de 7b 11 bc 42 6e b9 3b 43 1e 0d bc 90 ba e0 3b
       -0.00887963 0.0056588957 -0.008613172 0.0068581775
000100 88 83 a5 3b 5f df 20 3c b7 83 81 3b a6 4c 70 bb
       0.00505108 0.009818881 0.003952469 -0.003666678
000110 0c a2 04 3c dc c5 c0 3b 11 f5 27 bc 5a 83 e5 3b
       0.008095276 0.0058829617 -0.0102512995 0.0070041837
000120 37 38 95 3a 52 0e 23 bc 47 f2 cf 3b d5 43 e3 ba
       0.0011384551 -0.009952145 0.0063460204 -0.0017338941
000130 fc 92 bf 3b b3 e6 8e 3b b6 66 84 bb 43 22 9a b9
       0.0058463793 0.0043609976 -0.0040405644 -0.00029398696
000140 a2 63 05 3b 8f 5b 01 bc a9 45 8a bb fe 8f 32 3b
       0.0020353575 -0.007895364 -0.00421973 0.002724647
000150 40 61 05 bc 55 12 27 3c aa 14 26 3a c0 d9 0e 3c
       -0.008140862 0.010197242 0.00063354766 0.008718908
000160 73 e1 51 bb 8c a7 16 3b b3 45 05 bc b3 39 bf bb
       -0.0032025247 0.002298805 -0.008134293 -0.0058357357
000170 f2 b8 ec 3a 79 7a b0 3b 57 1e d2 3a 5e ab 79 bb
       0.0018060489 0.0053856936 0.001603077 -0.0038096528
000180 d9 ad 4d 39 a6 14 6d bb cd 29 59 bb 34 74 fe bb
       0.00019615087 -0.0036175638 -0.0033136487 -0.0077653173
000190 9a 1e ea bb be 97 89 3c 5c 6a 8d 3b 48 e9 bc bb
       -0.0071447613 0.01679599 0.0043156575 -0.005765114
0001a0 98 cd 97 ba 70 7f 0d bc ca a8 8d bb f9 69 b1 3b
       -0.0011581657 -0.0086363405 -0.0043230997 0.0054142443
0001b0 15 08 be bb 44 9d 4a bb b3 5a 8a bb 3b 86 87 bb
       -0.0057993033 -0.0030916492 -0.004222238 -0.0041358746
0001c0 00 41 41 bb e5 40 00 3c 9b 10 b7 bb 7d 6b 8b 3b
       -0.0029488206 0.007827972 -0.0055866963 0.004254757
0001d0 35 02 13 bc 46 49 8c 3a 4e 4e 6f 3b 6c f0 8b 3b
       -0.008972694 0.001070299 0.003651518 0.004270604
0001e0 f8 b0 1e 3b 29 d4 02 3c f7 ca 89 b9 26 35 34 bc
       0.0024214368 0.007985153 -0.00026281897 -0.010999
0001f0 b7 9c 08 bc 89 3d 00 3b aa 8b ab 3a 5f 5e f7 b9
       -0.008338145 0.0019567928 0.0013087888 -0.00047181823

action_model._continuous_distribution.log_sigma f4 [1, 2]
000000 85 24 2c 3c c5 9c 25 3c
       0.010506754 0.010108178

action_model._continuous_distribution.mu.weight f4 [2, 128]
000000 40 72 8c bc b0 ec df 3b 43 56 62 bb 50 61 4d bc
       -0.017144322 0.0068336353 -0.003453628 -0.012535408
000010 78 94 fa 3b 65 e4 9f bb 04 6d 0e bc b6 1d 29 bc
       0.0076470934 -0.0048795217 -0.008692984 -0.010322025
000020 61 14 01 bd bd ec a1 3c 1b 74 cf 3b 9e 99 3e 3c
       -0.031513575 0.019766206 0.0063309795 0.011633305
000030 bc 5e 47 3c 2e 65 2d bd 8b 2b ad 3b e6 63 9d bc
       0.0121685825 -0.04233282 0.0052847317 -0.019212674
000040 71 11 1f bd 72 96 54 3a dd 75 16 bd 08 0d d4 bc
       -0.038834993 0.00081095763 -0.036733497 -0.02588512
000050 07 b7 00 3d e3 41 7b bb 2d f6 d3 bc 5b aa d1 bc
       0.03142455 -0.0038338832 -0.025874222 -0.025593927
000060 84 80 c1 3c dd 87 1a 3c 4a a3 85 bb 89 11 04 bb
       0.023620851 0.009431806 -0.0040783035 -0.0020152053
000070 26 fa 1e 3c 45 25 b7 bb 87 fb aa bc 9a 4b 28 3c
       0.009703195 -0.0055891597 -0.02087189 0.010271931
000080 dd 1d 00 bd 93 85 01 bd 4b 4b b7 bc 86 85 d8 bc
       -0.03127848 -0.031621527 -0.02237477 -0.026430856
000090 09 75 07 3d cf 19 60 3c d9 18 47 3c 5a 85 a2 3c
       0.033070598 0.013678028 0.01215192 0.019838978
0000a0 fa 62 10 3c a2 2f fb bc a3 fb a6 3c 1c 59 fd bc
       0.00881266 -0.030662362 0.020383662 -0.03092628
0000b0 94 75 65 3c 81 38 17 3d af 77 a4 bb 89 7a 81 3b
       0.014005084 0.03691912 -0.00501915 0.003951375
0000c0 26 9c 2a bc 39 f8 79 3c be 94 97 bb 24 4a 0c bc
       -0.010413205 0.015256935 -0.0046258857 -0.008562598
0000d0 1b 69 1e 3c 87 86 4a bc 9a 45 91 bb a7 44 e8 bb
       0.009668614 -0.012361175 -0.004433346 -0.007088262
0000e0 77 5f d3 bb 1b 11 42 3c 56 ce df bb e6 2f 09 bd
       -0.0064505893 0.011844899 -0.006830017 -0.033492945
0000f0 e2 ad ae bc 0d 14 77 3c da 36 ff 3a 1c 4c 1b 3d
       -0.021323148 0.015080464 0.0019471303 0.03791438
000100 ad 9f b1 3b c6 af 1c ba e9 7f b3 3b 6c 16 00 bd
       0.005420646 -0.000597712 0.0054778946 -0.031271383
000110 ea 99 1d 3c 75 4d 3c 3a f1 d9 87 bc 1e 9c 54 3b
       0.0096192155 0.0007183173 -0.016583415 0.0032441686
000120 31 0d 62 3c ab 94 45 bc 5f bc 55 3c ed b4 48 3c
       0.01379709 -0.012059371 0.013045399 0.012250167
000130 40 9f ac 3c 16 3e d5 3c d0 d9 ea ba 31 5a 8a 3c
       0.02107203 0.026030581 -0.0017917696 0.01688871
000140 ad ed 64 3c 50 4d e1 bb eb b5 23 bd f4 3a 10 bc
       0.013972682 -0.0068756714 -0.039968412 -0.008803118
000150 5c d3 52 3b 9a 54 d9 ba b0 45 42 3c 6e 06 4c 3d
       0.0032169437 -0.0016580999 0.011857435 0.04981082
000160 f0 62 87 bc 84 9a 00 bd 58 9c 9f bb b6 68 57 bc
       -0.01652667 -0.031397358 -0.0048709325 -0.013147524
000170 62 79 a8 3b 9c 52 ce bc a4 58 91 3b 64 5f 74 bc
       0.005141423 -0.025185876 0.0044356156 -0.014915321
000180 e5 6e 51 3c f8 a5 8e bc 1e ea e6 bc 18 6f 01 3b
       0.012782787 -0.017413124 -0.028187808 0.0019750055
000190 7f a1 5d ba 7c 77 a4 3c 39 2f 92 bc 1f 00 7a 3c
       -0.0008454546 0.020076506 -0.017844783 0.015258818
0001a0 2a 40 b8 3c 8e 45 f2 bb 84 01 ed bc c5 a6 7e 3b
       0.022491533 -0.0073935455 -0.028931387 0.0038856727
0001b0 82 29 bf bc 09 c2 a9 3c 77 06 87 bc 11 bd aa 3c
       -0.023335222 0.020722406 -0.016482575 0.020842107
0001c0 8d 65 ca 3c d6 c2 44 bb 7a a1 9a 3b 24 25 60 3b
       0.024706626 -0.0030023358 0.0047189565 0.0034201825
0001d0 fa 28 f4 bb bd ce 84 bc 67 e2 1f bd 83 23 34 ba
       -0.007451174 -0.016211862 -0.039034273 -0.0006871747
0001e0 72 0e 09 3d 99 78 d2 bb f1 d6 87 3c 6d 86 d5 bb
       0.03346104 -0.006423068 0.016581984 -0.006516269
0001f0 f2 15 8c 3a fb 53 0b 3d 47 67 dd bc 43 2a 05 3d
       0.0010687693 0.034015637 -0.027026786 0.032511007
000200 42 30 a3 3c 10 a6 d6 bc 2a 42 1a 3d 9a 8b 7c 39
       0.019920472 -0.026202232 0.037660755 0.00024084598
000210 95 0f a2 bb 7b 61 b7 bb 84 eb 2c bd 2a 8b 1d 3c
       -0.004945705 -0.0055963374 -0.042216793 0.009615699
000220 ca 52 35 3c 83 47 d0 3c d2 b1 8e bc 96 c9 23 3d
       0.011067102 0.025424724 -0.017418776 0.03998717
000230 57 98 b9 bb 57 49 88 3c 83 88 1d bc e8 e3 2f 3c
       -0.0056639123 0.016636534 -0.009615066 0.010735489
000240 7d 2f b9 bc 99 44 d2 bb dc 11 ad 3b d3 30 25 3c
       -0.022605652 -0.006416869 0.00528167 0.010082441
000250 8e ea 9d bc f9 4a 2d 3c bb 9a c6 bc b2 14 09 3d
       -0.019276883 0.010576957 -0.024243703 0.033467002
000260 16 f0 c3 3b 87 fc 0d bb 2d bd 09 3d a1 47 12 bd
       0.005979548 -0.002166541 0.033627678 -0.035712842
000270 33 6e d7 3c 97 54 0a 3d a2 62 06 bc 28 c1 e0 bb
       0.026297664 0.033772077 -0.008202227 -0.0068589635
000280 d0 ab cb 3c f5 39 ae ba 79 8d da bc 71 da 0f 3d
       0.0248622 -0.0013292419 -0.026678788 0.03512043
000290 90 b7 f1 3c ff dd 95 3c d2 c1 8e bc 0e f6 93 39
       0.029506475 0.018294333 -0.017426405 0.0002822135
0002a0 66 dd f5 bc 72 1b c2 bb a5 cf b2 3b 2c 11 e0 3c
       -0.030012798 -0.005923682 0.005456882 0.027351938
0002b0 09 04 ed 3c 46 f0 3b bc ed f5 b8 3b 6d 61 6c bb
       0.028932588 -0.01147086 0.005644551 -0.0036068812
0002c0 e2 31 80 3c 80 e2 02 bc c5 38 27 bc de fc 86 bb
       0.015648786 -0.007988572 -0.010206406 -0.0041194996
0002d0 5b 8b 32 3c 8d 7c b7 bc 58 53 bf bc 3a 1d 46 bd
       0.010897483 -0.022398258 -0.023355171 -0.048367716
0002e0 8f 81 0a ba 77 41 87 bc 10 82 fe 3b ce 71 c5 bc
       -0.0005283588 -0.016510708 0.0077669695 -0.024102118
0002f0 39 6d 15 3d 65 3a a2 bb e7 86 a9 3c 90 a9 a8 bc
       0.036481116 -0.004950809 0.02069421 -0.020588666
000300 55 7d 1d bb 09 44 8f bc af 32 bc bb 05 55 1b 3c
       -0.0024031003 -0.017488496 -0.0057433466 0.009480719
000310 42 03 be 3a a5 36 24 bb b0 9d 66 3c 54 98 88 bc
       0.001449682 -0.0025056985 0.014075682 -0.016674198
000320 1f d4 a8 bc 2d 35 28 3d 9c 1c 4c bc 7d bd 4f 3c
       -0.02060896 0.041066337 -0.012457993 0.012679455
000330 b6 de c3 bc c6 e9 46 3c 4c 68 cd 3c c9 15 5a 3c
       -0.023909908 0.012140697 0.025074147 0.013310858
000340 f0 21 0f bb 5c f3 ad 3c 31 5d b7 3b 1c 90 14 bc
       -0.0021840297 0.021234207 0.005595826 -0.0090675615
000350 5a 4e 05 3d 93 b2 fd bc 98 d1 5b bb 22 dc f3 bc
       0.032545425 -0.03096894 -0.0033541676 -0.029768053
000360 e6 29 5e 3c 7c fc 47 bc 6b 70 18 3c 3c 2f 15 3c
       0.013559794 -0.012206193 0.009304146 0.0091055
000370 91 d8 f9 3c 93 a0 3a bc 7b 28 63 bb cc 6d e6 3b
       0.030498775 -0.011390823 -0.003466158 0.007032132
000380 71 6b 0b 3b b8 3d 49 3b de 3c 2c bc 5c 6d 90 3b
       0.0021273757 0.0030706953 -0.010512559 0.004407568
000390 75 12 d6 3c 73 5c 44 bd 05 a9 cd bc 78 5f 60 3c
       0.026131848 -0.04793973 -0.025105009 0.0136946365
0003a0 d8 a7 29 3c 33 c7 11 3c 39 6a 8b 3c b6 e9 56 bc
       0.0103549585 0.00889759 0.017018424 -0.0131172445
0003b0 1e 65 de 3c 3c 1f a1 3b f1 c4 f6 ba a7 94 de 3a
       0.027147826 0.0049170535 -0.0018827004 0.0016981558
0003c0 f7 00 88 3c a0 59 e4 bc 5e f3 1c 3c 32 32 2a bc
       0.016602023 -0.027874768 0.009579508 -0.010387944
0003d0 ff 1a e5 3c c6 24 1d bc 97 dd a4 bc 24 03 9b bb
       0.027966974 -0.009591287 -0.020125194 -0.004730599
0003e0 74 2b 94 bc af 01 87 bc 66 ef ae ba 6b a9 06 3c
       -0.018087126 -0.016480295 -0.0013346493 0.008219103
0003f0 35 65 46 3b 86 c4 c4 3c 44 0a 91 bb 9d ea 8c 3c
       0.0030272726 0.02401949 -0.0044262726 0.017201716

action_model._continuous_distribution.mu.bias f4 [2]
000000 8b 3f e8 3a 97 1f 28 bc
       0.0017719133 -0.010261438

action_model._discrete_distribution.branches.0.weight f4 [1, 128]
000000 f7 60 97 bb 1c 8d a1 bc 46 9e 86 3b bf d5 f0 bb
       -0.0046197134 -0.019720607 0.004108223 -0.0073496993
000010 3a 01 ca 3b 2b 78 62 3b 9a 9c 7c bb ad fc d9 3b
       0.006164697 0.003455649 -0.003854549 0.0066524358
000020 d6 49 af 3c e5 7a 27 bc 1a 7d 78 ba 23 6d 3c bc
       0.021397512 -0.010222171 -0.0009479091 -0.01150063
000030 07 c8 7d bb e0 de ce bb 26 3d 0e 3b 35 86 b8 bb
       -0.0038723962 -0.00631319 0.0021703928 -0.005631233
000040 af bd 07 bc 43 a2 9f bb 68 04 4e ba 72 f7 52 bb
       -0.00828497 -0.004871638 -0.0007858933 -0.0032190946
000050 e3 f3 45 3b 93 0f 48 bc 0d 81 72 3c 58 d7 25 bc
       0.0030205182 -0.012210744 0.014801276 -0.010122143
000060 61 4a a9 ba da e8 d1 3a a2 80 7a 3a 43 96 d4 ba
       -0.0012915843 0.001601483 0.0009555911 -0.0016219098
000070 ef 9b 0a 3c 63 d8 61 bc 42 9e b2 bb 4b b6 2f 3c
       0.008460029 -0.013784501 -0.0054509947 0.010724614
000080 db 3a 97 3b d6 1a bf bb 7f 1b 04 3c 97 d2 27 bc
       0.0046151704 -0.0058320565 0.008063196 -0.01024308
000090 4b 53 ac bb 6f 4e 3d bc f0 98 ea bb 6d 12 2b bb
       -0.0052589527 -0.011554345 -0.007159345 -0.0026103512
0000a0 cd 9f 37 bc bb 25 20 bc 47 38 00 3c 15 46 00 bb
       -0.011207533 -0.009774621 0.007825918 -0.0019573022
0000b0 e5 c4 e6 ba 17 eb b3 bb fa 3f 41 bc c5 02 bd bb
       -0.0017606287 -0.0054906714 -0.011795038 -0.0057681524
0000c0 96 55 83 bc fb 4b 7b bb 6b 1d 8c 3a 3d b1 38 bb
       -0.016032021 -0.0038344848 0.001068992 -0.0028181814
0000d0 f1 d2 8d bb b4 70 99 ba 87 fe 20 39 e7 6c 44 3b
       -0.0043281247 -0.0011706562 0.00015353608 0.0029972137
0000e0 22 4c 5b 3c 42 e3 e2 bc b0 68 9e ba ab 64 78 3b
       0.013384851 -0.027696256 -0.0012085643 0.00379018
0000f0 26 55 cb 3b 33 2f e5 bb 9a 35 55 b9 25 fc 83 bb
       0.006205219 -0.006994152 -0.00020333231 -0.0040278607
000100 7b a9 7d bb 31 ab 3b 3b 6f ce 15 bc a3 bd 7d bc
       -0.0038705755 0.0028635974 -0.009143456 -0.015487107
000110 c2 eb f0 ba d7 ec 6d bc fc c2 a3 bb 84 f9 3a 39
       -0.0018380808 -0.014521799 -0.004997609 0.00017831294
000120 b2 19 66 ba 75 5e 6d 3b 90 b3 37 bc 4f 2e 20 bc
       -0.00087776326 0.003621963 -0.011212245 -0.009776666
000130 26 1e 86 3a f5 05 02 bb 6f e9 d4 3a b0 87 e6 3a
       0.0010232374 -0.0019839976 0.0016243885 0.0017588045
000140 a8 6b bf ba 93 b0 41 3c 45 4c 6f bb c3 b6 6b bb
       -0.0014604228 0.011821884 -0.0036513966 -0.0035967089
000150 ca 55 4e ba 86 d8 0c bc 88 e2 42 bc 0f 56 51 bc
       -0.000787106 -0.008596545 -0.01189483 -0.012776866
000160 f3 66 0a bc 21 9b c6 3b 89 59 13 3a bd 8c 74 bb
       -0.008447397 0.0060609733 0.0005620947 -0.0037315332
000170 b0 bd 6b bb f0 bb f9 bb f8 a3 67 3b 0f c9 04 bb
       -0.0035971217 -0.007621281 0.0035345536 -0.0020261442
000180 ff 82 0e bc b3 42 66 bb 29 8e 46 3c 55 fc 76 3b
       -0.008698224 -0.003513497 0.012118855 0.0037687023
000190 99 ba 8e 3b c3 2e 0b 3b 3b 62 53 bc 8d ab e5 bb
       0.0043557403 0.002123759 -0.012901838 -0.007008976
0001a0 43 f7 dc bb 33 19 4f bc 63 62 b9 ba 22 e0 85 ba
       -0.006743343 -0.012640285 -0.0014143701 -0.0010213892
0001b0 e6 d5 b6 bb 26 6c 9c 3b cb f3 7f 3c 88 52 18 3c
       -0.005579698 0.0047736345 0.01562209 0.009297021
0001c0 c2 53 64 bb 20 5f 57 bc b3 32 94 bb b3 f1 0e 3b
       -0.0034839963 -0.013145238 -0.0045226454 0.0021811544
0001d0 83 0b df 3a 5b 5b a9 3c 14 9e a1 bb f7 de 01 bc
       0.001701698 0.020673444 -0.0049321745 -0.007926694
0001e0 3b 66 a7 bb 2e 6e 38 bb b4 f5 1d bc d5 68 42 3c
       -0.0051086224 -0.0028141844 -0.0096411 0.011865814
0001f0 83 75 96 bb cb 71 2d bc e1 b6 05 bc 3e 4d 96 39
       -0.004591645 -0.010586212 -0.0081612775 0.0002866778
