actualgame/results/NewLocomotionRun5/Agent Controller/Agent Controller-133748.onnx (onnx, 88020 bytes, 8 tensors)

network_body._body_endoder.seq_layers.0.weight f4 [128, 25]
00000000: 57ba 433d 3687 54be 857f 84be 044c 1f3e
00000010: 222a 7d3e 486c cbbe 2dc5 c73d ee68 e0bd
00000020: 8ecf 103e b035 adbe e9bc 993e 0717 9cbe
00000030: 6fde 64be 6125 b2be 5395 073e 23a0 fcbe
00000040: 1b0b 78be 6064 d8bb 2b80 e0be 01ce f4bd
00000050: 55ee 1b3e b439 75bd 02b6 1c3e 8809 67be
00000060: 3ad8 823e 0571 6d3d 1a36 c93d d0f3 0a3e
00000070: 502b 843e 286d 7a3e 4a32 9b3e 82d0 25bd
00000080: e2d5 64be ab48 3b3e 07a4 90be d093 b43e
00000090: 2e14 7a3e cfd5 823e c637 a9be bf1e 12bc
000000a0: 42c3 523e 19f6 9b3d 424f 41bc c595 9e3c
000000b0: 8466 b43d 82e5 853e 697b 243e f01a 123e
000000c0: 3e5d 0dbf 7110 af3d df91 c3be 0f6f 603e
000000d0: dcd0 d4be ccc3 6f3e 1db8 af3d 17c3 123f
000000e0: 1458 2a3e da0b 773e 6614 293d 127a c33d
000000f0: ca18 34be 8583 e7bd d6db 3fbe 915e 02bf
00000100: 5112 613e 0489 5c3d 285b 913e e547 78be
00000110: 0ad0 9e3d cd03 bcbd 16f7 4f3e 2d6b f03d
00000120: 7ee0 84bd ea3a 8bbd 0a57 39be c0c7 4cbe
00000130: f3df 31be 31fa c4bd 8563 b33e 9110 84bd
00000140: 04cd 573c ae67 fdbb dda0 853e 4fcc 043e
00000150: 9cd1 c43d 426a 513e 15c8 303c 739b b7be
00000160: 018c bd3d b144 b73c 0d86 bcbd d1b6 e73e
00000170: 2f86 45bd ab29 4d3e bfd8 42be 7160 623d
00000180: 0beb f63b 2199 bfbe 12d8 0d3d f48b 6f3d
00000190: 3161 cd3d 3cbc 81be ef3f 9f3d e02d 693d
000001a0: 62e7 b13e 7c6f 483d bc08 453b 3293 87be
000001b0: 5639 0cbd 24e9 493e 487c 05be a585 7b3e
000001c0: e463 22be 141e 8ebe 8e4c 48be 1878 643e
000001d0: 3e44 40bd b062 963d e51d d9bd b30b 7d3d
000001e0: 907e 1f3c 8303 093e 52a1 c8bd fb32 a63e
000001f0: 10ee f7bd 0292 653e dabd 43bc 49f4 833e
00000200: ba2c 4d3d 8d5b b7bd dc77 aa3e afd6 5cbd
00000210: 802c a0bc a7dd 623e ad24 a7bd 4492 f23d
00000220: 6ea4 bbbc 4e6b d83d 7e34 d93c 1897 acbe
00000230: db2b bf3e 2908 873e 7d7f b23d 6f85 053e
00000240: 0cf2 9a3e 86dd 93be 7542 96be 9d43 fabe
00000250: b4ed 833e 43ce 95bd efca b7bd ddb0 2d3e
00000260: 1707 8dbe f553 283e 27cc 3d3e ca8e 6abe
00000270: b1ea 19bf ba78 f8bd 6142 cf3d 4dbe c3be
00000280: a796 22be 66f4 b0be 29de 27be 1226 c8be
00000290: 4fe4 70be 3fcd 80bb ccaa 87be 49ec c6bb
000002a0: ce10 58be d5fa 183e c352 5bbe b90c bf3e
000002b0: 8565 2b3e d1b5 98bd b4c4 953e 19a1 c13e
000002c0: 5997 91bc 37f6 ec3d 502a 23be 8be1 9b3e
000002d0: ec49 053e bf90 b8be 650f 0a3e 2a99 84bd
000002e0: c62d 7abe 7919 a9be d220 813c 5b51 ecbd
000002f0: 35bb a1bd f496 1e3e 99d8 243e a7ce 71bd
00000300: 15e5 023e b324 7e3e 4653 193d bccb 5cbd
00000310: 2228 2f3d 53d1 92be 6c31 17be 261a 0a3e
00000320: b075 ab3d f857 803d 7b5b bf3d 7374 7e3d
00000330: df81 753d fe0e 923e 4980 ecbd 539a 673e
00000340: f284 80be 6626 243c 5ee7 8c3d 3bc5 61be
00000350: 701c c03c 608a 2a3e 2313 413e 46f6 3c3c
00000360: 8622 a0be 1b72 7a3d 4517 9d3d c82e 253e
00000370: aa62 afbd 848c 923c 6e80 9dbe 1437 cfbb
00000380: 10ee 0fba 9233 cebe bef9 943d e4ad 12be
00000390: 750c a9bd 5834 2dbc 0cb2 6a3d 6517 2d3d
000003a0: 7e45 903e 336a f43e 8915 283c dbda 883e
000003b0: 6c2b 0a3e 3f7d 4a3e 5aa9 ddbd 369d 6ebe
000003c0: 179f 933d bb06 f3be 8a72 533d 278d 883c
000003d0: 32e9 ed3b d829 f0bd 19e4 1dbd 54e5 063e
000003e0: 2e1e 67bd 8018 22be 9a99 87be 6875 053f
000003f0: 7c5c 41be a3e9 a9bc 37b6 013e 4d71 38bd
0.04778513 -0.20754704 -0.2587854 0.15556341 0.24723104 -0.3973105 0.09754405 -0.10957514
0.14141676 -0.33830023 0.3002694 -0.30486318 -0.22350477 -0.34794143 0.13240556 -0.49340925
-0.24222986 -0.0066037625 -0.43847784 -0.119533546 0.15227635 -0.059869483 0.15303805 -0.2256223
0.25555593 0.057969112 0.09824772 0.1356957 0.25814295 0.24455702 0.30311805 -0.04048205
-0.22347215 0.1828944 -0.28250143 0.35269022 0.2442176 0.25553748 -0.33050364 -0.008918463
0.20582297 0.07615299 -0.011798682 0.019358525 0.08808616 0.26151663 0.16062702 0.14268088
-0.552204 0.08548058 -0.38197228 0.21917365 -0.41565597 0.23414534 0.08580039 0.57328933
0.16635162 0.24125615 0.04127922 0.095447674 -0.17587581 -0.11304382 -0.18736205 -0.50925547
0.21979643 0.053841606 0.2838986 -0.24246176 0.07754524 -0.091804124 0.203091 0.11739192
-0.06488131 -0.06798346 -0.18099609 -0.19998074 -0.17370586 -0.09618033 0.35036865 -0.06448472
0.013171438 -0.007733307 0.2609929 0.12968563 0.09610292 0.2045069 0.010789891 -0.35860786
0.09255219 0.022371622 -0.09205256 0.45256665 -0.04822367 0.20035426 -0.19027995 0.055267755
0.0075353435 -0.37421516 0.03462989 0.05848308 0.100283034 -0.25338924 0.07775866 0.056928515
0.34746844 0.048934445 0.003006502 -0.2647949 -0.034234367 0.19717842 -0.13035691 0.245627
-0.15858418 -0.27757323 -0.19560453 0.22311437 -0.04694008 0.07343042 -0.10601405 0.061778735
0.009734765 0.13380246 -0.097963944 0.3246077 -0.12105954 0.22418979 -0.01194712 0.25772312
0.050091483 -0.08953009 0.3329457 -0.053915676 -0.01955247 0.22154866 -0.08161292 0.11844304
-0.022905555 0.10567342 0.026514288 -0.33709025 0.37338147 0.26373413 0.08715723 0.13039182
0.30262792 -0.28879946 -0.29347578 -0.4887971 0.2576729 -0.07314732 -0.089742534 0.16961999
-0.27544472 0.16438277 0.18534909 -0.22906032 -0.60123736 -0.12132402 0.10120083 -0.38231125
-0.15877782 -0.3456146 -0.16393341 -0.39091545 -0.23524593 -0.0039307172 -0.26497495 -0.006070648
-0.2110016 0.14939435 -0.2141829 0.37314394 0.16737945 -0.07456554 0.29251635 0.3781822
-0.017772363 0.11570399 -0.1593411 0.30445513 0.1301648 -0.36047933 0.13482435 -0.06474526
-0.24431524 -0.33027247 0.01576272 -0.11538955 -0.07897035 0.15487272 0.1609825 -0.05903497
0.127827 0.24818687 0.03743293 -0.053905234 0.042762883 -0.28675327 -0.14764947 0.13486537
0.083720565 0.06266779 0.093436204 0.062122773 0.059938308 0.28527063 -0.11547906 0.22617464
-0.2510143 0.0100189205 0.06880067 -0.22047894 0.02345106 0.16654348 0.18854956 0.011533326
-0.3127634 0.061143976 0.07670454 0.16131127 -0.085637406 0.017889269 -0.30762047 -0.0063237045
-0.0005490491 -0.4027372 0.07274197 -0.14324147 -0.08254329 -0.010571562 0.057298705 0.04225864
0.28178018 0.47737274 0.010259041 0.26729473 0.13493127 0.1977434 -0.10823317 -0.23302159
0.07208078 -0.47466072 0.051622905 0.01666887 0.007260465 -0.11726731 -0.03854761 0.13173419
-0.056425266 -0.15829659 -0.26484376 0.5213227 -0.18882936 -0.02074129 0.12667166 -0.045029927

network_body._body_endoder.seq_layers.0.bias f4 [128]
00000000: 1a09 8fbb 71c1 9dbc f0a3 4ebc eaaa 5dbc
00000010: 4676 333c 5426 a33c 374e dd3c 67cb 003c
00000020: 125c b8b8 495c 61bc 18c0 8bbc a81a a43c
00000030: 142e 89bb 528d 93bc adb8 93bc 7e77 9fbc
00000040: 4682 83bc 85fa 433c f134 8cbc 0ea5 87bc
00000050: bfc7 83bc 84ee e63b 95df 01bc 84fa 033c
00000060: 0580 2ebc 44a9 4a3c 821d 12bc f8b0 8fbc
00000070: d786 f73c 36d6 a1bc 3e4f 863b 4e47 bd3c
00000080: 4a1a d23c 20c7 02bd 45bb a2bc 437b 8bbc
00000090: 69a7 90bc 25fd 8b3a 7d0a 1e3c 8530 3cbd
000000a0: 79c0 e4bc 124a b33c 9288 a0bc 91a5 7e3c
000000b0: 4bcf de3b e20e 9c3a a3d5 9a3c 8baf 0bbc
000000c0: 080e 613c b493 b33c 3be9 adbb c792 3abb
000000d0: 6f7d aabb 765c eabb e4c7 4d3c 9cdb bd3c
000000e0: 144a 6cbc f0c3 683c c3ac feba 9b8b 783b
000000f0: d7ff 71bc bf5e 3dbc ea15 59bb a5f8 9c3c
00000100: d6c8 0a3c 5f0b 853c 18be 08bc ab1f a3bc
00000110: 32ea 0cbc 0c6c 69bc 36dd 76bb d921 143d
00000120: bc03 91bc 3158 a03c 2dfa 94bb b9e1 253b
00000130: a756 81bb e6f5 ab3c 8756 c33b 529b 86ba
00000140: 6200 753c 68b9 d0bc 33f2 173c dcde bbbc
00000150: 02e5 3a3c db01 0d3b 156d 943c c0d7 71bb
00000160: 3d05 08bc bca7 233c 0524 02bd 94e8 ef3c
00000170: c339 aebc 9baa 97bc 2c9f 823c ced4 7abc
00000180: 98c3 c6bc 1ab6 64bc 6c6f c63b 9289 1fbc
00000190: ed2b 943c 900f 193b f7ff 013d ae51 31bc
000001a0: 1a34 c33c ae74 cd3c 05de 273c d19f 0d3b
000001b0: 271b d93c 2771 adbc 95ca 02bc 14f1 5cba
000001c0: c175 753b 485f 4a3c c0ff 90bc d032 a3bb
000001d0: 154a c73b 6c6e 653c f44a 153d e2a6 623c
000001e0: 286e 0dbc 0a54 23bc b5da 29bc a27a a0bc
000001f0: 7135 5f3c 9bf7 0c3d 3c25 79bc 8ff8 673c
-0.0043650987 -0.01925728 -0.012612328 -0.013529519 0.010953492 0.019915737 0.027014835 0.007860995
-8.790953e-05 -0.013754913 -0.01705937 0.020032242 -0.004186401 -0.018011723 -0.018032396 -0.019466158
-0.01605333 0.011961584 -0.017115088 -0.016558196 -0.016086457 0.0070474762 -0.007926841 0.008055333
-0.010650639 0.012369458 -0.008918168 -0.01754044 0.030215664 -0.019755464 0.004098802 0.02310529
0.025647301 -0.03192818 -0.019864688 -0.01702655 -0.017657952 0.0010680301 0.009646055 -0.04594471
-0.02792381 0.021885905 -0.019596372 0.015542404 0.0067996136 0.0011906291 0.018900698 -0.008525739
0.0137362555 0.021921016 -0.0053073443 -0.0028468834 -0.005202941 -0.0071521355 0.012559865 0.023176007
-0.0144219585 0.014206871 -0.0019430149 0.0037925008 -0.01477047 -0.011558234 -0.0033124634 0.019161532
0.008470735 0.016240774 -0.008346103 -0.019912561 -0.008600758 -0.014246952 -0.0037668473 0.036165092
-0.017701976 0.019573303 -0.004546425 0.0025311543 -0.0039470973 0.020991277 0.0059612426 -0.0010269678
0.014953705 -0.025479034 0.009274053 -0.022933416 0.011407139 0.0021515999 0.01811842 -0.0036902279
-0.00830203 0.009988721 -0.031772632 0.029285707 -0.021267777 -0.018513968 0.01594504 -0.015309526
-0.024263188 -0.013959432 0.006055763 -0.009737389 0.018087352 0.0023355223 0.031738248 -0.010822697
0.023828555 0.025080051 0.010245805 0.002161015 0.026502205 -0.02117212 -0.00798287 -0.00084282574
0.003745422 0.012351818 -0.017700076 -0.0049804226 0.0060818293 0.014003377 0.036448434 0.013833733
-0.00863222 -0.009968767 -0.010367085 -0.019589726 0.013623581 0.034415822 -0.015206631 0.014158382

network_body._body_endoder.seq_layers.2.weight f4 [128, 128]
00000000: c394 773d 791f cbbd dd19 393d 4a9c 093d
00000010: a570 ee3d ef5e 8bbd 706d e53c 716f 87bd
00000020: 3199 12be 6367 58bd fd27 983d 8cab 4fbd
00000030: a3a4 223d 2cec 74bd 5137 953d a39e 3abd
00000040: f0f7 573c 6186 b8bd a781 8abd 3756 ffbd
00000050: a32f eebc 279d c23c a0ea bd3d 85a0 ae3d
00000060: 654e a63c f3b2 d3bc 2a88 d43d b489 6e3d
00000070: c7f8 26be 4e47 163d 75e5 ec3d 5217 983c
00000080: 46b2 0cbe 5a81 49be dffc 193e 57e1 f93c
00000090: 2ca6 cb3d 9682 9dbc cb7d 7b3d 77ff 8a3d
000000a0: aebe 063d 4bff eebc a6d0 123d bcf0 19be
000000b0: f9a6 59bd a167 333d c4cb f5bb f65e f5bd
000000c0: dc2c 473a 1cf4 a4bc fff7 a8bd b9da 4b3e
000000d0: 36a1 203d 7766 96bd 4a59 b13b d842 16be
000000e0: 549c 1d3e 641e ed3d 5cf4 b33d a6f4 a23d
000000f0: 7943 19bb 1de4 243d 0126 203d 51f8 c23d
00000100: f1df a1bc 13ce aabc 9479 c93b cf27 b9bd
00000110: 05cc 1c3d 2687 403d 038b 1d3e 7e8c 01bd
00000120: 7e4f e83c 8503 643d 291e 06bb 4cf2 a4bc
00000130: e94f 093e 801f 21bd b0e0 22be 7328 e1bd
00000140: 84d4 143d 37c3 1c3d c186 0cbe 28a7 723d
00000150: 5da5 96bd 4715 e2bc d5b2 7cbd 0c1b 603c
00000160: 9056 813d c686 513d b52c edbd 6f9c 02bd
00000170: 8cf5 78bd 9bf2 dc3d dc27 16be 3234 293d
00000180: 03aa c2bd 805b 0c3e 05ee c1bd acf8 f5bd
00000190: ccef bdbd 4f4b c3b9 ccbf 643d 0315 423e
000001a0: 8bf5 e0bc 3d59 febc ff64 16be ec08 003c
000001b0: 910e e5bd f2d0 053e 3ad8 31bc 0b8f 35be
000001c0: fe74 ce3d 2839 b13d 1022 44bd 634c c73d
000001d0: 8c20 febd a2a9 bfbd 623e 71bd cc2a 8bbd
000001e0: a36a 753c a852 9e3d d040 a33d 78e6 103d
000001f0: 5a9f 13be 5708 17be 0359 3cbd 1e71 1bbd
00000200: 2885 07bd d8c8 083e 4add dc3c 3bad 383d
00000210: 90ee bebd aaf0 e93d a6ea 0c3c 892e 9cbd
00000220: bd40 eabc 9f34 093d 45d6 25bd 0610 343e
00000230: a602 b43c 85ff cd3c 5287 9a3d df9a 8abc
00000240: c273 3abd e550 a1bc 9cd7 213d ec89 083d
00000250: 8386 723d 4f49 b8bd 783c 28bd 2920 48bd
00000260: ff0b c53d 3dff c0bd a827 b33c 51ae db3c
00000270: 649b 633b a24b 383e 2b4a 63bd 09fb 613d
00000280: 9703 db3c 01ce 023d 2617 34be 55bb ca3d
00000290: 9456 05be bd8e bc3c cd3d f7bd d82b e53d
000002a0: f3e1 37be 3a37 7fbd 002f cabd 3c74 96bc
000002b0: 6e0d 913d c5b8 62bd 38d6 843d 6034 583d
000002c0: 9464 8d3d 2df0 283d 129e 663c 4de5 33bd
000002d0: f891 adbd 88bd 81bc e192 2fbe c18a cfbd
000002e0: 1867 35bc 0724 c9bd 9ce1 883d e3d2 d7bc
000002f0: d8d6 5dbd 7000 64bd ce1f a63d 3ebe 5ebc
00000300: bdd7 e7bc 20e3 e7bd 33d8 10bd 8e08 4d3e
00000310: 5add a53d 8016 933d 1518 d3bd ab9f a13d
00000320: 61d7 aa3d 07b2 383d 5e22 413d 0cf6 dcbc
00000330: cd6c 023e 676c 183e 5c72 25bb 84e4 cebc
00000340: 94e9 5abd f779 a33d b681 903d d421 b13c
00000350: 4671 583d bed1 113e 57f5 b03b fb4d 4dbd
00000360: 341e 22bd 82fc 0bbe 47de 7cbd 4e4e 3d3d
00000370: 3126 37bd d890 35bd 54e8 f5bd 6324 9a3d
00000380: 94d1 4f3e 908e 803d dd60 643c aed7 00bd
00000390: 96b0 223b 902b 123e c0b6 04bd e7bc 3fbe
000003a0: c834 27bc 7637 d4bc 4058 d1bd bbba 873c
000003b0: 4040 cfbc 091b ca3d 5850 1c3d a8d1 1fbd
000003c0: 69f1 89bb f30b b53d 81d9 0bbd 9e5d f63c
000003d0: 3503 b9bd 8cea 2cbc 8e5d 61bd 5b01 78bd
000003e0: 7915 62bd ce62 8fbb c994 f93d c192 943d
000003f0: d85b 0d3d a1e6 07be 7157 693d 4196 a1bc
0.060444605 -0.09918112 0.04519068 0.033596314 0.11642579 -0.068052165 0.028006285 -0.06613053
-0.1431625 -0.052832972 0.07429502 -0.05070071 0.03970779 -0.059795544 0.072859414 -0.045561444
0.0131816715 -0.09010006 -0.067630105 -0.12467616 -0.02907545 0.023756577 0.09273267 0.085267104
0.020301053 -0.025842166 0.10377534 0.058236793 -0.16305839 0.036689095 0.11567203 0.018565807
-0.13739881 -0.1967825 0.15037869 0.030502958 0.09943804 -0.019227307 0.061399262 0.06787007
0.03289669 -0.029174468 0.035843514 -0.15033239 -0.053137753 0.0438 -0.0075010974 -0.11981003
0.0007597932 -0.020135932 -0.082504265 0.19907655 0.039216243 -0.07343762 0.0054122554 -0.14673936
0.15391666 0.11578062 0.08786842 0.07956819 -0.0023386164 0.04025661 0.039098743 0.09520019
-0.019760104 -0.020850217 0.0061485264 -0.09040796 0.038280506 0.047003888 0.1538506 -0.031628124
0.028358217 0.05566742 -0.0020464754 -0.020135067 0.1340939 -0.03933668 -0.15906024 -0.10994043
0.036335483 0.03827211 -0.1372328 0.059241444 -0.07355759 -0.027598036 -0.061693985 0.0136783235
0.063153386 0.05115392 -0.11580793 -0.031887468 -0.060781047 0.10788461 -0.14663643 0.041309543
-0.095050834 0.1370678 -0.09469227 -0.12010321 -0.09274253 -0.00037249408 0.055846974 0.18953328
-0.027460834 -0.031048412 -0.14686964 0.007814627 -0.11184419 0.13067988 -0.010854775 -0.17730348
0.10080908 0.0865348 -0.047884047 0.097313665 -0.124085516 -0.09358527 -0.058897384 -0.06795272
0.014979037 0.07730609 0.079713464 0.035376042 -0.14416257 -0.14749275 -0.045983326 -0.037949674
-0.033085972 0.13357866 0.026960988 0.04508708 -0.09322846 0.11422856 0.008600866 -0.076260634
-0.028595323 0.03349745 -0.040487546 0.17584237 0.02197392 0.025146255 0.075453416 -0.016919551
-0.04552055 -0.019691894 0.03951226 0.033334658 0.05921031 -0.089983575 -0.041073292 -0.048858795
0.09621429 -0.09423683 0.021869496 0.026816519 0.0034730071 0.17997602 -0.055490654 0.055171046
0.02673511 0.031934742 -0.17586955 0.09899012 -0.13021308 0.023017282 -0.120723344 0.11190003
-0.17957287 -0.062308528 -0.09872246 -0.018365972 0.0708264 -0.05535199 0.064861715 0.052784324
0.069039494 0.041244674 0.014075773 -0.04391985 -0.08475107 -0.015837446 -0.17145874 -0.10133887
-0.011071943 -0.09821325 0.066836566 -0.026345676 -0.05415997 -0.05566448 0.08111535 -0.013595162
-0.028301114 -0.113226175 -0.035362434 0.20022795 0.0809886 0.07182026 -0.10307328 0.078917824
0.083418615 0.045091655 0.047151916 -0.026972793 0.12736817 0.14885102 -0.0025245165 -0.02525545
-0.053445414 0.07982247 0.070559904 0.021622576 0.0528424 0.14240167 0.0054003405 -0.050123196
-0.039579585 -0.13670543 -0.061735418 0.046217255 -0.044714157 -0.044327587 -0.12007204 0.075264715
0.20294791 0.06277192 0.01393911 -0.03145569 0.0024824492 0.1427443 -0.032400846 -0.18724404
-0.010205455 -0.025905352 -0.102219105 0.016568532 -0.025299191 0.09868438 0.03816256 -0.039018303
-0.0042096865 0.0884017 -0.034142975 0.030073937 -0.09033815 -0.010553967 -0.05502086 -0.060548168
-0.05519626 -0.004375792 0.12186582 0.072545536 0.034511417 -0.13271572 0.056968156 -0.019724967

network_body._body_endoder.seq_layers.2.bias f4 [128]
00000000: a5c6 adbc 74d0 c1bc d334 ab3c e9bb 18bc
00000010: 3f12 04bc c7ee a1bc 5aa0 e23c a0be 403c
00000020: 1fd6 a83b 7b58 c3bc 4bd6 e53c a902 9e3c
00000030: 1610 9f3c 628a 4cbc 818c a83b 3b8b 91bc
00000040: 810d 61bc a020 90bc b24e 803c 76f3 b83c
00000050: 8353 3c3b 76fe b8bc 502e 253c 7ce5 6e3c
00000060: efdd bc3c 4a46 00bc 557c c7bc 8ae8 be3c
00000070: f8d4 073d a890 2dbc 5ce0 053c 4127 8ebc
00000080: d587 72bc c4db 163c 2c64 f1b9 f398 693c
00000090: 9d9c 12bc 6cac 98bc 8499 99bc 2cfb b8bc
000000a0: 8ee1 a9bc 351a 88bc 01bb 8bbc 6b02 38ba
000000b0: f973 1abc e29d 0bbc 34ab a5bc cb60 16bc
000000c0: 72af 903c 7415 023c 187c 74bc 5c6d 753c
000000d0: c3a4 423c bb26 a73c f00a 1b3c a5f0 ee3c
000000e0: d65e cbbc 8e45 f13c c719 9a3c e9ac 793c
000000f0: 7ba3 b73c bac9 cdbc 595c aebc 93a0 d1bc
00000100: 9dac bdbc 01c2 b1bc 7be6 a43c 5417 a8bc
00000110: 4ddb 9cbc 34ed 20bc 11a5 bebc 9e2f e3bc
00000120: fd03 d4b9 45ff f83c d1b8 bf3c ec3c 793c
00000130: 7cfa 703b eff2 cebc 8285 783c 2bd5 68bc
00000140: f753 be3c ec49 573b eaef 70bb 9975 3b3c
00000150: 0521 a83c ea33 8bbc 459b 983c 07a7 ab3c
00000160: 5477 cabc f881 603c d96c cbbb b4ee 4b3b
00000170: 493a aa3c 6cc9 473c 81ee 37bc b716 abbc
00000180: 226d f5bc 662a 8fbc 983b b6bc a566 b4bc
00000190: e415 afbc 78e4 013d ffef c73b 74e7 d7bc
000001a0: 2b87 a6bc d967 c8bc e179 e03c 905b d73c
000001b0: ad36 79bc 49fb 843c 7eb2 9c3c 3dcb 21bb
000001c0: 2898 3ebc 330b 7c3c 4cf5 2e3c f66a cc3b
000001d0: 0fd6 17bd 9977 b13c ca43 8dbc c8de 923c
000001e0: 8ef8 0b3d 332d a8bc 139b 873c 3aa1 35bc
000001f0: ddbe ec3c fcc8 b6bc 127f 60bb 34f7 63bb
-0.021212885 -0.023658969 0.020899212 -0.009322145 -0.008060991 -0.019767178 0.027664352 0.011764199
0.0051524783 -0.023845902 0.028056284 0.019288378 0.01941685 -0.012484165 0.0051437025 -0.017766586
-0.01373613 -0.017593682 0.015662525 0.022577029 0.00287363 -0.022582274 0.010081843 0.0145810805
0.023055045 -0.007829258 -0.024351278 0.023304243 0.033162087 -0.010593571 0.008171167 -0.017352702
-0.014802893 0.00920767 -0.00046041736 0.014257657 -0.008948472 -0.018636905 -0.01874996 -0.022580706
-0.020737436 -0.016614059 -0.017056944 -0.0007019403 -0.009427064 -0.008521529 -0.020223238 -0.009178351
0.017661784 0.007939685 -0.014922164 0.014979687 0.011880103 0.02040421 0.009463057 0.029167483
-0.024825495 0.029452112 0.01881112 0.015238979 0.02241682 -0.025120605 -0.02128427 -0.025589263
-0.023153597 -0.021698954 0.020129433 -0.020518936 -0.01914754 -0.009822179 -0.02327207 -0.027732667
-0.00040438763 0.03039516 0.023403557 0.015212279 0.0036770394 -0.025262324 0.0151685495 -0.014210979
0.023233397 0.0032850457 -0.0036764094 0.011441612 0.020523557 -0.016992528 0.018628726 0.020953668
-0.024715103 0.013702862 -0.006208044 0.003111762 0.020779746 0.012194019 -0.011226297 -0.020884855
-0.029959265 -0.017476272 -0.022245213 -0.022021601 -0.021372743 0.031712025 0.006101608 -0.026355483
-0.020328125 -0.02446358 0.027401866 0.026288778 -0.01521079 0.016233103 0.01912808 -0.002468779
-0.011632957 0.0153835295 0.0106786005 0.0062383367 -0.037069377 0.021663474 -0.017244238 0.017928496
0.034172587 -0.020529365 0.016553437 -0.011085803 0.028899604 -0.022312634 -0.0034255427 -0.0034784796

action_model._continuous_distribution.log_sigma f4 [1, 2]
00000000: 66e9 883a 5cee 353b
0.0010445535 0.0027760481

action_model._continuous_distribution.mu.weight f4 [2, 128]
00000000: b8a0 e2bb c4fb 003c e1d6 4f3c 7a45 013c
00000010: a9b6 80bc 76ea 003c 6a45 94bc e090 093d
00000020: ffdc 56bb 3670 8d3c c377 00bc 2d01 2e3c
00000030: 56e3 323c 0a57 bdbc 8084 eebc d768 29bc
00000040: d939 cf3c 6070 213c ec06 3d3c f06a 60bc
00000050: 0f5f 843c e36f d4bb 81bc d63b 1e3d 03bd
00000060: e96e 45bc ce37 d33c 7b6c 30ba 2f51 84bc
00000070: 13ed 81bb d149 1dbd 36a1 07bd 8964 b6bc
00000080: 94ea bf3c fd1f 74bc ce45 363c 5152 54bc
00000090: cb38 173d f316 4bbc 51ff 1fbb 99fa c33c
000000a0: 9771 133c dde9 50bc 49ce c13c 876f 05bd
000000b0: 3bde e1bc a8ff dd3c 469b 2e3c cc9c 2dbb
000000c0: db5c b3bb c60b 103c 473f 08bc 249d 2e3c
000000d0: 572a 163d d948 a3bc 9878 90bc eae2 cebb
000000e0: f977 baba 1f51 a73a 28f4 a43c a5dd 893c
000000f0: 70c1 653c 80b3 aa3b 9dad a7bb dde0 3239
00000100: 5e06 55ba 8939 a7bb 6f90 6a3b 3386 b6bb
00000110: 32c3 6bbb 30e4 89bc 265c 3d3c 1d12 d7bb
00000120: d580 22bd f182 18bc 5c09 c7bc 52d6 81bc
00000130: b0f8 2bbd e9b5 1dbc 4eee 5abc 7ae3 1e3c
00000140: 605a 853c b356 d13c 175d ad3c 4eae f53a
00000150: 215b 0c3c b0f6 6abc 85bb b03b b4ce 723b
00000160: 4c45 ca3b 0bdd 253c 328c 993c 8793 ea3b
00000170: 7e9e 8a3c de59 ba3c bc26 733b 7942 983b
00000180: 62bf 883b 5051 01bc f6ad 5d3c 44be 083c
00000190: 7418 903c aa76 03bb b8f9 0ebc 4c68 c83c
000001a0: e21a 3f3c 5042 a83b 90cf daba 32bc efbc
000001b0: 7729 63bc 428c 543c f63c 833b 2962 9fbc
000001c0: e803 243c 483b 103b 70a9 2f3b b0d9 bebc
000001d0: 542c 9139 3824 b83a ae95 8ebb 6a28 c6bb
000001e0: b3e8 043b 67d2 a63c 7bc1 903b 6a89 0d3d
000001f0: a777 49bc 70a1 ccba faf6 643b 020e d4bb
00000200: 99cd 503d 7f0c 0c3c 823a 41bd bcb6 ff3b
00000210: 3aeb 4c3c e531 3f3d 0257 47bc 7ba9 8dbc
00000220: e2ba 3bbb 15a0 933c 2022 c8bc 0c65 eabb
00000230: 45a6 aabc 9005 9a3c f108 c7bb a038 3e3c
00000240: 8c7f 563c 61c0 443c 4f19 a5bc 4716 9cbc
00000250: f68b e1ba 807e 163d cabf 94bb 5b43 84bc
00000260: 173f c1bc ceac d63b 939c 753c 6c3b a9bc
00000270: 4d64 9ebc edd4 833c 8b7a 513b 6dde 9c3c
00000280: 8a05 373b 935b 5ebc 8ab3 243b a2ae 9d38
00000290: baa8 e43c bc45 c63c add7 a63c d0ed 213d
000002a0: 4f8d 6e3c c208 093d aba1 fc3b 8822 d73b
000002b0: 4a4b 7d3c 8717 1d3a 5d8e 283d 6e2d 123c
000002c0: 7746 afbc ff4b e1b9 a888 2e3c fb64 95bc
000002d0: 60fb c5bc 3d21 e9bc 1320 80ba f96e a8bc
000002e0: 74d4 ec3b e42d adbc d87e 3ebd 69b1 51bc
000002f0: b02b 19bd bf66 ab3c 0e30 e33c 9534 073c
00000300: 15cd b13b 6f74 bf3c 1c60 8abc bb7a f63b
00000310: 260a 8d3c f8ae 233c abbd 9d3c f31b ca3c
00000320: 05b2 873b 200e c5bc e5cf ffbc fc74 9a39
00000330: 3bce 3d3a 866c fa3c e601 bfbc b9b0 183b
00000340: c9d3 1abd 8f5f 66bb ffeb d83b 0af5 88bb
00000350: 4d9f a8bc c734 033d da30 4cbc a2b9 fdbc
00000360: 24d3 b63c e6be 67bc 7bf8 ce3b 7dbd 6839
00000370: 4191 20bd 5496 c0bc 5b85 ef3b 15f5 cf3c
00000380: c412 293c c73f ab3c 1b9a 363d dfcc 523c
00000390: 40f9 913c 5366 5dbd 8416 8cbb 0e55 113d
000003a0: d13c cb3c 0110 363d 4abd 0fbd 6125 e6bc
000003b0: 0e93 b63b 50b0 55bc c7e5 a2bc 281c d5bb
000003c0: fba6 9dba 1cde 73bc ff60 e1bb 41a2 0dbb
000003d0: 4843 ee3c 2c78 c9bc b61a 2b3d 2699 abbc
000003e0: 2074 d6bc 900e 993c 8c9b 2abc 267e b23c
000003f0: c439 21bd e700 9c3c 2d5c 8cbb 0070 813b
-0.006916132 0.007872526 0.0126855085 0.0078901 -0.0157121 0.0078684 -0.018099505 0.03358543
-0.0032785533 0.01726542 -0.007841053 0.0106203975 0.010918459 -0.023112793 -0.029115915 -0.010339937
0.025296139 0.009853452 0.011537295 -0.013697371 0.016158609 -0.0064830645 0.006553233 -0.032040708
-0.012050369 0.025783446 -0.0006730032 -0.016151993 -0.003965029 -0.038400475 -0.033112727 -0.022264736
0.023427285 -0.014900205 0.011125041 -0.012959079 0.036919396 -0.012395608 -0.0024413655 0.023923205
0.00899925 -0.01275107 0.023657935 -0.032577064 -0.027571788 0.027099445 0.010657137 -0.0026491163
-0.0054737157 0.0087918695 -0.008315868 0.010657582 0.036661472 -0.019932197 -0.017635629 -0.0063136714
-0.0014226428 0.0012765265 0.020135954 0.016829321 0.01402317 0.0052093863 -0.005117132 0.00017059171
-0.0008126254 -0.0051032943 0.0035791656 -0.005570197 -0.00359745 -0.016832441 0.011557614 -0.0065634386
-0.039673645 -0.009308563 -0.024296455 -0.015849266 -0.041985214 -0.00962589 -0.01336248 0.009697789
0.016278446 0.025554037 0.021162553 0.0018743963 0.008566649 -0.014341041 0.005393448 0.0037049474
0.0061728116 0.0101235015 0.018743608 0.0071587 0.016921278 0.02274793 0.0037101945 0.004646596
0.0041732052 -0.007892922 0.013530245 0.008346144 0.017589785 -0.0020059743 -0.00872653 0.024463795
0.011664124 0.005134858 -0.0016693939 -0.029264543 -0.013864866 0.012972893 0.00400507 -0.019455986
0.010010697 0.002200799 0.0026803873 -0.02329716 0.00027689582 0.001404888 -0.0043513393 -0.006047298
0.00202803 0.020364 0.004417596 0.034554876 -0.012296594 -0.0015612077 0.0034937249 -0.0064713964
0.050977323 0.008547901 -0.047174938 0.007803766 0.012507254 0.046678443 -0.01216674 -0.017292729
-0.0028645326 0.018020669 -0.024430335 -0.007153159 -0.020831237 0.01880148 -0.006074064 0.01161018
0.013091933 0.012008757 -0.02015367 -0.019053591 -0.0017207849 0.036741734 -0.0045394646 -0.016145399
-0.023589654 0.0065513616 0.0149909435 -0.020658217 -0.019334937 0.016092742 0.003196391 0.01914903
0.0027926886 -0.013571638 0.0025131428 7.518871e-05 0.027912486 0.024203174 0.020366514 0.039533436
0.014560058 0.033455618 0.007709702 0.0065653957 0.015459845 0.00059925806 0.041151393 0.008921964
-0.021395905 -0.00042971966 0.010652699 -0.018236628 -0.024167717 -0.028458232 -0.0009775184 -0.020560728
0.007227475 -0.021140046 -0.046507686 -0.0127986455 -0.03739518 0.020923017 0.027732875 0.008252283
0.005426059 0.02337095 -0.016891532 0.007521955 0.017216753 0.009990446 0.01925548 0.02467153
0.0041410946 -0.024054587 -0.031227062 0.0002946033 0.00072405086 0.030569326 -0.023316335 0.0023298694
-0.03779963 -0.0035152172 0.00661993 -0.0041796016 -0.020583773 0.032032754 -0.012462819 -0.030972306
0.022317477 -0.014144635 0.0063162423 0.00022195834 -0.039201025 -0.023509182 0.0073095984 0.025385419
0.0103194155 0.020904435 0.04458056 0.012866228 0.017819047 -0.054052662 -0.004275145 0.035481505
0.024809273 0.044448856 -0.03509263 -0.028093996 0.0055717295 -0.013042524 -0.019884957 -0.0065036006
-0.0012027913 -0.014884498 -0.006878018 -0.0021611603 0.029084817 -0.024593435 0.04177352 -0.02094705
-0.02617842 0.018683702 -0.010413062 0.021788668 -0.03936173 0.019043399 -0.004283449 0.003950119

action_model._continuous_distribution.mu.bias f4 [2]
00000000: e342 20bb 2ae2 c1bc
-0.002445393 -0.023667414

action_model._discrete_distribution.branches.0.weight f4 [1, 128]
00000000: 4743 bebb 64fd 1fbc f326 b13a d5f0 69bc
00000010: 34e2 103b f0a1 8e3a 19ff 203b 8718 83ba
00000020: ba03 c9bb ba59 4fbb d581 d53b beda 9f3c
00000030: d30f e0bb f0e5 9f3b 6aae 5dbc a293 44bc
00000040: 57b7 c43b c822 293b b726 09bc f290 d539
00000050: 8d2d 373c f703 053c 3376 093c ef19 f939
00000060: 88aa b0bb 5ff4 f43b bca9 c3bb a375 7a3c
00000070: d447 113c 02e7 ab3b 9eea 0c3c a939 46bc
00000080: 4790 7dbb 74a8 273c e3ae a63b 1285 1a3c
00000090: 2056 fabb eb7c a73c 53c8 cd3b 1129 2f3b
000000a0: b20c 2c3c 13bc 3bba a9c1 3a3b 2d11 39bc
000000b0: 00a7 35bb b70f e43b a31d 123c 8143 81bb
000000c0: 12d2 e1ba ba68 46bb cba1 deba f84d 3dbc
000000d0: 23c0 72bc b000 743c 27ed f8bb 22c9 bfbb
000000e0: 3239 fb3b bfb3 ad3b 1a09 0bbc 28ee 41bc
000000f0: 5db7 50bb a87f f03b 39d8 bc3a c7a1 ae3b
00000100: 7f75 fa3a 4f37 be3b a562 b6bc 8070 40bb
00000110: 2f9c 173c efdb 89bb 5751 61b9 3a6f 83bb
00000120: 3ed5 abbc f3bf 88ba 9342 a73c 407a fbbb
00000130: 793a 453c 6a74 753c 6856 8b3b 87e8 0cbc
00000140: 7b47 b23b 87ae 073c a780 e33b 4c2a 1b3c
00000150: 5c55 c8bb 6788 463c 6710 c63b 934c 8b39
00000160: 23bf daba a0ac cdbb 134b 703b 1aaf 4b3b
00000170: b12e cbbb 7d7c f9bb 3d94 44bb 53b7 a83b
00000180: b76e b33b 1ae4 b33a 2487 c63b a207 21bc
00000190: ae64 263c d034 7f3c d2c3 c5bb 8d62 ffbb
000001a0: fa6e afbb 042f 9d3b 5347 cfba 4464 973c
000001b0: 6dbb c2ba 4c6f ca3b 9e07 0a3c 27ac 803c
000001c0: f2bf 77bb a280 c53a 5f01 2fbb f67e 023c
000001d0: 11ca 8d3c b0a8 a73a ddf0 463b 75e8 6c3b
000001e0: 814c 11bb cb72 aebb e39a 1bba cfc9 23bc
000001f0: 8ba9 e9bb 6b8e 1abb 0397 f4bb 7c62 8b3b
-0.00580636 -0.009765003 0.0013515636 -0.01427861 0.0022107484 0.0010882001 0.0024566113 -0.0010001817
-0.0061344774 -0.0031639175 0.0065157213 0.019513484 -0.006837824 0.0048797056 -0.013530353 -0.011998089
0.006003301 0.0025808085 -0.008371047 0.0004073452 0.011180294 0.008118621 0.008389997 0.00047512303
-0.0053914227 0.0074754204 -0.0059711616 0.015286836 0.008867223 0.005246044 0.008600859 -0.012098708
-0.0038690732 0.010233033 0.005086766 0.0094311405 -0.0076396614 0.020445308 0.006279984 0.0026727358
0.010501074 -0.0007161509 0.0028496778 -0.011295599 -0.0027717948 0.006959881 0.008918199 -0.0039448147
-0.0017228744 -0.0030274824 -0.0016985474 -0.011554234 -0.014816317 0.014892742 -0.00759663 -0.0058528343
0.0076667303 0.0053009684 -0.008486057 -0.011836566 -0.0031847574 0.0073394366 0.0014407701 0.005329344
0.0019108503 0.005804933 -0.022263834 -0.002936393 0.009253546 -0.0042071263 -0.00021487974 -0.004011062
-0.020975705 -0.0010433182 0.020417487 -0.0076744854 0.012037867 0.014981369 0.004252244 -0.008600361
0.00544065 0.008281357 0.006942827 0.009470534 -0.0061136913 0.012117482 0.006044436 0.00026569198
-0.0016689043 -0.006276682 0.0036665841 0.003107971 -0.0062006344 -0.007613717 -0.0029995583 0.005148807
0.0054758447 0.0013724596 0.0060585905 -0.00982848 0.01015584 0.015576556 -0.0060353065 -0.0077937306
-0.0053538056 0.0047968645 -0.0015814103 0.018480428 -0.0014856883 0.0061778184 0.008424668 0.015707089
-0.0037803617 0.0015068243 -0.0026703698 0.00796484 0.017308267 0.0012791362 0.0030355968 0.0036149297
-0.0022170844 -0.005323743 -0.00059358607 -0.009996845 -0.007130807 -0.0023583423 -0.007464291 0.0042536836
