actualgame/results/=PelletGrabberRun2/Agent Controller/Agent Controller-7091.pt (torch, 150592 bytes, 11 tensors)

network_body._body_endoder.seq_layers.0.weight f4 [128, 6]
000000 7e fe 82 3e 13 8e 96 be b6 a2 05 bd 34 82 48 bd
       0.25584787 -0.2940527 -0.032625876 -0.048952296
000010 97 ad 11 3e 82 39 46 bf 78 07 39 3e 6c 15 d6 bc
       0.14226376 -0.774315 0.18069255 -0.026133262
000020 84 8c 6b 3e 27 33 84 3d a2 a6 32 bf fc b9 ab 3d
       0.23002821 0.06455069 -0.6978551 0.08385083
000030 12 a0 a4 be 5c ef 04 3e 09 a4 1f 3e 98 e8 86 bd
       -0.32153374 0.12981933 0.15589918 -0.065873325
000040 03 f3 1c 3f 02 82 ef 3e 36 ac 10 bf ba 50 e1 3e
       0.61308306 0.46778876 -0.56512773 0.44006902
000050 a5 0b 26 3f 66 cd 38 3f 8f f5 c4 be 37 10 d7 3d
       0.6486152 0.72188413 -0.38468596 0.105011396
000060 49 58 0f 3f c8 fa f8 3e d6 d2 cc be 10 5f 16 be
       0.5599409 0.4862883 -0.40004605 -0.14684701
000070 eb dc ee 3e 09 2e 93 bf 7b dc db 3d b0 72 56 3f
       0.46652922 -1.1498424 0.10735413 0.8376875
000080 ab 85 f0 3e de f8 35 bb 2e 31 20 bd ba c5 54 be
       0.4697698 -0.0027766745 -0.0391094 -0.20778552
000090 f6 7d 90 be 57 1e 7a 3f 9a d0 df 3e 3b 18 9f 3c
       -0.282211 0.97702545 0.43713838 0.019420734
0000a0 60 ec 4a 3f 35 74 8d 3e d4 66 f4 3e b1 4f ab 3d
       0.7926693 0.2762772 0.47734702 0.08364809
0000b0 d4 27 21 bf b5 99 9a 3e f0 39 81 be 78 61 12 bd
       -0.629514 0.30195394 -0.25239515 -0.035737485
0000c0 dc 08 14 3e 74 af bf 3e 6f 37 7a be 24 d6 1a be
       0.14456505 0.37438548 -0.24435209 -0.1512075
0000d0 9e ea ec 3d 52 15 32 be cb 70 9b 3e bb f9 07 3f
       0.11568187 -0.17390946 0.30359492 0.53115433
0000e0 c0 6c 8b bd 99 cc 93 3d 76 00 b8 bd 82 79 b7 3d
       -0.06807852 0.07216758 -0.08984463 0.08958723
0000f0 2c fa 72 be 53 d4 6f bf e8 4c 91 3e 68 ed 17 bf
       -0.23728245 -0.93683356 0.28378987 -0.5934663
000100 93 2b 4d bf 7d cd b7 3d 87 f4 ee be e8 04 5d 3e
       -0.80144614 0.08974741 -0.46670935 0.21583903
000110 b6 64 ed be 53 b9 7e 3e 97 0d 89 3e 37 d2 f4 bd
       -0.463659 0.24875383 0.2676818 -0.11954158
000120 cd ef 52 be 59 d2 cb 3e 93 a5 49 3f 61 3e 92 3f
       -0.20599289 0.3980892 0.7876827 1.1425287
000130 d2 0b d4 be fe 7d 5f 3e 53 c2 36 bf ba 34 30 3f
       -0.41415268 0.21825406 -0.71390265 0.68830454
000140 89 b8 48 3d 5a e7 89 3e 8a 59 17 3f e8 cb 38 3e
       0.04900411 0.2693432 0.59121 0.18046534
000150 cc 50 19 3f d1 6d 14 bf f1 69 aa be d2 6f 47 bf
       0.5988891 -0.57980067 -0.33283952 -0.77905
000160 41 0a 5a 3f ad d3 8b be 48 aa 0f bf a0 33 a9 bd
       0.85171896 -0.27309933 -0.56119204 -0.082618
000170 45 33 20 be 0d 35 95 3e 94 79 75 bf fa 86 84 bd
       -0.15644558 0.29142037 -0.9588864 -0.06471057
000180 26 d2 2f bf 9f 74 8c 3f 05 3a 8c bd 70 f0 d2 be
       -0.68680036 1.097309 -0.06847004 -0.41199064
000190 83 a9 62 3e 66 68 e1 bc bd d0 a4 3e a8 01 9a 3e
       0.22134976 -0.027515601 0.32190505 0.3007939
0001a0 63 4e 65 bf 36 e9 a2 bf 1e 04 0e be c8 d8 f4 3e
       -0.89572734 -1.272742 -0.13868758 0.4782164
0001b0 c2 f3 d3 be e4 5f 50 be 5e fc 0d bf e0 1e 12 be
       -0.4139691 -0.2034908 -0.55463207 -0.1426959
0001c0 02 3f 6a 3e 4c 03 60 be a5 3a b4 be a1 3b 85 be
       0.22875598 -0.21876258 -0.35200992 -0.26022056
0001d0 f0 6b 37 3e d1 88 d1 3d 77 f4 0b 3f a7 9d 8c 3e
       0.17912269 0.10231174 0.546699 0.2746403
0001e0 d3 d5 3b bf df 44 27 3f f8 69 4e 3f d7 69 5c be
       -0.73373145 0.65339464 0.80630445 -0.2152475
0001f0 16 93 23 bf 1e 1c 4d 3f 5c fa e3 3e de f7 83 3d
       -0.6389631 0.8012103 0.44526947 0.06443761
000200 fc 56 5f bd 49 d9 c4 3e 46 92 9d 3e 88 72 a6 3e
       -0.054526314 0.38447025 0.3077566 0.32509255
000210 59 b2 cc 3e 5a a7 6b be 5c 2f 9d be d6 04 e8 be
       0.39979818 -0.23013058 -0.30700195 -0.4531619
000220 b5 ae 8e 3e 3d b8 af 3e f0 2b 0d bf 12 5f 84 be
       0.27867666 0.3432025 -0.5514517 -0.25853783
000230 b4 a2 01 bf 45 da f0 3e 2c 81 87 3d 0d 19 23 bf
       -0.5063889 0.47041526 0.066164345 -0.637101
000240 d8 8f 70 3e 29 24 0c bf 6a 2e 46 be 4a 57 85 be
       0.23492372 -0.54742676 -0.19353643 -0.2604316
000250 1c 13 bf bd 8c 33 81 bf 79 10 ed 3d 18 ee d0 3e
       -0.09329817 -1.0093856 0.115754075 0.4080665
000260 22 2f 1d 3f 47 d2 18 be da 5e ba be c0 22 5e bf
       0.61400044 -0.14923964 -0.3640049 -0.86771774
000270 16 81 16 be d0 80 2f 3e e0 97 06 3f ba fa 94 be
       -0.1469768 0.17138982 0.5257549 -0.2909754
000280 aa ae fa 3d fa 4c 05 3d 46 94 2c be 7b 17 85 3d
       0.12240346 0.032544114 -0.16853437 0.06498619
000290 0f 1c ec 3e d2 09 d8 be ff 14 f8 be 68 c4 81 3e
       0.46115157 -0.42194992 -0.4845352 0.2534516
0002a0 0c e2 48 3d 3d 5e 24 bf 2a c1 c3 3d a1 64 2c 3f
       0.0490437 -0.64206296 0.095583275 0.6734105
0002b0 a6 49 ea 3e 97 62 72 3f 1f f6 ad 3e 6b d3 43 3e
       0.45759314 0.94681686 0.33976838 0.19123618
0002c0 44 56 6e 3c 2e 10 84 3d 80 ca e3 be 60 dd df 3d
       0.0145469345 0.064483985 -0.44490433 0.10930896
0002d0 a8 14 09 3e 90 c5 7a 3e a4 d6 53 be 41 71 7e be
       0.13386786 0.24489427 -0.20687348 -0.2484789
0002e0 1d 05 65 3e 57 19 b8 bd 69 6f 57 3f 52 82 92 3e
       0.22365232 -0.08989208 0.84154373 0.28615052
0002f0 2e d7 b9 bc 92 c3 82 bd 9b d2 ff bd c2 f9 c2 be
       -0.022685613 -0.06384958 -0.12491342 -0.38081175
000300 de df 79 be b3 20 e6 3e 4e a0 e8 3e 86 53 b4 be
       -0.24401805 0.44946823 0.45434803 -0.35219973
000310 64 59 f5 3e 1a 1e f6 be cb b4 ae be aa f9 22 bf
       0.47919762 -0.4806984 -0.3412231 -0.6366221
000320 19 ae a0 be d6 8e 99 3c 2c e2 3e be a7 35 b8 3d
       -0.31382826 0.018744867 -0.18640965 0.08994608
000330 1b 15 f3 3e 15 c4 7f 3e 04 d7 85 3f 22 82 93 3e
       0.4747704 0.24977143 1.0456243 0.2881022
000340 1a 71 11 be 01 16 f5 3e 1a fd 1f 3e a5 34 2a bf
       -0.14203301 0.4786835 0.15623894 -0.6648658
000350 e7 61 62 bd 6d 88 15 3f a3 fc b6 3e f5 0e d9 be
       -0.05526915 0.58411294 0.35739622 -0.42394224
000360 26 32 e1 3d 43 a7 39 3f 72 32 c4 3d c3 5d 5c 3f
       0.10995893 0.72520846 0.09579934 0.8608057
000370 b9 7b fa bd b5 58 84 3e 6f 75 40 bf 9b 3b 02 3f
       -0.122306295 0.25848928 -0.7517919 0.508722
000380 c1 39 2d bf db 9a 14 3b f2 7d 1c be ea ec fe 3c
       -0.6766625 0.002267531 -0.1528242 0.031118829
000390 39 7d 24 3f 96 3f 66 bc 75 c3 01 3f a3 c8 e5 3c
       0.64253575 -0.014053246 0.5068887 0.028049773
0003a0 ae 15 2b 3f fd e2 2e be b2 04 fb be b2 0b 8d be
       0.66829956 -0.17078777 -0.4902702 -0.27547985
0003b0 a8 77 2a 3f 45 1e 2c 3e dc 8b 46 3d d5 f4 87 be
       0.6658883 0.16808422 0.048473224 -0.2655398
0003c0 5d 68 ee 3e 81 80 f8 3e 1b 1b 16 3f 82 31 14 3f
       0.46563998 0.4853554 0.5863511 0.5788804
0003d0 2f e4 2f 3f 19 b0 15 3e c5 59 e7 bd 6a e4 43 bf
       0.68707556 0.14617957 -0.11296419 -0.7652041
0003e0 57 35 c9 3d 51 63 b2 3e df ed a5 bc e4 7c a9 bd
       0.09824627 0.34841397 -0.020255027 -0.08275774
0003f0 1e 39 b3 3e 44 4c f0 be dc 68 2e be 59 60 6d 3f
       0.35004514 -0.46933186 -0.17032188 0.9272514

network_body._body_endoder.seq_layers.0.bias f4 [128]
000000 00 00 00 00 00 00 00 00 00 00 00 00 00 00 00 00
       0.0 0.0 0.0 0.0
000010 00 00 00 00 00 00 00 00 00 00 00 00 00 00 00 00
       0.0 0.0 0.0 0.0
000020 00 00 00 00 00 00 00 00 00 00 00 00 00 00 00 00
       0.0 0.0 0.0 0.0
000030 00 00 00 00 00 00 00 00 00 00 00 00 00 00 00 00
       0.0 0.0 0.0 0.0
000040 00 00 00 00 00 00 00 00 00 00 00 00 00 00 00 00
       0.0 0.0 0.0 0.0
000050 00 00 00 00 00 00 00 00 00 00 00 00 00 00 00 00
       0.0 0.0 0.0 0.0
000060 00 00 00 00 00 00 00 00 00 00 00 00 00 00 00 00
       0.0 0.0 0.0 0.0
000070 00 00 00 00 00 00 00 00 00 00 00 00 00 00 00 00
       0.0 0.0 0.0 0.0
000080 00 00 00 00 00 00 00 00 00 00 00 00 00 00 00 00
       0.0 0.0 0.0 0.0
000090 00 00 00 00 00 00 00 00 00 00 00 00 00 00 00 00
       0.0 0.0 0.0 0.0
0000a0 00 00 00 00 00 00 00 00 00 00 00 00 00 00 00 00
       0.0 0.0 0.0 0.0
0000b0 00 00 00 00 00 00 00 00 00 00 00 00 00 00 00 00
       0.0 0.0 0.0 0.0
0000c0 00 00 00 00 00 00 00 00 00 00 00 00 00 00 00 00
       0.0 0.0 0.0 0.0
0000d0 00 00 00 00 00 00 00 00 00 00 00 00 00 00 00 00
       0.0 0.0 0.0 0.0
0000e0 00 00 00 00 00 00 00 00 00 00 00 00 00 00 00 00
       0.0 0.0 0.0 0.0
0000f0 00 00 00 00 00 00 00 00 00 00 00 00 00 00 00 00
       0.0 0.0 0.0 0.0
000100 00 00 00 00 00 00 00 00 00 00 00 00 00 00 00 00
       0.0 0.0 0.0 0.0
000110 00 00 00 00 00 00 00 00 00 00 00 00 00 00 00 00
       0.0 0.0 0.0 0.0
000120 00 00 00 00 00 00 00 00 00 00 00 00 00 00 00 00
       0.0 0.0 0.0 0.0
000130 00 00 00 00 00 00 00 00 00 00 00 00 00 00 00 00
       0.0 0.0 0.0 0.0
000140 00 00 00 00 00 00 00 00 00 00 00 00 00 00 00 00
       0.0 0.0 0.0 0.0
000150 00 00 00 00 00 00 00 00 00 00 00 00 00 00 00 00
       0.0 0.0 0.0 0.0
000160 00 00 00 00 00 00 00 00 00 00 00 00 00 00 00 00
       0.0 0.0 0.0 0.0
000170 00 00 00 00 00 00 00 00 00 00 00 00 00 00 00 00
       0.0 0.0 0.0 0.0
000180 00 00 00 00 00 00 00 00 00 00 00 00 00 00 00 00
       0.0 0.0 0.0 0.0
000190 00 00 00 00 00 00 00 00 00 00 00 00 00 00 00 00
       0.0 0.0 0.0 0.0
0001a0 00 00 00 00 00 00 00 00 00 00 00 00 00 00 00 00
       0.0 0.0 0.0 0.0
0001b0 00 00 00 00 00 00 00 00 00 00 00 00 00 00 00 00
       0.0 0.0 0.0 0.0
0001c0 00 00 00 00 00 00 00 00 00 00 00 00 00 00 00 00
       0.0 0.0 0.0 0.0
0001d0 00 00 00 00 00 00 00 00 00 00 00 00 00 00 00 00
       0.0 0.0 0.0 0.0
0001e0 00 00 00 00 00 00 00 00 00 00 00 00 00 00 00 00
       0.0 0.0 0.0 0.0
0001f0 00 00 00 00 00 00 00 00 00 00 00 00 00 00 00 00
       0.0 0.0 0.0 0.0

network_body._body_endoder.seq_layers.2.weight f4 [128, 128]
000000 a8 5a 0a bd 87 3f 15 b9 74 b2 c6 bc e0 61 6a bd
       -0.033777863 -0.00014233413 -0.024255015 -0.057222247
000010 e0 6e 45 bd d5 df 17 3c 69 8b 1e 3e c0 e1 85 3c
       -0.04820144 0.009269674 0.15482868 0.016342998
000020 9f 81 b3 3d 05 ad f7 bb 4f b0 ff ba 01 ac 95 3d
       0.08764958 -0.0075584673 -0.00195075 0.07308198
000030 5b 7f c8 3d aa 86 55 3d 32 8c 4a 3d 4f d2 a4 3c
       0.09789916 0.05213038 0.049450107 0.020119814
000040 fe 72 86 3b e3 c7 8f bc 48 0c 96 bd 73 bd fa bd
       0.0041030636 -0.017551368 -0.07326561 -0.12243166
000050 c5 a7 bf 3d a4 e3 a4 3d bc 23 be bd c8 df ab 3d
       0.093581714 0.080512315 -0.092841595 0.08392292
000060 41 5e 11 bd a8 48 d6 3d d8 52 f6 bc ec 76 4f 37
       -0.03549028 0.10463077 -0.0300688 1.236585e-05
000070 bf 6e 2b bb e4 4c 45 3d 30 7a 2c 3c f4 40 60 bc
       -0.002615854 0.04816903 0.010527179 -0.013687361
000080 8c 03 06 3e 45 48 b3 3d 6a 0a 06 3e 1f 4e 69 bb
       0.1308729 0.08754019 0.1308991 -0.0035599542
000090 11 2f dc bc 90 76 ac 3d 86 ae 80 bd e6 60 7d bc
       -0.026877912 0.084210515 -0.06283288 -0.015464997
0000a0 c3 68 58 bd 93 a6 2a bd 01 73 31 3d c4 a9 72 be
       -0.052834284 -0.041662764 0.043322567 -0.23697573
0000b0 1f a4 24 be dd b1 72 bd 99 17 c8 bd ba ec ab bc
       -0.16078232 -0.059251655 -0.09770126 -0.020986903
0000c0 2a 6e e0 bc 98 40 80 bd d5 e3 65 3d 1c 39 dc bb
       -0.02739628 -0.0626232 0.05612548 -0.006720675
0000d0 6f 4f e0 bc c7 27 40 3d 37 e2 be 3d f9 23 38 3c
       -0.027381627 0.046912935 0.09320491 0.011239045
0000e0 da f3 62 bc 93 08 10 3e 19 95 d9 bc 56 00 19 be
       -0.013852084 0.14065771 -0.026560353 -0.14941534
0000f0 54 2b 32 bd aa d7 11 3e 14 fb b7 ba 0f 02 da 3d
       -0.043498352 0.14242426 -0.0014036619 0.10644924
000100 21 6a d2 bd 3b 64 8b bd bc a7 8c 3c 89 97 a0 3d
       -0.10274149 -0.06806227 0.017169826 0.07841403
000110 0f 4b 37 3d d2 5d 84 3d d2 cb 7e bb 06 24 ee 3c
       0.044749316 0.06463207 -0.003887881 0.029069912
000120 aa 92 a0 3d 58 6e a2 bd d1 04 ff bc 9c 40 9f bb
       0.07840474 -0.07931203 -0.031130226 -0.004859997
000130 3d e0 03 be 4b ff 9c 3d df 2a 9c 3c 7b da 36 bd
       -0.12878509 0.07665881 0.019063411 -0.044641953
000140 30 1e 9d 3c b2 ff 0a 3b b5 f4 11 3e ef bd a1 3c
       0.019179434 0.0021209535 0.14253505 0.019743888
000150 11 83 a7 3b e8 84 0d bd 97 59 fd 3d 92 49 81 bd
       0.00511206 -0.034550577 0.123706035 -0.063128605
000160 8d 90 ab bd 9b 9c c9 bd 64 9f 8c bc 0a 10 30 3d
       -0.0837718 -0.09844323 -0.017165847 0.042984046
000170 51 69 ac 3c 52 e1 8c bd 81 14 16 bc ac 88 b5 3d
       0.021046313 -0.06878914 -0.009160162 0.08863959
000180 8c f7 0f 3d 9f 91 ce bd d5 85 25 bd 95 78 de bc
       0.03514819 -0.10086369 -0.040410835 -0.027157107
000190 88 99 02 bd dc 0a 90 3d 58 4b c8 bc 9e a1 37 be
       -0.0318847 0.07033321 -0.02444999 -0.17932746
0001a0 a9 eb 15 3e de a5 83 bd e3 4a 44 bd 8b 2e a7 3c
       0.14640678 -0.06428121 -0.04792298 0.020407936
0001b0 7b 35 3e bd 8d 7c d1 bd b2 38 1d 3d dc 18 e0 3c
       -0.04643772 -0.10228834 0.038384147 0.027355604
0001c0 c2 07 cd 3d 9b d2 d3 3d b0 ea 64 3d 40 92 76 be
       0.10011245 0.10342904 0.055887878 -0.24079227
0001d0 21 68 13 bd 55 01 83 3b 5b e4 ac bd aa 97 2a bc
       -0.035987977 0.0039979615 -0.08441993 -0.010412136
0001e0 a0 eb 15 be b0 f3 0e be 3a 0f 4f 3d 40 64 50 3d
       -0.14640665 -0.13960147 0.05055163 0.050876856
0001f0 34 f7 02 be 81 28 d1 bc d7 55 69 bd 28 0a d7 bd
       -0.12789613 -0.02553201 -0.05696663 -0.10499984
000200 a9 05 29 be 22 76 41 bc b5 2c 22 3d c6 e3 96 bd
       -0.16506065 -0.01180795 0.039593417 -0.07367663
000210 38 39 7c bd 3a d7 d0 bd 5f c9 e7 3d fa 36 ed 3d
       -0.061578006 -0.10197301 0.11317705 0.115827516
000220 f3 47 d6 3d 1d ae e1 3a 2b de b5 bd f6 16 ae bd
       0.10462942 0.0017218027 -0.08880266 -0.08500473
000230 2c 66 96 3d a0 ab b9 3c fa 60 c6 3c 33 6a 79 3b
       0.073437065 0.022664845 0.024216164 0.0038057684
000240 3b 88 d0 bc e0 ea 10 bd 1e a8 69 bd ee 86 9c 3d
       -0.025455585 -0.035380244 -0.057045095 0.07642923
000250 ec 62 47 3d c9 7f c1 3d e7 29 7d 3d 73 53 75 be
       0.048678324 0.09448201 0.06180754 -0.23957615
000260 54 d5 1d 3d b2 22 8b 3d 56 e6 24 3e 8a cb 07 3d
       0.038533524 0.06793727 0.16103491 0.033153094
000270 b6 70 a0 be 73 c8 3b bd 77 fa 59 3c 1f 13 16 3d
       -0.31335992 -0.04584546 0.013304344 0.03663933
000280 7e fa df 3c 61 10 ee 3d bb a5 bb 3c 10 db e9 bb
       0.027341124 0.11624218 0.022906175 -0.00713671
000290 28 a6 bf bd d5 bc 81 3d 75 b8 6b 3d bc 06 17 3e
       -0.09357864 0.06334845 0.05754896 0.14748663
0002a0 c2 5d 71 bd 98 90 6a bc 76 93 ae 3b 4f da 80 bd
       -0.058927305 -0.0143167 0.0053276373 -0.06291639
0002b0 e7 fd 17 3e 06 52 ec 3b 73 65 03 3d 7a 3a 54 3d
       0.1484295 0.0072119264 0.03207917 0.05181358
0002c0 10 17 d7 bc 2a d7 7f 3d 8c d8 29 3d a3 11 30 be
       -0.026256114 0.062461056 0.04146628 -0.17194228
0002d0 6a 1b 29 bd 91 3c 01 3e 37 51 e4 bd dd 08 a2 3d
       -0.04128591 0.1262076 -0.11148303 0.07911847
0002e0 aa d9 d7 3d 7a 19 ef bd 05 09 70 3d 34 f5 52 be
       0.10539563 -0.11674781 0.05860235 -0.2060135
0002f0 80 47 ed bc 9b 15 d9 3c 48 d1 8c 3d dd d8 85 3d
       -0.028964758 0.02649956 0.06875855 0.06535504
000300 7f a1 78 bd a5 65 1f 3e 24 f4 36 bd 09 84 4f bd
       -0.06070089 0.15566118 -0.044666424 -0.050663028
000310 c1 14 b8 bb 69 ab 7c bd 7e 23 86 bd 4a 7c 0d 3e
       -0.0056177084 -0.061686907 -0.06549738 0.13816944
000320 b3 1c ba 3d d8 c4 ff 3c 50 42 b1 3c 32 23 4c bd
       0.09087505 0.031221792 0.021638066 -0.049838252
000330 aa b7 43 3d 99 a1 53 3c 5b 2c 79 be 32 2f 65 3d
       0.047782578 0.012916946 -0.24333327 0.055953212
000340 bc f5 0d 3e 8c 4e c0 3d 33 92 13 be ea b1 e1 3d
       0.13863271 0.093899816 -0.1441124 0.110202625
000350 ff 1d 46 3e 0a 30 63 bd b1 54 5c bd 21 4c ca bd
       0.1934738 -0.055465735 -0.053791706 -0.09877802
000360 6d fb 6e bd a4 7c aa bd e6 1c fe bc 95 6d 77 bb
       -0.058345247 -0.083245546 -0.03101964 -0.0037754525
000370 89 3a 2c bd 20 66 bd 3c 98 75 19 bd de 8d 2a be
       -0.04204801 0.023119986 -0.03746566 -0.1665568
000380 78 50 13 3e 5b 27 66 bd f2 4d b4 3d c2 26 33 bd
       0.14386165 -0.056189876 0.088039294 -0.043738134
000390 c9 53 6e 3c 12 a7 0b 3e c9 3a f9 3c 24 85 bc bc
       0.014546343 0.13637951 0.030423539 -0.023012705
0003a0 86 29 86 3a c4 e8 97 bd 73 4c 57 3c fa 61 0f 3c
       0.0010235764 -0.074174434 0.0131407855 0.008751387
0003b0 16 af ad 3d 46 61 34 3e 05 20 06 bd 5f 2a 81 bd
       0.084806606 0.17615232 -0.03274538 -0.0630691
0003c0 20 d9 6b 3d 25 7d a8 bd ef 2b 62 bd d4 22 a9 3c
       0.057580113 -0.082269944 -0.05521768 0.02064649
0003d0 c2 d8 24 be ea 43 db 3c a4 5e c4 bd f5 05 8f 3d
       -0.16098312 0.026765782 -0.09588364 0.06983558
0003e0 75 40 e2 bb 71 cc 71 bd c9 30 cb 3d 5a a6 96 bd
       -0.0069046565 -0.05903286 0.099214144 -0.07355948
0003f0 b8 f1 24 3d aa 95 a7 bd db c9 f3 3c d1 ed e3 3d
       0.040269583 -0.08182843 0.029759338 0.11129344

network_body._body_endoder.seq_layers.2.bias f4 [128]
000000 00 00 00 00 00 00 00 00 00 00 00 00 00 00 00 00
       0.0 0.0 0.0 0.0
000010 00 00 00 00 00 00 00 00 00 00 00 00 00 00 00 00
       0.0 0.0 0.0 0.0
000020 00 00 00 00 00 00 00 00 00 00 00 00 00 00 00 00
       0.0 0.0 0.0 0.0
000030 00 00 00 00 00 00 00 00 00 00 00 00 00 00 00 00
       0.0 0.0 0.0 0.0
000040 00 00 00 00 00 00 00 00 00 00 00 00 00 00 00 00
       0.0 0.0 0.0 0.0
000050 00 00 00 00 00 00 00 00 00 00 00 00 00 00 00 00
       0.0 0.0 0.0 0.0
000060 00 00 00 00 00 00 00 00 00 00 00 00 00 00 00 00
       0.0 0.0 0.0 0.0
000070 00 00 00 00 00 00 00 00 00 00 00 00 00 00 00 00
       0.0 0.0 0.0 0.0
000080 00 00 00 00 00 00 00 00 00 00 00 00 00 00 00 00
       0.0 0.0 0.0 0.0
000090 00 00 00 00 00 00 00 00 00 00 00 00 00 00 00 00
       0.0 0.0 0.0 0.0
0000a0 00 00 00 00 00 00 00 00 00 00 00 00 00 00 00 00
       0.0 0.0 0.0 0.0
0000b0 00 00 00 00 00 00 00 00 00 00 00 00 00 00 00 00
       0.0 0.0 0.0 0.0
0000c0 00 00 00 00 00 00 00 00 00 00 00 00 00 00 00 00
       0.0 0.0 0.0 0.0
0000d0 00 00 00 00 00 00 00 00 00 00 00 00 00 00 00 00
       0.0 0.0 0.0 0.0
0000e0 00 00 00 00 00 00 00 00 00 00 00 00 00 00 00 00
       0.0 0.0 0.0 0.0
0000f0 00 00 00 00 00 00 00 00 00 00 00 00 00 00 00 00
       0.0 0.0 0.0 0.0
000100 00 00 00 00 00 00 00 00 00 00 00 00 00 00 00 00
       0.0 0.0 0.0 0.0
000110 00 00 00 00 00 00 00 00 00 00 00 00 00 00 00 00
       0.0 0.0 0.0 0.0
000120 00 00 00 00 00 00 00 00 00 00 00 00 00 00 00 00
       0.0 0.0 0.0 0.0
000130 00 00 00 00 00 00 00 00 00 00 00 00 00 00 00 00
       0.0 0.0 0.0 0.0
000140 00 00 00 00 00 00 00 00 00 00 00 00 00 00 00 00
       0.0 0.0 0.0 0.0
000150 00 00 00 00 00 00 00 00 00 00 00 00 00 00 00 00
       0.0 0.0 0.0 0.0
000160 00 00 00 00 00 00 00 00 00 00 00 00 00 00 00 00
       0.0 0.0 0.0 0.0
000170 00 00 00 00 00 00 00 00 00 00 00 00 00 00 00 00
       0.0 0.0 0.0 0.0
000180 00 00 00 00 00 00 00 00 00 00 00 00 00 00 00 00
       0.0 0.0 0.0 0.0
000190 00 00 00 00 00 00 00 00 00 00 00 00 00 00 00 00
       0.0 0.0 0.0 0.0
0001a0 00 00 00 00 00 00 00 00 00 00 00 00 00 00 00 00
       0.0 0.0 0.0 0.0
0001b0 00 00 00 00 00 00 00 00 00 00 00 00 00 00 00 00
       0.0 0.0 0.0 0.0
0001c0 00 00 00 00 00 00 00 00 00 00 00 00 00 00 00 00
       0.0 0.0 0.0 0.0
0001d0 00 00 00 00 00 00 00 00 00 00 00 00 00 00 00 00
       0.0 0.0 0.0 0.0
0001e0 00 00 00 00 00 00 00 00 00 00 00 00 00 00 00 00
       0.0 0.0 0.0 0.0
0001f0 00 00 00 00 00 00 00 00 00 00 00 00 00 00 00 00
       0.0 0.0 0.0 0.0

action_model._continuous_distribution.mu.weight f4 [1, 128]
000000 35 43 d5 3a 4e 08 a2 3c 12 77 1d bd 07 b6 ac 3b
       0.001627064 0.01977935 -0.038443632 0.005270723
000010 bb e2 d4 3c f9 64 2c 3c 98 d5 11 3b e5 ab c8 b9
       0.02598702 0.010522121 0.0022252556 -0.00038275044
000020 ca 8c 6e 39 c7 5b 04 bd ab dd ad bc 45 95 df 3a
       0.00022749897 -0.03231409 -0.021223864 0.0017058036
000030 32 de d7 ba ba ce 7a 3b d1 d8 96 bc 04 60 91 bc
       -0.0016469418 0.0038270191 -0.018413933 -0.01774598
000040 ab a0 4a 3c f6 31 06 bd dc 77 4b 3c 10 a5 b1 bc
       0.012367408 -0.03276249 0.012418713 -0.021685153
000050 f5 bc 1b bc ab e9 3e bc b5 d5 5c 3c c0 ba e2 3b
       -0.0095055 -0.0116523905 0.013478686 0.006919235
000060 90 59 6d bc d7 9a f3 bb ea 98 e6 bc 73 dd 94 3c
       -0.014486685 -0.00743423 -0.028149087 0.018172001
000070 6b 6f cf bb 2f f8 60 3c c3 1a 05 bd 82 ff b8 3c
       -0.0063304207 0.013731047 -0.032496225 0.022582773
000080 aa 3c c7 bc 88 ce 84 3c 8d b4 ca ba 9e f7 03 bd
       -0.024320919 0.016211763 -0.0015465185 -0.032218568
000090 8d 30 f7 bb f3 c4 08 3c fe 6b c8 bc 60 9d de 3c
       -0.0075436295 0.008347738 -0.024465557 0.027174652
0000a0 6b 6e 6c 3c 2c 09 b2 3b 3a 5c d0 3c b7 dc e9 3c
       0.014430623 0.0054332223 0.025434602 0.028547628
0000b0 75 4b 52 bc e7 d4 dd 3b 8f 77 2e 3c e9 62 86 3c
       -0.012835373 0.0067697647 0.010648622 0.016404586
0000c0 63 c2 62 bc 2d 57 05 bc 28 4b d6 bc f9 06 87 bb
       -0.013840291 -0.00813846 -0.026158884 -0.0041207043
0000d0 10 8c 69 bc 97 63 21 bd 76 7e 0b 3d 6a 70 84 3c
       -0.014254585 -0.039401617 0.03405615 0.016166884
0000e0 b5 cc c0 bb ac 5f 04 3c ea df 3b bd 9e e1 81 bc
       -0.005883778 0.008079451 -0.045867838 -0.015854653
0000f0 6a e5 2d bc c8 87 d8 bb 78 c5 9b ba 9a 22 50 bc
       -0.010613779 -0.0066079833 -0.0011884412 -0.012703562
000100 92 5f 4e 3c a4 8e bf 3c f9 2e 80 bc b8 7a cf bc
       0.012596028 0.023383446 -0.015647398 -0.025327072
000110 ae 97 a7 3c 17 d1 45 3c a2 39 b1 3c ef 65 a4 3c
       0.020458069 0.012073777 0.021633927 0.020068137
000120 f8 a3 84 bc 04 1a 8c bb bf 07 02 bb 0d 95 6c bb
       -0.016191468 -0.0042755622 -0.0019841043 -0.0036099583
000130 46 e5 82 3b ce 37 20 bc e4 20 af bc 95 eb 56 3c
       0.0039946167 -0.00977893 -0.021377988 0.013117691
000140 3e d3 8a bc ca bf 9d bc 82 7d b1 3c b5 a8 b0 3c
       -0.016946431 -0.019256491 0.021666292 0.02156482
000150 c7 8b 9e bc bf 56 bf 3b f5 95 a3 3b 5f 61 20 3d
       -0.01935376 0.0058391984 0.0049922415 0.03915536
000160 3b 10 ed 3b 01 2f 98 3b e0 a4 61 bc 1f 6c 87 bc
       0.007234601 0.004644275 -0.013772219 -0.016531048
000170 22 f3 8a 3a 54 b5 1a 3b 1f 13 07 bc 9d 5f 98 3c
       0.0010601024 0.0023606615 -0.008244305 0.01860028
000180 14 7e ac 3c 67 bd e3 3c 18 6c b4 bc ab ac a1 bc
       0.021056212 0.027800275 -0.0220242 -0.019735655
000190 df 50 8a 3c 0b 8b 55 bc 67 4c dc 3b 42 4d 5f 3c
       0.016884265 -0.013033639 0.006722975 0.01362926
0001a0 81 41 b5 3b 1b dd 10 bc 6d 13 6b 3c b3 0e 9e 3b
       0.0055314903 -0.008841778 0.014347893 0.0048235296
0001b0 e5 e8 cc 3c cd 79 c2 bc 22 56 eb bb 04 47 83 3a
       0.025013397 -0.02373972 -0.0071818987 0.0010015671
0001c0 dc b0 08 3d 68 66 16 3d 9a cd ec 3c 5b d5 7a 3c
       0.03337179 0.036718756 0.028906632 0.015309657
0001d0 3b a3 c4 3b 70 14 3d 3b aa 03 bf bc 27 39 03 bd
       0.006000904 0.0028851293 -0.023317177 -0.032036927
0001e0 1e 24 99 3c 4b 0c 68 3c b8 69 92 3b 64 40 9f bb
       0.01869398 0.014163087 0.004468169 -0.004859971
0001f0 53 07 5f 3c b3 5f 97 3c 0f 21 ae bc f3 2e b5 3c
       0.013612586 0.01847825 -0.021255998 0.022117114

action_model._discrete_distribution.branches.0.weight f4 [1, 128]
000000 15 0a 67 bb 79 32 0a 3c 13 52 82 bc f0 ba e7 3b
       -0.0035253812 0.008434885 -0.015908277 0.0070718452
000010 b3 c8 04 bc e9 9c 1d bb c3 be 4a 3a ce eb 08 3c
       -0.008104491 -0.0024049825 0.0007734114 0.0083570015
000020 0b 17 ac bb 96 e2 c4 3b 8c 6b 06 3b 48 30 3f bb
       -0.0052517704 0.0060084565 0.002051088 -0.0029173065
000030 af 64 eb 3a 42 48 84 3b dc f1 16 bb d5 1f 83 3c
       0.0017959083 0.004036934 -0.0023032343 0.01600639
000040 fb 87 c0 3a d2 8c 28 bc 38 ac f3 bb 50 d4 94 3b
       0.0014688963 -0.01028748 -0.0074363016 0.004541911
000050 7d f5 c8 bb df ce 84 ba 38 02 28 bb 7a 57 64 3c
       -0.00613278 -0.0010132453 -0.0025636088 0.013936872
000060 d2 fa cb 3b 9b cf 4d bb fa 63 0c 3c ad 85 da bb
       0.0062249685 -0.003140426 0.008568758 -0.0066687674
000070 cf 8e b8 3c ba 78 d8 3b e6 b3 11 bb aa ea d5 bb
       0.022529034 0.0066061886 -0.0022232472 -0.0065282183
000080 8d 2d 4e 3b ff 50 c9 bb 75 95 c4 bb ef de b7 3a
       0.0031460256 -0.0061436887 -0.005999262 0.0014028231
000090 71 e0 30 bb 7d c8 c0 3b f9 77 8c bb 08 50 11 3a
       -0.0026989246 0.005883275 -0.004286763 0.00055432366
0000a0 30 d3 56 3c 09 14 02 3c 60 85 23 bc 33 38 31 3a
       0.013111874 0.007939347 -0.00998053 0.00067603885
0000b0 42 3c 57 3c ec fc 8a bb bb bf 01 3a 0f 77 93 bb
       0.013136925 -0.0042415764 0.00049495295 -0.004500277
0000c0 57 bb b6 3b 68 ba 0b 3c a3 48 72 3c 63 80 86 3c
       0.005576532 0.008528329 0.014787826 0.016418641
0000d0 58 12 cd bb 3b b9 e7 bb 79 d5 02 3c da 5b cc bb
       -0.0062582903 -0.0070716417 0.007985466 -0.0062365355
0000e0 23 99 6a bc b8 16 0c 3c a8 5b 6c bb 56 49 42 bb
       -0.014318737 0.008550338 -0.0036065374 -0.0029645762
0000f0 17 3b 23 ba e5 d0 5b bb 0f 49 cf bb 95 43 01 3c
       -0.00062267616 -0.003354126 -0.006325848 0.007889648
000100 97 1d 01 bb 9d 92 41 bc eb 19 9e 3c 67 c0 c5 ba
       -0.0019701475 -0.0118147405 0.019299468 -0.0015087248
000110 de 6e 0b bc 6b 3b 55 bc 58 10 69 ba 40 b3 b5 3b
       -0.0085103195 -0.013014655 -0.000889068 0.00554505
000120 72 7e 0d ba 65 ef b2 3a 0b a5 bc bb f0 88 12 3b
       -0.0005397565 0.0013651667 -0.0057569793 0.0022359453
000130 60 59 c4 bb f8 38 13 3b ae 97 3a bb cf 1c 66 bc
       -0.0059920996 0.0022464376 -0.0028471756 -0.014044954
000140 a8 60 dd bb d6 ff 25 bc 7a 59 ee 3b a3 35 4d bc
       -0.006755907 -0.010131797 0.00727385 -0.012524995
000150 fd db fa 3b 10 9b a8 3c 83 dc e5 39 22 cb f8 bb
       0.007655619 0.020581752 0.00043842578 -0.0075925747
000160 cf 5b d5 ba 33 9e 97 3b 18 78 d7 bb 7b 45 ae bc
       -0.0016277971 0.004627013 -0.0065755956 -0.021273365
000170 70 52 6e 3b 9a c4 a2 3c de 0e 81 bc 00 b1 5f 3c
       0.0036365055 0.019869138 -0.01575416 0.01365304
000180 03 57 9f 37 a5 aa 07 3c e8 5f 93 3c cb be 96 3c
       1.8994795e-05 0.008280431 0.017990068 0.018401524
000190 68 3b 0d 3c 8f ba b5 3c 59 89 a6 bc 17 4c 83 3b
       0.008620121 0.022183685 -0.020329164 0.0040068734
0001a0 bb 61 ba 3b fe d3 95 bc 17 97 31 39 3d 3b 41 bb
       0.00568792 -0.018289562 0.00016936321 -0.0029484772
0001b0 5d 3e 53 bb ec 5a 84 3b b2 8c d0 3b 95 38 e4 3a
       -0.0032233216 0.004039159 0.0063644284 0.0017411882
0001c0 0b c4 dd bb ef 89 5e bc 97 0b cd 3b e7 e7 b8 bb
       -0.006767755 -0.013582691 0.006257485 -0.0056428793
0001d0 9a 36 a7 bb 78 3f 84 bc bf f8 5d 3c 07 c5 b4 3a
       -0.0051029446 -0.016143546 0.013548075 0.0013791629
0001e0 5d 84 51 ba 68 58 15 3c 6e 76 1a 3b 33 5f 39 b9
       -0.0007992441 0.009115316 0.0023569125 -0.0001767844
0001f0 6e 57 9a bb 9d 8d 7e bb f5 33 47 bc f0 3c e5 ba
       -0.0047101295 -0.0038841732 -0.012158384 -0.0017489474

network_body._body_endoder.seq_layers.0.weight f4 [128, 6]
000000 d6 c3 cd 3e 2a 55 81 bd 21 31 eb be 73 5f a0 be
       0.40188473 -0.06315072 -0.4593592 -0.31322822
000010 06 1a 0a 3f 64 6d 3f 3f cc e1 38 bd 66 f7 1a bf
       0.5394596 0.7477629 -0.04513721 -0.6053375
000020 46 a9 85 3d 5f be d7 3e 43 7b b7 3e 97 82 2c be
       0.06526427 0.4213743 0.3583623 -0.16846691
000030 c3 ba b2 3e e7 f8 54 be 0e 58 06 be 60 da 98 3e
       0.34908113 -0.20798074 -0.13119528 0.29854107
000040 ee df 0b bf 10 db aa bc 07 ae cb be 73 94 78 be
       -0.54638565 -0.02085641 -0.3978121 -0.24275379
000050 f5 ad b3 be 9c 43 4f 3e 42 7e 18 3f 57 26 3e be
       -0.35093656 0.20240635 0.59567654 -0.18569313
000060 62 0c 7b bf fd 7c 36 bf 5e 3d ca bd 57 e7 f3 3e
       -0.9806577 -0.71284467 -0.09874986 0.47637436
000070 34 2d 58 be ca 96 f2 bd 52 80 2e 3f 0a 37 06 be
       -0.21110994 -0.11845167 0.6816455 -0.13106933
000080 ff 59 41 3f 4e a8 e5 3e 06 1a a8 3e 5d 27 e7 3e
       0.7552795 0.4485497 0.32832354 0.4514722
000090 a2 94 8e be 10 ab 3e 3c 67 cc 13 be 36 9d b0 3e
       -0.27847773 0.011637464 -0.14433442 0.34494942
0000a0 cf fd 0d be 83 a1 23 3f 26 64 ab 3e 7a 2d bd be
       -0.13866352 0.6391832 0.33474845 -0.36948758
0000b0 ae f8 e5 bd 4a 70 2d 3c 20 72 89 be 83 60 c7 3e
       -0.112290725 0.010585854 -0.26844883 0.3894082
0000c0 7b 1f 33 3f f5 fb 00 bd 6f a8 29 3d c1 02 09 be
       0.6996991 -0.031490285 0.041420396 -0.13379957
0000d0 11 b1 be 3e 42 48 67 3f 17 a3 f3 bd 78 76 6d 3d
       0.37244466 0.9034463 -0.11896341 0.05797431
0000e0 55 81 db be 0a d8 cd 3c 0a 4a 5e 3e 29 8b 41 be
       -0.4287211 0.02512743 0.21707931 -0.18900742
0000f0 77 bf 4e 3e 34 45 0c bf 03 41 12 3e 3b 73 04 be
       0.20190226 -0.54793096 0.14282613 -0.12934582
000100 70 b6 a9 3d 0e ba 81 bf d5 c7 2b bf 51 87 89 bd
       0.0828675 -1.0134904 -0.67101794 -0.06715263
000110 22 cc d8 3e 08 7d 64 3f 6c 75 e7 3d 9e af 0f 3e
       0.4234324 0.8925328 0.11301693 0.14031836
000120 e7 ec b9 be 39 2d 1e be 29 b8 2c 3e 56 dd 4b 3e
       -0.36313555 -0.15446939 0.16867127 0.19908652
000130 7a 83 db be 48 96 01 bf b2 89 a0 3d 7c da cb 3e
       -0.42873746 -0.50619936 0.07838763 0.39815128
000140 45 a2 38 bf 79 99 93 be b2 e8 c9 3d 0d e8 7f 3f
       -0.72122604 -0.28828028 0.09858836 0.99963456
000150 09 ee 08 bd f2 da 0f bf 5c ff 8f be 84 17 a4 be
       -0.033430133 -0.5619346 -0.2812451 -0.3204919
000160 dd 44 a4 3e 88 02 93 bc c8 0c e0 be f4 4f e0 be
       0.3208379 -0.017945543 -0.4375975 -0.43811
000170 f8 ee a2 3e d5 12 af be f0 c9 80 bf 39 cb 67 bf
       0.31822944 -0.34194055 -1.0061626 -0.9054447
000180 d8 d3 a1 be 4a dc 29 3e f8 91 52 be 9b 85 5d bf
       -0.31606936 0.1658794 -0.20563495 -0.8653199
000190 cb d5 57 3f b9 e3 28 bf 79 83 bd 3e d9 b3 81 be
       0.843106 -0.6597248 0.37014368 -0.25332525
0001a0 10 5b 67 3e 83 f8 4b be 50 44 94 bd e7 e6 50 3e
       0.22593331 -0.19919018 -0.07239592 0.20400582
0001b0 7d 22 c3 3e fd c9 9a 3e 80 6c 45 3e 1c 23 8b be
       0.3811225 0.3023223 0.1927967 -0.27175224
0001c0 ff 10 fa be 24 fd 02 3f 28 b0 4d 3e 01 a8 9e 3d
       -0.48841092 0.5116751 0.2008673 0.07746888
0001d0 b5 f0 e0 bd ba be 62 3e a3 04 88 be 72 5c 92 be
       -0.10983411 0.22143069 -0.26566038 -0.28586155
0001e0 7d a1 10 3f b7 85 c9 be 62 7f 6e 3d e2 d5 3b bf
       0.5649641 -0.3935983 0.05822695 -0.73373234
0001f0 fe 49 0e be 7c 23 9b be 57 7e b2 3d 66 69 cc 3e
       -0.13895413 -0.3030051 0.08715504 0.39924163
000200 3c e5 81 bf 5e 91 81 3e 89 76 26 3f 6d 51 14 3f
       -1.0148082 0.2530622 0.6502462 0.57936746
000210 c6 2c fb be 32 a7 9e 3e 66 ea 10 be 31 72 31 bf
       -0.49057597 0.30986935 -0.14151916 -0.6931487
000220 a1 84 af be 2f 42 c2 3d 2c 69 22 bf d5 f7 a3 be
       -0.34280875 0.0948528 -0.6344173 -0.32025018
000230 f0 bb c7 be b0 46 60 3d 5e 01 93 be a6 99 eb 3e
       -0.39010572 0.054754913 -0.2871198 0.46015662
000240 bc 60 3b 3e c1 d4 2b 3f e5 dd 74 be 92 71 f2 3e
       0.1829862 0.6712151 -0.23912771 0.47352272
000250 23 98 10 3d 67 3a 83 be ae 09 7c be c3 f0 57 be
       0.03530134 -0.25630495 -0.24613068 -0.21087937
000260 4a 1b 82 bd e6 cb 11 3f c8 0b ab 3e 13 65 93 bd
       -0.06352861 0.5695175 0.33407426 -0.07197013
000270 04 bd d7 3e 8f 9b a4 bd ef 25 db 3c ed 8f 15 bd
       0.42136395 -0.08037483 0.026751487 -0.03651421
000280 d7 16 bb be c8 f8 d2 3e 83 12 92 be 73 a2 02 bf
       -0.36540863 0.4120543 -0.28529748 -0.5102913
000290 08 b8 26 3f cb 20 06 bf fb 57 29 3e c3 2f 95 3d
       0.6512456 -0.5239379 0.16537468 0.072845004
0002a0 e8 2a a7 bc d9 68 18 3b 98 96 f1 3e 3a c4 98 bf
       -0.020406201 0.0023255853 0.47185206 -1.1934884
0002b0 17 53 59 bf 43 6c c3 3e fa f2 47 3d 47 79 53 3d
       -0.8489241 0.38168535 0.048815705 0.05162933
0002c0 01 8f 4a 3c bc 80 5f 3e 26 df 8d 3e 9a 71 8c 3e
       0.012363196 0.21826452 0.2770931 0.2743042
0002d0 df af 9d 3d e7 17 87 3e f3 17 65 3e 2e 6f ec 3d
       0.076995604 0.26385424 0.22372417 0.11544643
0002e0 21 9e 07 3f 8e 5b 43 3d 82 93 0b bf 51 20 aa 3e
       0.5297566 0.047694735 -0.54521954 0.3322778
0002f0 89 15 58 3e c1 ce 9a be 2f ee 95 3e 9e 8c 08 be
       0.21101965 -0.30235866 0.29283282 -0.13334891
000300 d2 00 03 bf 58 b1 d7 3e 0e 87 95 be 4d cb 88 3e
       -0.51173127 0.4212749 -0.292046 0.26717606
000310 3e 06 07 3f 66 73 17 3f ee 86 80 be 60 f4 4e bf
       0.527439 0.5916046 -0.25102943 -0.80841637
000320 e2 dc 92 3e ac 1e 08 bf 97 15 f3 bd f8 ed 0b bf
       0.28684145 -0.531718 -0.11869352 -0.54659986
000330 33 7b a3 3d 17 78 66 3d 78 a1 80 3e 8c 16 88 bf
       0.07982483 0.05626687 0.2512319 -1.0631881
000340 06 6a af 3e c6 8a e1 bc 76 06 8e be 7e 9e 82 3d
       0.34260577 -0.027531993 -0.27739304 0.06377886
000350 ce 11 53 be 4f b5 83 3e 1a 95 e3 3d 74 4e 2c bf
       -0.2061226 0.25724265 0.11112423 -0.6730721
000360 63 66 8d 3e b3 46 e8 3e 49 d6 1d 3e c4 52 98 be
       0.27617177 0.4536644 0.15413775 -0.29750645
000370 74 05 2b 3f 6a df 59 3e 74 5c ae be b2 e2 93 be
       0.66805196 0.21276632 -0.3405491 -0.28883892
000380 44 e9 d6 be e6 c5 d2 bd 30 4a 5d 3e dc a5 c5 be
       -0.41974843 -0.102916524 0.21610332 -0.38603103
000390 15 72 df 3e b1 dd 15 bf bc c3 9b be 27 ca a7 be
       0.43641725 -0.585414 -0.3042277 -0.32771417
0003a0 31 39 6c 3e 2a 69 dc be e9 1a f0 bd 6e a2 43 3e
       0.23068692 -0.43048984 -0.11723883 0.19104931
0003b0 a9 a0 16 3f 97 6d b9 be 51 a5 a9 bd ab b9 a5 be
       0.588389 -0.36216423 -0.08283485 -0.32368216
0003c0 70 28 9f 3e b2 71 00 3e dd f6 3d 3f 88 2a 13 bf
       0.3108554 0.12543371 0.7420481 -0.5748677
0003d0 cb c6 8d 3e ef bd fc be e0 24 e2 3c 36 f0 bd 3d
       0.2769073 -0.49363658 0.027605474 0.09274332
0003e0 23 eb fb bd 72 61 1a bd a3 9a 8f 3e ba e6 22 3f
       -0.12300708 -0.037690587 0.28047666 0.6363331
0003f0 65 2e 02 bd 53 f2 e7 be 3c 7d 15 3e 8c fe 29 3f
       -0.031782527 -0.45302066 0.14598554 0.6640403

network_body._body_endoder.seq_layers.0.bias f4 [128]
000000 00 00 00 00 00 00 00 00 00 00 00 00 00 00 00 00
       0.0 0.0 0.0 0.0
000010 00 00 00 00 00 00 00 00 00 00 00 00 00 00 00 00
       0.0 0.0 0.0 0.0
000020 00 00 00 00 00 00 00 00 00 00 00 00 00 00 00 00
       0.0 0.0 0.0 0.0
000030 00 00 00 00 00 00 00 00 00 00 00 00 00 00 00 00
       0.0 0.0 0.0 0.0
000040 00 00 00 00 00 00 00 00 00 00 00 00 00 00 00 00
       0.0 0.0 0.0 0.0
000050 00 00 00 00 00 00 00 00 00 00 00 00 00 00 00 00
       0.0 0.0 0.0 0.0
000060 00 00 00 00 00 00 00 00 00 00 00 00 00 00 00 00
       0.0 0.0 0.0 0.0
000070 00 00 00 00 00 00 00 00 00 00 00 00 00 00 00 00
       0.0 0.0 0.0 0.0
000080 00 00 00 00 00 00 00 00 00 00 00 00 00 00 00 00
       0.0 0.0 0.0 0.0
000090 00 00 00 00 00 00 00 00 00 00 00 00 00 00 00 00
       0.0 0.0 0.0 0.0
0000a0 00 00 00 00 00 00 00 00 00 00 00 00 00 00 00 00
       0.0 0.0 0.0 0.0
0000b0 00 00 00 00 00 00 00 00 00 00 00 00 00 00 00 00
       0.0 0.0 0.0 0.0
0000c0 00 00 00 00 00 00 00 00 00 00 00 00 00 00 00 00
       0.0 0.0 0.0 0.0
0000d0 00 00 00 00 00 00 00 00 00 00 00 00 00 00 00 00
       0.0 0.0 0.0 0.0
0000e0 00 00 00 00 00 00 00 00 00 00 00 00 00 00 00 00
       0.0 0.0 0.0 0.0
0000f0 00 00 00 00 00 00 00 00 00 00 00 00 00 00 00 00
       0.0 0.0 0.0 0.0
000100 00 00 00 00 00 00 00 00 00 00 00 00 00 00 00 00
       0.0 0.0 0.0 0.0
000110 00 00 00 00 00 00 00 00 00 00 00 00 00 00 00 00
       0.0 0.0 0.0 0.0
000120 00 00 00 00 00 00 00 00 00 00 00 00 00 00 00 00
       0.0 0.0 0.0 0.0
000130 00 00 00 00 00 00 00 00 00 00 00 00 00 00 00 00
       0.0 0.0 0.0 0.0
000140 00 00 00 00 00 00 00 00 00 00 00 00 00 00 00 00
       0.0 0.0 0.0 0.0
000150 00 00 00 00 00 00 00 00 00 00 00 00 00 00 00 00
       0.0 0.0 0.0 0.0
000160 00 00 00 00 00 00 00 00 00 00 00 00 00 00 00 00
       0.0 0.0 0.0 0.0
000170 00 00 00 00 00 00 00 00 00 00 00 00 00 00 00 00
       0.0 0.0 0.0 0.0
000180 00 00 00 00 00 00 00 00 00 00 00 00 00 00 00 00
       0.0 0.0 0.0 0.0
000190 00 00 00 00 00 00 00 00 00 00 00 00 00 00 00 00
       0.0 0.0 0.0 0.0
0001a0 00 00 00 00 00 00 00 00 00 00 00 00 00 00 00 00
       0.0 0.0 0.0 0.0
0001b0 00 00 00 00 00 00 00 00 00 00 00 00 00 00 00 00
       0.0 0.0 0.0 0.0
0001c0 00 00 00 00 00 00 00 00 00 00 00 00 00 00 00 00
       0.0 0.0 0.0 0.0
0001d0 00 00 00 00 00 00 00 00 00 00 00 00 00 00 00 00
       0.0 0.0 0.0 0.0
0001e0 00 00 00 00 00 00 00 00 00 00 00 00 00 00 00 00
       0.0 0.0 0.0 0.0
0001f0 00 00 00 00 00 00 00 00 00 00 00 00 00 00 00 00
       0.0 0.0 0.0 0.0

network_body._body_endoder.seq_layers.2.weight f4 [128, 128]
000000 60 4d 44 be 5c 18 00 3e d6 5e b3 3d d5 5c 4e bc
       -0.19170141 0.12509292 0.08758323 -0.012595375
000010 a0 50 c9 3d 7f 95 0f 3c aa 3f 9d 3d ef 5f 03 3e
       0.09829831 0.00876367 0.076781586 0.12829565
000020 e2 1d c0 3d 4f 7e 38 3e d3 34 a4 3c af 19 f7 bc
       0.093807 0.18016933 0.02004472 -0.030163614
000030 70 04 9f 3d 9e 70 f3 3c 25 a1 2e 3e be eb 38 be
       0.07764518 0.029716786 0.1705366 -0.18058679
000040 b9 1e 26 bc 17 1d 71 bc 0b 61 b2 3a 69 c2 9f 3d
       -0.010139161 -0.014716408 0.0013609243 0.07800753
000050 44 26 49 3b b9 0b 89 3d 59 05 ad 3c 14 d5 c2 bd
       0.0030692974 0.06691689 0.021120714 -0.09513298
000060 16 cf 51 bd 4e a8 12 3e e2 97 33 bd c2 9b e9 b9
       -0.051222883 0.14322016 -0.04384602 -0.00044557272
000070 b0 d0 08 bd 4f f7 7c 3d d5 d0 42 3e 62 0c c0 bc
       -0.033402145 0.06175929 0.19024976 -0.023443405
000080 5b 85 09 3d e4 08 39 be 06 35 19 be 16 89 b2 3c
       0.033574443 -0.18069798 -0.14961633 0.021793883
000090 83 af ee bc 4d 9b c6 bd 5a 52 50 bd 9d a9 cd 3d
       -0.029136425 -0.0969759 -0.050859787 0.10042117
0000a0 85 72 1c 3e 3e ed 22 3d 8b 54 09 be 46 a9 38 3a
       0.1527806 0.039777033 -0.13411157 0.00070442667
0000b0 ce da af bd 01 8e 8a bd 2f 14 47 bc 61 8b 26 bd
       -0.085866556 -0.06765366 -0.012150808 -0.040660266
0000c0 fa 1f 1f bd a6 07 1f 3e 65 6e 6d bd 9c f2 70 bc
       -0.038848855 0.15530261 -0.05796661 -0.01470628
0000d0 ac ed be bc 34 50 94 bd 0e 4d 9c 3d 1b 5b 35 3c
       -0.02330669 -0.0724186 0.076318845 0.0110690845
0000e0 54 6a d0 3c 9f 75 ae 3d 72 9f eb 3d c3 0f f7 3d
       0.025441326 0.08518528 0.11505021 0.12063553
0000f0 cd 01 85 3d 73 56 6d be d2 05 c4 bd 60 a8 9b 3d
       0.06494484 -0.23177509 -0.09571423 0.07600474
000100 a4 af 26 be ab 53 1f bc 65 7d f0 ba 47 df b2 3d
       -0.16277939 -0.009724538 -0.0018347917 0.08733993
000110 f4 1e 4c bc 33 a1 f5 3b 6f d2 ab 3c 54 0b 32 3d
       -0.012458552 0.007496023 0.020974366 0.043467835
000120 03 cf b6 3d a4 05 7c bb b0 74 14 bd 8a 57 23 be
       0.08926203 -0.003845551 -0.036244094 -0.15951362
000130 e0 1b b9 bd 4c f8 97 bd c6 50 aa 3d 72 50 1a be
       -0.0903852 -0.07420406 0.083161876 -0.1506975
000140 96 dc 97 bb f1 cb 03 3d a3 ae 46 bd 56 43 14 bd
       -0.00463445 0.032176916 -0.04850639 -0.03619703
000150 1c 72 e5 bd f1 fd f6 bd 72 4c 70 3d 83 55 86 bd
       -0.11203405 -0.12060154 0.058666654 -0.06559279
000160 99 f2 88 3d 0c 21 b4 3d 0a 84 33 3d ec b6 1f be
       0.06686897 0.08795366 0.043827094 -0.15597123
000170 46 aa 37 3d bc 2b b7 bd b6 7c 09 3c db b2 01 bd
       0.04484012 -0.089438885 0.00839155 -0.03166471
000180 df 1f ff 3c eb 34 0f 3e 28 3d c3 3d 14 68 2f bd
       0.031143127 0.1398503 0.09533149 -0.042823866
000190 87 5a aa bd 2c e0 ef 3d bf e1 0f 3e 88 5f b9 bd
       -0.08318048 0.11712679 0.14050959 -0.09051424
0001a0 29 f0 05 3d e3 e2 ca bd 45 09 01 bd cf 24 f5 3d
       0.032699738 -0.099065565 -0.03150298 0.11969911
0001b0 53 6a cd bc 18 f2 d7 3d 8a cc d1 3b 37 5a 7e be
       -0.025075113 0.105442226 0.006402557 -0.24839102
0001c0 99 f5 85 bc ba e1 2d bd 5c 03 b4 bc 34 82 9b bd
       -0.016352462 -0.042451598 -0.021974258 -0.07593194
0001d0 ca 08 dc bc 10 96 e2 3c 1a e3 ea 3d e2 05 48 3e
       -0.02685966 0.027659446 0.114690974 0.19533494
0001e0 93 e0 32 bd 3e 59 00 3d 0e 2d 06 be 61 e0 9e 3a
       -0.043671202 0.031335108 -0.13103124 0.0012121313
0001f0 63 43 b7 3d f6 77 7e bd a8 8c 53 bd db a5 04 3e
       0.089484 -0.062126122 -0.051647812 0.12953894
000200 94 e0 a2 bd 7e b1 8a bc d4 87 10 be f2 1c bf 3d
       -0.07952991 -0.016930338 -0.14114314 0.09331693
000210 75 8f d3 3d af 48 77 39 48 ea ba bd 06 69 d7 bc
       0.10330097 0.00023582832 -0.09126717 -0.026295196
000220 50 3e 99 3d 28 07 56 3c 34 7a 04 be 5e 20 94 3d
       0.07482588 0.01306323 -0.12937242 0.07232736
000230 10 d6 d5 bd 4d 46 c3 bc 46 68 52 3e cb e0 28 3e
       -0.1044122 -0.023837233 0.2054759 0.16492002
000240 b3 51 60 be 87 21 ad 3c d3 3e d9 bc 98 c2 02 3e
       -0.21906166 0.021134151 -0.026519215 0.12769544
000250 ca 14 0a 3e 2a 08 bb bd 97 32 b3 bd a5 04 c0 bb
       0.13484493 -0.091324165 -0.087498836 -0.0058599287
000260 1e 51 10 3e d7 ed 1c 3e 04 07 3b 3d 3b 20 85 bd
       0.14093444 0.15325104 0.045660987 -0.06500288
000270 a1 10 99 3c 75 56 9d bd 6d 0f 41 be 7d e3 81 bd
       0.018684687 -0.07682506 -0.1885354 -0.06342218
000280 2e 8b 36 bd e0 69 44 bd f3 aa 0b 3e 4f e0 21 be
       -0.044566326 -0.047952533 0.1363943 -0.15808223
000290 ff dc 90 be 77 e7 1c 3e cb 9a 7e 3d c5 3e f8 3c
       -0.28293607 0.15322672 0.06215934 0.030303368
0002a0 15 07 db 3d 08 9b 3e bd f6 8b 30 be 8e 77 df bd
       0.1069471 -0.046534568 -0.17240891 -0.10911475
0002b0 7f a9 9a 3c f0 46 94 bb c0 ff 0c bd 91 f2 fd 3d
       0.01887965 -0.004525058 -0.03442359 0.123997815
0002c0 c5 08 d9 bc 5a e9 d5 bc bd e8 e2 bd 82 ae ca 3c
       -0.02649344 -0.026112247 -0.110795476 0.024741415
0002d0 fe 56 0d bd 5e 0e 0d be 7a d3 0d be ac a5 8e bd
       -0.03450679 -0.13775012 -0.13850203 -0.06965193
0002e0 82 2d 95 bb 04 40 71 3d 01 ad 16 be ae a3 92 3d
       -0.004552544 0.05889894 -0.14714433 0.07160126
0002f0 6e 6f 2d 3c 62 0e 02 bd 6b 4c 90 bc 53 4f 8d 3d
       0.010585649 -0.031751998 -0.017614564 0.068998955
000300 3d ed e0 3c 19 e8 c1 bc fb c2 3f ba d3 61 0b 3d
       0.027456874 -0.023670243 -0.0007315126 0.03402884
000310 18 c6 36 3d 3c 8e 7c 3d e2 f4 11 bd 4a 40 55 bd
       0.04462251 0.061659083 -0.03563393 -0.052063264
000320 ac 06 09 3e fe c8 f7 bc ce fc b4 bc 4c f5 fd 3d
       0.13381451 -0.030247208 -0.022093203 0.12400302
000330 cf fd 73 3d bf ee 89 bd 16 17 ba bd 5c 20 de bd
       0.059568223 -0.0673499 -0.090864345 -0.10846016
000340 68 2f 46 3e e2 50 cd 3c fb a2 fe bd 0a 11 91 3d
       0.19354022 0.025062982 -0.1243343 0.07083328
000350 4c 5b 1d bd dd 28 2b bd b8 ce 22 be 31 c9 c2 3c
       -0.038417146 -0.041787017 -0.1589917 0.023777576
000360 76 ee c6 3d 71 b9 bd bd 9b 1a 23 be 6a 7d ba 3b
       0.097134516 -0.09263886 -0.15928118 0.00569122
000370 3f c5 06 3e a3 86 05 3e af 1b a7 bd 41 e5 1d 3e
       0.13161181 0.13039641 -0.08159577 0.15419485
000380 68 23 98 3d d0 e0 1d 3e 81 3a 7e 3c 2f f2 13 3e
       0.07428628 0.1541779 0.015516878 0.14447854
000390 50 76 45 be 98 59 f7 bc 31 5f 3d 3d 26 76 b4 3d
       -0.19283414 -0.030194089 0.04623336 0.088115975
0003a0 54 1d 04 3e 1e cd 39 3d 6c 50 80 3c 2a 9f ee bd
       0.12901813 0.04536163 0.015663348 -0.11651452
0003b0 35 29 24 bd 9b 9d 0e be 6a bb e4 3d 8f 55 c7 3b
       -0.04007836 -0.13927309 0.11168559 0.0060831974
0003c0 36 11 07 be b4 72 25 3d da 8a 83 bd 3d 51 8e 3c
       -0.13190159 0.040392593 -0.06422968 0.017372722
0003d0 96 89 c1 3c 68 f2 65 bd 0d 2a 81 bd c8 58 8b 3d
       0.023625176 -0.05613938 -0.06306849 0.06804043
0003e0 8f 0b 3e 3e 39 f9 f8 bc 36 65 11 bd e6 54 9b 3d
       0.18559097 -0.030392276 -0.035496913 0.075845525
0003f0 0a ee 9c 3d fb 59 ff bc 38 8c 1d bc 1a 5e 0e be
       0.0766259 -0.031170836 -0.00961595 -0.13903084

network_body._body_endoder.seq_layers.2.bias f4 [128]
000000 00 00 00 00 00 00 00 00 00 00 00 00 00 00 00 00
       0.0 0.0 0.0 0.0
000010 00 00 00 00 00 00 00 00 00 00 00 00 00 00 00 00
       0.0 0.0 0.0 0.0
000020 00 00 00 00 00 00 00 00 00 00 00 00 00 00 00 00
       0.0 0.0 0.0 0.0
000030 00 00 00 00 00 00 00 00 00 00 00 00 00 00 00 00
       0.0 0.0 0.0 0.0
000040 00 00 00 00 00 00 00 00 00 00 00 00 00 00 00 00
       0.0 0.0 0.0 0.0
000050 00 00 00 00 00 00 00 00 00 00 00 00 00 00 00 00
       0.0 0.0 0.0 0.0
000060 00 00 00 00 00 00 00 00 00 00 00 00 00 00 00 00
       0.0 0.0 0.0 0.0
000070 00 00 00 00 00 00 00 00 00 00 00 00 00 00 00 00
       0.0 0.0 0.0 0.0
000080 00 00 00 00 00 00 00 00 00 00 00 00 00 00 00 00
       0.0 0.0 0.0 0.0
000090 00 00 00 00 00 00 00 00 00 00 00 00 00 00 00 00
       0.0 0.0 0.0 0.0
0000a0 00 00 00 00 00 00 00 00 00 00 00 00 00 00 00 00
       0.0 0.0 0.0 0.0
0000b0 00 00 00 00 00 00 00 00 00 00 00 00 00 00 00 00
       0.0 0.0 0.0 0.0
0000c0 00 00 00 00 00 00 00 00 00 00 00 00 00 00 00 00
       0.0 0.0 0.0 0.0
0000d0 00 00 00 00 00 00 00 00 00 00 00 00 00 00 00 00
       0.0 0.0 0.0 0.0
0000e0 00 00 00 00 00 00 00 00 00 00 00 00 00 00 00 00
       0.0 0.0 0.0 0.0
0000f0 00 00 00 00 00 00 00 00 00 00 00 00 00 00 00 00
       0.0 0.0 0.0 0.0
000100 00 00 00 00 00 00 00 00 00 00 00 00 00 00 00 00
       0.0 0.0 0.0 0.0
000110 00 00 00 00 00 00 00 00 00 00 00 00 00 00 00 00
       0.0 0.0 0.0 0.0
000120 00 00 00 00 00 00 00 00 00 00 00 00 00 00 00 00
       0.0 0.0 0.0 0.0
000130 00 00 00 00 00 00 00 00 00 00 00 00 00 00 00 00
       0.0 0.0 0.0 0.0
000140 00 00 00 00 00 00 00 00 00 00 00 00 00 00 00 00
       0.0 0.0 0.0 0.0
000150 00 00 00 00 00 00 00 00 00 00 00 00 00 00 00 00
       0.0 0.0 0.0 0.0
000160 00 00 00 00 00 00 00 00 00 00 00 00 00 00 00 00
       0.0 0.0 0.0 0.0
000170 00 00 00 00 00 00 00 00 00 00 00 00 00 00 00 00
       0.0 0.0 0.0 0.0
000180 00 00 00 00 00 00 00 00 00 00 00 00 00 00 00 00
       0.0 0.0 0.0 0.0
000190 00 00 00 00 00 00 00 00 00 00 00 00 00 00 00 00
       0.0 0.0 0.0 0.0
0001a0 00 00 00 00 00 00 00 00 00 00 00 00 00 00 00 00
       0.0 0.0 0.0 0.0
0001b0 00 00 00 00 00 00 00 00 00 00 00 00 00 00 00 00
       0.0 0.0 0.0 0.0
0001c0 00 00 00 00 00 00 00 00 00 00 00 00 00 00 00 00
       0.0 0.0 0.0 0.0
0001d0 00 00 00 00 00 00 00 00 00 00 00 00 00 00 00 00
       0.0 0.0 0.0 0.0
0001e0 00 00 00 00 00 00 00 00 00 00 00 00 00 00 00 00
       0.0 0.0 0.0 0.0
0001f0 00 00 00 00 00 00 00 00 00 00 00 00 00 00 00 00
       0.0 0.0 0.0 0.0

value_heads.value_heads.extrinsic.weight f4 [1, 128]
000000 54 5c 50 3e 36 25 e1 bd a4 7a 03 3e 2c 6e f2 3d
       0.2034772 -0.109934255 0.12839752 0.1183742
000010 b4 74 16 3e 80 8c b4 3a 93 53 5b be dc 9f 2c 3e
       0.14692956 0.0013774782 -0.214186 0.16857857
000020 3c 67 7d bd 13 e8 38 be ac 21 62 bd c0 d2 68 3d
       -0.06186603 -0.1805728 -0.055207893 0.05684161
000030 81 75 41 be f8 a9 93 bc b4 25 2e be 10 5d 2c bc
       -0.1889248 -0.018025383 -0.1700657 -0.010520235
000040 17 52 10 be c2 ef 39 3e 28 cc 4d bd 0a 16 b5 bd
       -0.14093815 0.18157867 -0.050243527 -0.08842094
000050 d6 6b 33 be c0 a7 2e 3e 28 b5 45 3e 60 1c eb 3d
       -0.17521605 0.17056179 0.19307387 0.114800215
000060 ec 0e 2b 3e 46 2c 3c 3e 4e ba cb bd 24 a3 35 3e
       0.16704911 0.18376264 -0.09947644 0.17738014
000070 48 c8 e9 3d 0c 08 c9 3d 00 d1 a7 3d a0 39 c6 bb
       0.11415154 0.09815988 0.081941605 -0.00604935
000080 36 35 8e bd 66 3d c5 bd d2 05 10 be ae 72 12 be
       -0.06943743 -0.096308514 -0.1406472 -0.1430156
000090 34 59 f3 3d f6 84 48 3e d0 c2 df 3c e8 4f 46 bd
       0.118822485 0.1958197 0.027314574 -0.04841605
0000a0 90 41 50 3e ee 0c 0b 3e 8a 3d 30 3e 60 56 14 3e
       0.2033751 0.13579151 0.17210975 0.14486074
0000b0 d0 81 95 3d 00 cc d1 3b 14 54 a4 3d b2 8c 08 3e
       0.073001504 0.0064024925 0.08023849 0.13334921
0000c0 8c d7 ed bd c4 90 9d bd 48 84 54 3e e0 5b ba bd
       -0.11613378 -0.076936275 0.20753586 -0.09099555
0000d0 f4 c2 b6 3d 36 4b 48 be 4c 6e 2f bd d8 a0 41 3d
       0.08923903 -0.1955994 -0.042829797 0.047272533
0000e0 38 89 4d be 08 8f fe 3d c0 88 a0 bb c8 98 66 bd
       -0.20071876 0.12429625 -0.0048991144 -0.056298047
0000f0 d0 12 63 bc c8 5e d9 bd 48 8b 3c 3d 2c f5 f7 3d
       -0.013859466 -0.10613781 0.046031266 0.1210731
000100 e0 b9 14 be c8 02 0d 3d a4 22 25 3e 8c 6f 30 3e
       -0.1452403 0.03442648 0.16126496 0.17230052
000110 60 35 61 3d 50 8c 8d bd a6 6f 37 3e 08 21 36 3d
       0.054982543 -0.06911528 0.17913684 0.044465095
000120 74 46 88 3d c0 df 21 bb 00 42 69 bc 9e 29 96 bd
       0.06654063 -0.0024700016 -0.014236927 -0.073321566
000130 38 81 07 be 10 bc 48 bd 98 c8 86 3d e0 b0 3c 3e
       -0.13232887 -0.049007475 0.06581229 0.18426847
000140 0c a4 ae 3d 06 0a 3b 3e b0 7f ba 3d b9 6b 1d be
       0.08527383 0.18265542 0.09106386 -0.15373124
000150 e8 6e 6e bd 20 85 23 3e 74 be 84 3d 5c 04 40 bd
       -0.058211237 0.15968752 0.064816386 -0.046879157
000160 1e 1c 27 be 60 3f 61 3d f0 f5 70 3c ae bd 14 3e
       -0.1631932 0.05499208 0.014707074 0.14525482
000170 36 5d 30 be c1 55 58 be a2 72 16 3e 64 f0 6d bd
       -0.17223057 -0.21126463 0.14692166 -0.058090582
000180 30 14 d5 3c 98 b2 1d 3e 18 4b c6 3c e8 18 43 3d
       0.026010603 0.1540016 0.02420573 0.047631174
000190 0c ce ef 3d fe 5d 39 3e 44 4e 85 bd 8a 74 21 be
       0.11709222 0.18102261 -0.065090686 -0.15767112
0001a0 22 75 0f be 92 b1 1a 3e f0 8b 6b 3d 98 58 bf 3c
       -0.14009526 0.151068 0.0575065 0.023357674
0001b0 ba 60 9d bd d6 50 1c 3e 84 af 50 bd 04 5f d7 3d
       -0.07684465 0.15265211 -0.050948635 0.1051617
0001c0 3d cf cb bd 5f d9 45 be e0 6f 09 3c f8 d5 05 be
       -0.09951637 -0.19321202 0.0083884895 -0.13069904
0001d0 08 ed 7f bd f6 45 45 3e ba 4e 36 be 58 d2 2c be
       -0.06248191 0.19264969 -0.1780347 -0.16877115
0001e0 ec e7 dc 3d d4 2c ce 3d 70 53 0c be 30 4e c3 bd
       0.10786423 0.10067144 -0.13703704 -0.095363975
0001f0 a0 fd 64 3d a2 59 31 be 28 72 f0 bd 5a 69 37 3e
       0.05590594 -0.17319348 -0.117405236 0.17911282
